net.pkl (torch_old, 199112 bytes, 8 tensors)

weight f4 [256, 26]
00000000: 7155 45bd 9466 5c3d 3d7d 1ebb 052e 4c3c
00000010: 3072 173b 2dc9 96bb 5e89 823c 78ed 033d
00000020: cb85 85bc d290 873c 9ef6 25bd 4708 2f3d
00000030: c30a b8bc c024 633c 1aca a23c b721 1f3d
00000040: d88a 393c b9cb afbc 9694 d53c b24e 1e3c
00000050: 1dc9 923d 4ebd 3d3c 5ef3 e93c 0b3f 643b
00000060: e04a 8ebc 6b1f adbc 2295 adbc 2b26 723b
00000070: f61b d6bb f7f8 513c d64b 02bb 0c49 2ebb
00000080: 7037 ec3c a1c4 963c 3f9e 353c ce70 d13c
00000090: eac1 913b d4e8 dc39 059f e6ba ab42 b33a
000000a0: fe67 e53b c252 8d3c 83f3 5dbb 5d4d 1b3c
000000b0: 0d9c 6abc 7480 e5bb 50df 88bc 5244 363b
000000c0: d9b0 ae3c 40ce 53bc 3db8 fa3b 20a7 a23c
000000d0: c200 003e 8404 3c3e 1ee4 a43c 5b0f 57be
000000e0: 70e7 3dbc 3ddb 3c3e b179 6f3e b578 9ebd
000000f0: 5e9b 52be a4d8 e13b a73b ccbc 940b 14bd
00000100: 98d7 9c3d 02ad 94be 69dc fc3d 70f6 10be
00000110: 9b3a 36be 956e a13a 1bf9 b73d 6649 4d3e
00000120: e1e4 1abd b118 013e 9770 b938 3193 b43d
00000130: de2a 7abd 72c0 25bd 064d 6dbb b25a 5bbb
00000140: 3f7a 993c 2339 413c 74e1 733c b2db 8e3c
00000150: f1e0 2a3c 1338 09bc 85df 40ba 990b 103c
00000160: 5438 14bc cd9e 1b3c eeb4 2bbc 888f 6a3c
00000170: 626f 26ba fc8a 323c 70e4 bb3b 2f7a 513b
00000180: 35e0 093a a57c d33b dcc6 ea3a 464d 08bb
00000190: 6225 03bc 4ad2 f4bb c545 493b 0710 863c
000001a0: 83a8 4e3c e576 39bc fe9f f53b dc91 a13c
000001b0: 9f03 5439 d911 853b 226b 143b d871 b2bc
000001c0: e76d c1bb 8825 06bc 2c6c 603c aaf5 4fbc
000001d0: 8da0 583c f1b9 f1b9 2fb8 70bd 63a2 883a
000001e0: e57f afbc fb7c a43c b2a7 04bc cceb 2c3d
000001f0: 833d c33c e1c7 183c aef4 0c3d 5afd 35ba
00000200: 679e 84bc 13a8 703b 0e20 3cbc 8471 4e3d
00000210: cf43 493c 4c04 093a 38f9 933b aedc 0cbb
00000220: 5a36 d93c 1019 3ebd 6b4a 903b 3141 e03b
00000230: 9bdb c0bb cfc0 c9bc 76c4 99bc 1532 d7bb
00000240: 2c3f 01bc 44ff b73c fa17 b0bc ddf5 443d
00000250: 65c0 933b 813c 833c 902b 633c c9e6 1d3b
00000260: ec9c 063d 7025 7abb a1ea bbbc 3ad8 95bc
00000270: 3a55 4bbe 494f 933e 7c6a 8abd 994a 36bd
00000280: 7eec e2bd b942 0cbe 70aa fb3b 2c0b 72bd
00000290: 43b0 bd3e a874 2abe f99b c5bd a48d 533e
000002a0: 21d1 cd3d e28c 5fbc 536d 1f3d 28a7 3f3c
000002b0: d927 3c3e 397b 4f3d 0887 0cbe ac19 75bc
000002c0: 9fc4 6cbe e145 ffbd 1084 313e 916d 163e
000002d0: 3564 e83d 8539 163e 6ce1 bcbc 5a22 01bc
000002e0: 5058 25bb b173 92bc d94c 70bc 3927 ef3b
000002f0: 571d c03a 8cd5 b93b c9cd 3d3c ab23 20bc
00000300: 0d9f 123d f922 88bd bd01 8c3c ea45 ac3b
00000310: 5064 c5bc 8fda b3bc 2d6b 9cbc a0de 913c
00000320: 66ca 14bb 1689 a73b b753 9ebc 9513 fc3b
00000330: 809d 02bd 6ea1 04bc edd0 50bd 80f2 1c3c
00000340: 1128 9fbc 4c80 a53b 5d52 38ba 8947 79bb
00000350: d39a f2bb 7a69 23bb c40b 283c e349 dcbb
00000360: 81c6 1bbc ec4d c8bb c82f c73b 172a 02bc
00000370: 233d 5bbc 3a0e 13bc a3de 593b 03d7 07bc
00000380: 6d49 9f3c ff3a 073c 9c7b 44bb 59ea 103d
00000390: f9ae a1bb 91db b73c 8f39 f3bc 542b 8fbb
000003a0: 8b13 973c 71e1 cfbb 7ca7 3cbc 3cf9 1e3d
000003b0: 3109 993c a72c 1f3c da45 dd3b 6f40 013d
000003c0: f9e4 003b 3811 de38 fe6a 1abb fbd4 90bc
000003d0: f8da 2a3b a8fd 74bc ff5e c73c 56ec 963c
000003e0: 89d9 90bc 3c57 f43b 48ce d0b9 216c af3c
000003f0: aeae 42bc 3213 cfbc 7f09 02bc 9099 893c
-0.048177186 0.053808764 -0.0024183535 0.012462144 0.0023108833 -0.0046016187 0.015934642 0.03220889
-0.016299149 0.016548548 -0.040518396 0.042732503 -0.02246607 0.013863742 0.01987176 0.038850512
0.011324607 -0.021459447 0.026071828 0.009662317 0.071672656 0.011580778 0.02855843 0.0034827616
-0.017369688 -0.021133145 -0.021189276 0.003694902 -0.006534095 0.0128157055 -0.0019881628 -0.0026593832
0.028835028 0.018404307 0.011085092 0.025566485 0.004448165 0.0004213514 -0.0017594999 0.0013676485
0.007000922 0.017251376 -0.0033867068 0.009478894 -0.014319432 -0.007003838 -0.016708046 0.0027811718
0.021324562 -0.012927592 0.0076513574 0.019855082 0.12500289 0.18361098 0.020128306 -0.21001951
-0.0115908235 0.18443008 0.23386265 -0.07737867 -0.2056708 0.0068922807 -0.024930788 -0.036143854
0.07658309 -0.29038244 0.123467274 -0.14156508 -0.17795794 0.0012316281 0.0898306 0.2004753
-0.037815932 0.12607075 8.842459e-05 0.08817137 -0.061076038 -0.040466733 -0.003620924 -0.0033470807
0.01873505 0.011793408 0.014885295 0.017438743 0.010429607 -0.008375186 -0.0007357526 0.008791828
-0.009046633 0.00949831 -0.010480149 0.014316447 -0.0006348995 0.010897394 0.005734019 0.0031963696
0.00052595447 0.006454068 0.0017912048 -0.0020798012 -0.008004518 -0.0074713575 0.0030711752 0.016365064
0.0126134185 -0.011319851 0.007495879 0.019722871 0.00020219244 0.0040609655 0.0022646864 -0.0217828
-0.005902994 -0.008187659 0.013697665 -0.012692848 0.013221872 -0.0004610564 -0.0587694 0.0010424372
-0.02142329 0.020079127 -0.008096622 0.04221706 0.023833042 0.009324999 0.034413032 -0.00069423544
-0.016188813 0.0036721274 -0.011482252 0.050401226 0.012284233 0.00052267755 0.004515793 -0.002149384
0.026515175 -0.04641062 0.0044034026 0.006843709 -0.005885554 -0.024628071 -0.018770438 -0.0065672495
-0.0078885965 0.022460587 -0.021495808 0.048086036 0.004509019 0.016020061 0.013865367 0.0024093858
0.032864496 -0.0038169287 -0.022939028 -0.018291581 -0.1985673 0.28771427 -0.067585915 -0.044504736
-0.110802636 -0.13697328 0.00768023 -0.059092686 0.3704854 -0.16646063 -0.0964889 0.206595
0.10049654 -0.013644429 0.03892262 0.011697568 0.18374576 0.050654624 -0.13723385 -0.014959734
-0.2312188 -0.124645 0.17335534 0.14690234 0.11347238 0.1467038 -0.023056708 -0.007881725
-0.002522964 -0.017877432 -0.014666759 0.007298377 0.0014657181 0.0056712087 0.011584708 -0.009774129
0.035796214 -0.066472955 0.017090673 0.005257358 -0.024095684 -0.021954803 -0.019094074 0.017806351
-0.0022703647 0.0051127775 -0.019327028 0.007692764 -0.031888485 -0.008095128 -0.050980497 0.009579301
-0.019428285 0.0050506946 -0.0007031316 -0.0038037023 -0.0074037104 -0.0024934695 0.010256711 -0.006722675
-0.009507776 -0.0061128046 0.006078694 -0.007944605 -0.013381275 -0.00897556 0.0033244274 -0.008291009
0.019444192 0.008253812 -0.0029980903 0.03537974 -0.0049341884 0.022443565 -0.029690532 -0.004369179
0.018441936 -0.0063440134 -0.011514541 0.038811907 0.01868114 0.009715236 0.0067527117 0.03155559
0.0019667728 0.00010588992 -0.0023562307 -0.017679682 0.0026070457 -0.0149530545 0.02433729 0.01842324
-0.017681854 0.007456688 -0.00039826543 0.021413865 -0.011882467 -0.025277708 -0.007936834 0.016796857

bias f4 [256]
00000000: e265 b8bd 77bd cbbd 5d7b 763d 62f4 22bd
00000010: 0933 04be 489f ebbd 7d49 b6be acac ecbd
00000020: 02be acbd 830c 04be 907a 05be 5c41 f2bd
00000030: 36ba 8f3e c5be 1bbe 3e97 85be f3f7 eabd
00000040: 64a6 9a3c b5b1 fbbd fc1d d0be c24c 13be
00000050: 8540 05be 5706 483d 1e62 00be 7225 30be
00000060: 63eb afbe ddb6 26bc 883e 00be 670d 03be
00000070: a5cb 04bd c4a1 1bbe 9943 94be 6d01 f9bd
00000080: 64b8 e4bd 8aa6 573a d269 c3bd 0c4f 10be
00000090: 1ff0 68bc 928a 11be 9ff8 06be 9e36 06be
000000a0: dfb9 d3bd 21a3 0bbe 3024 efbd c68e 10be
000000b0: c918 0bbc 72c1 eabd 8c49 00be 7ac8 47be
000000c0: 19e8 88bd bf7b 10be e09b debd 669e 8ebc
000000d0: 6b82 26be 2424 18be f2a8 5fbe 94f6 c1bd
000000e0: 3fd2 d4bd 7d5f f8bd 8548 0cbe 2ea7 b7bd
000000f0: b945 8cbc 491d d6bd 3077 08be b268 adbd
00000100: c63f cdbd 6256 00be 8453 09be 8149 0fbd
00000110: 44e8 1ebe 6d8f e9bd 70ee d5bd 7e8a d5bd
00000120: 5f2f b4bc 5b65 f6bd 805c 11be 2280 fdbd
00000130: 86ee b53b 608e 23be 7ed6 bdbd 6c24 023d
00000140: e8ca 09be d3af 05be 5f52 adbe a06f c3bc
00000150: 13d3 20be f361 0fbe 1a25 02bd c67b 20bd
00000160: 3ad9 01be ddd5 ff3c 6eb3 84be 5fc2 debd
00000170: 14dc 96bc 1424 66be 27a0 febd 015b 2d3c
00000180: 4a9e 43be ac9e 0bbe 3dff 0abe 0eaf 08be
00000190: 8442 acbd 20e4 643e c54f 00be 7944 b3bd
000001a0: e163 ebbd aa28 c0bd 904b 1cbe 0fa6 0fbe
000001b0: 08a2 dcbd 0910 06bd 9259 69bd 56f5 fcbc
000001c0: 91e5 f5bd 69fe 5ebd 61f7 c9bd 20b1 81be
000001d0: 1919 c2bd 654b 26be a5bf 0fbe 3bfe f8bd
000001e0: 0650 9dbd 6702 c3bd f6a8 8bbe c6de 28be
000001f0: 98c0 a0bd 1b8a 10be 7f61 8bbd f3de bfbd
00000200: aab1 46be ce8f f1bd 7091 97bd 7ff7 823d
00000210: d816 87be 6d11 f5bd eb5f d0bd deae 68bd
00000220: 6251 04be 4a95 0fbe c651 b2bd c7f9 b83d
00000230: cc1f 96be ab7c a8bd 6d9f f2bd 2498 103d
00000240: 4a2c 1ebe cefe 3dbe f457 c7bd 100d debd
00000250: e073 1cbe 67b2 c9bd 1378 08be c8f0 f3bd
00000260: 73e3 a6bb c34c 05be 277b ebbd 3552 b5bd
00000270: 7ec6 ec3c ba34 08be 6837 15be abe5 d6bd
00000280: a290 f5bd cc53 35bd 8d29 febd adec 12be
00000290: 38bd ed3c 65a7 12be 9668 10be 7b1f 9e3d
000002a0: a800 f4bd c6b7 22be dde6 7a3c cbf6 9d3d
000002b0: c632 a9be da37 e83c e953 29be 873d 3b3d
000002c0: 1963 e4bd 81ff d3bd 8d03 e6be f622 04be
000002d0: 2895 1ebe 5030 07bd 6965 e0bd 9b4d 8ebe
000002e0: 309a fdbd aafd 44be 2441 61be f319 06be
000002f0: d588 2abe 8650 c3bc 2985 01be 3275 60be
00000300: 4a69 a6bd cb5b efbd cf70 12be 869d d3bd
00000310: b5b1 44be 43b6 13be 3062 9abd d83b 0fbe
00000320: fa6a 92bd d11d 02be 07b2 c5bd 7513 5cbe
00000330: dd55 71bd 41bb 3fbe d901 efbd 8ca4 b4bd
00000340: b8cf afbd a401 febd 8951 f7bd e3c2 9ebd
00000350: 0eb3 f1bd b1ec c8bd 90e3 01be 7bde 42be
00000360: 58c5 9fbd 0111 83bd 1952 0bbe 37cc ecbd
00000370: 9f41 debc acaa 59be fc87 92bd abc7 2abe
00000380: 5af9 e1bd 9114 5bbd 809f 11be 9e60 afbd
00000390: 9e22 dfbd 8b90 13be ebb0 debd 76b6 0bbe
000003a0: 6ef6 0bbe f2b2 5fbc 2c13 03be 69f6 24be
000003b0: b10b 28be 9eda fdbd ed1e d2bd e4b3 c1bd
000003c0: 57d1 19be 7fd4 87be 6d8c 7cbd 2d99 0dbe
000003d0: 3147 8ebd 9564 15be c2b8 f4bd 09f8 04be
000003e0: c3d4 0bbe f6a9 95be 47aa 3abd 1437 2bbe
000003f0: 3f9c efbd eab0 81be 71e3 efbd cb92 02be
-0.090038076 -0.09948247 0.060176242 -0.039783843 -0.12910093 -0.1150499 -0.35602942 -0.11556372
-0.084346786 -0.12895398 -0.13035035 -0.118288726 0.28071755 -0.15209492 -0.2609195 -0.11473074
0.01887817 -0.12289754 -0.40647876 -0.1438475 -0.13012893 0.04883417 -0.12537429 -0.17201784
-0.34359273 -0.010175434 -0.12523854 -0.12798081 -0.032420773 -0.15198427 -0.28957823 -0.12158475
-0.11167982 0.00082264154 -0.09541668 -0.14092654 -0.014217406 -0.14213017 -0.13180779 -0.13106772
-0.103381865 -0.13636447 -0.11676824 -0.14116964 -0.008489796 -0.11462678 -0.12528056 -0.1951007
-0.06684894 -0.14109705 -0.108695745 -0.017409515 -0.16260688 -0.14857537 -0.21841791 -0.09470859
-0.10391664 -0.12127588 -0.13699539 -0.08967434 -0.01712309 -0.104548045 -0.13326716 -0.08467235
-0.100219294 -0.12532952 -0.13410765 -0.03498221 -0.1551829 -0.114043094 -0.10445869 -0.10426806
-0.021995245 -0.12031051 -0.14195442 -0.12377955 0.005552116 -0.1597228 -0.09269427 0.031773016
-0.13456309 -0.13055353 -0.33851907 -0.023856938 -0.15705518 -0.14002208 -0.031773664 -0.03918054
-0.12680522 0.031229908 -0.25918144 -0.10876917 -0.018415488 -0.224747 -0.124328904 0.010580779
-0.19103351 -0.13634747 -0.13573928 -0.13348028 -0.08411124 0.22352648 -0.1253043 -0.087532945
-0.1149366 -0.09382756 -0.152632 -0.1402819 -0.107730925 -0.032730136 -0.056970187 -0.030878704
-0.12006677 -0.054441843 -0.09861637 -0.25330448 -0.09477443 -0.16239698 -0.1403795 -0.121578656
-0.07681279 -0.095219426 -0.27277344 -0.16491231 -0.07849234 -0.14115183 -0.06805705 -0.09368696
-0.19403711 -0.11795007 -0.07400787 0.063948624 -0.26384616 -0.11966214 -0.10174545 -0.05680739
-0.1292167 -0.14021793 -0.08707003 0.09032016 -0.29321134 -0.082269035 -0.11846814 0.035301343
-0.15446582 -0.18554232 -0.097335726 -0.10842335 -0.15278578 -0.09848481 -0.13327055 -0.1191116
-0.005093032 -0.13017564 -0.11498099 -0.0885357 0.028903242 -0.13301364 -0.14571917 -0.104930244
-0.11990477 -0.044269368 -0.12410269 -0.14348097 0.02902089 -0.14321668 -0.14102396 0.07720848
-0.11914188 -0.15890417 0.015313831 0.07713088 -0.3304655 0.028346945 -0.16535915 0.045712974
-0.11151714 -0.10351468 -0.44924584 -0.12903962 -0.15486586 -0.03300506 -0.109568425 -0.27793583
-0.123829246 -0.1923739 -0.21997505 -0.13095836 -0.1665376 -0.023842108 -0.12648453 -0.21919706
-0.08125551 -0.1168743 -0.14300846 -0.103327796 -0.19208415 -0.14424996 -0.07538259 -0.13987672
-0.071493104 -0.12706687 -0.09653097 -0.21491797 -0.058919776 -0.18723775 -0.11670274 -0.08820447
-0.08584541 -0.12402657 -0.120760985 -0.077520154 -0.1180173 -0.0981077 -0.12684464 -0.19030182
-0.07801312 -0.063997276 -0.13605537 -0.115623884 -0.0271309 -0.21256512 -0.07154843 -0.1667773
-0.11033888 -0.05348641 -0.14221 -0.0856335 -0.108952746 -0.14410608 -0.10873588 -0.13643822
-0.13668224 -0.013653504 -0.12800282 -0.16109623 -0.1641071 -0.123952135 -0.10259805 -0.094581395
-0.15021263 -0.2652931 -0.061657358 -0.13827963 -0.069471724 -0.1458915 -0.11949302 -0.12985243
-0.13655381 -0.29231232 -0.045572545 -0.1672023 -0.116997235 -0.25330287 -0.11713303 -0.1275131

weight f4 [128, 256]
00000000: e09a 58af ae0a 5f2b 0215 c9ba fd61 1fb0
00000010: e0f6 b730 e1d4 3931 90bf 1dbb 06b7 9daf
00000020: 7909 892d f41a 99b0 6e23 8f30 38a8 c02f
00000030: 97d6 61bb 5723 97b0 ad17 1dbb 6741 ed2c
00000040: c500 273c 2450 d230 e2dd 75bc e920 3e31
00000050: 549a 55b2 ffa3 56ba 36dd b4b0 b452 eabb
00000060: b0ad 25ba e0fc 362d 1a05 06af 99f9 85b1
00000070: 8800 85aa 8770 5daf 45c9 5cba 20cd 39b3
00000080: 1aa0 30b1 20f5 06b8 e333 fd32 fc26 19b8
00000090: bb4c 1828 e88a 0132 ea66 3630 ec30 a8b1
000000a0: f6a1 e3b0 ae98 dfb1 1b96 f9b0 4d23 2733
000000b0: b492 1e27 0e48 c032 2cf8 7f2e ee1b 55bc
000000c0: 0f8e 04ba 5d66 08b0 5437 29ad 8464 84bb
000000d0: a7fd c9af ac3c 822e fbf7 10bb 42b3 1cac
000000e0: 6c75 baae 8e79 abaf d80e 3031 19cc 72ac
000000f0: 20bc a8bc a38b 9bba 9e87 a3b1 8e66 da2b
00000100: c936 312d 4455 a631 e677 4bba 38d7 bebb
00000110: a6fc 5a3b c773 462e e00f 8430 e1a2 f232
00000120: 2a9d bebb ea75 10b0 0011 4931 a969 5531
00000130: 9f60 8cbb e1ac e42f 3f6f 5631 26c7 cfbb
00000140: 69e0 e7b0 ede0 09b1 6f90 023c cca5 22a9
00000150: 6f29 b230 d710 a930 4451 f5bb 2883 bcbb
00000160: 1f75 272f b394 3abc 447d 77ba f924 9231
00000170: 7d71 b6a8 8523 05b7 48e6 13af 875b 0f3a
00000180: 6d8d abb9 f54c f8b7 2b62 46b1 1da3 91b0
00000190: 3226 f6bb 1912 a3bb 6807 b530 7d62 93bb
000001a0: 6b7c 33af 0267 922f 40c4 6ebb f8c1 b6ae
000001b0: 2bad a23b 467b 28ba a3ae 19b9 7c18 30b9
000001c0: 78c8 8836 fb60 aab8 6377 50b9 a8cf a1bb
000001d0: 283f 8bb1 d208 7c31 406a e5b5 f05f b7ac
000001e0: 182a 782f fbcb acb5 fb1f d0bc 6718 4ab7
000001f0: 1e1d e036 168b a6af 587f 99b5 493f f630
00000200: 4fa0 c3ba 3332 fab0 2936 e4bb 5ba6 17bb
00000210: 9bd1 60bc 6546 8a30 badb 8030 f8e0 8e2d
00000220: eeed 2bb0 281e 1130 1335 deaa c879 25bc
00000230: b2be 3fbb e1ff 812e 4563 31ad 9359 05bb
00000240: f937 06bc 8d73 5dbb 260d 02b0 3f6b 06b1
00000250: ba78 d630 7ccd 6a30 b651 b530 75a5 ab31
00000260: 6272 49a6 5db1 3daf 7799 9f32 8fda 35bb
00000270: 217f cfbb e529 a2b1 34b0 af2e 92a4 9db0
00000280: aa7c d230 feca a6ba 3ba3 68b1 1ef6 18b0
00000290: 14f0 c6ba 3b88 ea2f 1ea7 a434 8929 31bc
000002a0: 92b6 b62e ad83 80bb 1257 95ba 7017 f5ba
000002b0: f9d9 8eb9 32db a03a 140d 81b0 b3a4 b3ba
000002c0: 47af a1b0 14ad 65bb 1b0b 85bc 0c12 b030
000002d0: 9aea 2bbc 67d2 89bc 46e6 57b0 fe13 89ba
000002e0: c83d aeac a8a1 6f38 d2ed 32bb dc07 6db1
000002f0: 9c8c 1cbc e430 11ba 9ebc 20b2 8962 caba
00000300: 9c7d d338 fa74 34b2 e1dc 86b6 3b35 fd37
00000310: 5fce b5bb 34df d0b0 a60a aba5 1ec0 86b9
00000320: 2ea4 e2bb 559b 5830 b9a1 1bbb 0bc5 d0ba
00000330: 3e35 b52f 68cc 0db8 43b3 25b0 6090 92bb
00000340: b35d c5bb 0596 4a30 60a1 b02b a8ae 05ba
00000350: 1fc6 02af 39aa d02e b00c 0832 3c90 86ba
00000360: 930f 90bb 28eb 16b0 d2a0 95b0 74db dd2c
00000370: 6081 bab9 c106 e839 70fc f6bb 304c 3ab1
00000380: ba1d 5731 8802 18bb 12f4 ebb1 26db a0ad
00000390: cfd1 2930 5ac5 36ba 5f4f 192e a6d3 8bb0
000003a0: bd0e 0cb6 4dd3 11b6 e29a 29b1 3814 9fbb
000003b0: d37a e5af e627 1330 58a1 16b1 8583 1cae
000003c0: 8658 cd30 096c a8b9 ce0f 9cad 16e0 de2f
000003d0: 3592 06ba ce75 5bb8 6916 1832 7ac2 13b0
000003e0: 8bf9 0332 0e92 46ba 50ba afbb f9e7 543a
000003f0: 1021 3831 bcda bfbb 80f7 31b1 28ae 22af
-1.9700108e-10 7.9240336e-13 -0.0015341344 -5.798311e-10 1.3385169e-09 2.704205e-09 -0.002407048 -2.868818e-10
1.5579303e-11 -1.1139876e-09 1.0414689e-09 3.5044123e-10 -0.003446018 -1.099674e-09 -0.002397041 6.7432063e-12
0.010193055 1.5302288e-09 -0.015006514 2.7667346e-09 -1.2433322e-08 -0.00081878895 -1.3159596e-09 -0.0071509723
-0.0006320132 1.0401652e-11 -1.2189041e-10 -3.8991854e-09 -2.3625915e-13 -2.013981e-10 -0.00084223255 -4.326023e-08
-2.5702378e-09 -3.217638e-05 2.9476672e-08 -3.651435e-05 8.454333e-15 7.540372e-09 6.6357464e-10 -4.8950053e-09
-1.6562456e-09 -6.507512e-09 -1.8159797e-09 3.8914823e-08 2.2006433e-15 2.2384508e-08 5.8200708e-11 -0.013007147
-0.0005056569 -4.962198e-10 -9.618823e-12 -0.0040403027 -3.6741918e-10 5.922493e-11 -0.0022120464 -2.2268441e-12
-8.479159e-11 -3.1191089e-10 2.5619808e-09 -3.4503565e-12 -0.020597517 -0.0011867177 -4.7593423e-09 1.5518296e-12
1.007345e-11 4.8409294e-09 -0.00077617017 -0.005823996 0.003341475 4.512282e-11 9.608776e-10 2.8246577e-08
-0.0058170753 -5.255446e-10 2.9259013e-09 3.105564e-09 -0.004283979 4.1595796e-10 3.1204335e-09 -0.006340879
-1.6871243e-09 -2.006398e-09 0.007969006 -3.6115032e-14 1.2962981e-09 1.2301155e-09 -0.0074864943 -0.0057529397
1.5230171e-10 -0.011387992 -0.0009440968 4.2533626e-09 -2.0255277e-14 -7.935688e-06 -1.3451384e-10 0.0005468656
-0.00032721032 -2.959974e-05 -2.8868594e-09 -1.0596498e-09 -0.0075118775 -0.0049765226 1.3171588e-09 -0.0044978247
-1.6324157e-10 2.6630437e-10 -0.0036432892 -8.3108576e-11 0.004964491 -0.00064270606 -0.00014656274 -0.00016793789
4.0764535e-06 -8.124296e-05 -0.00019880901 -0.0049380846 -4.0526125e-09 3.667584e-09 -1.7092752e-06 -5.211824e-12
2.2570423e-10 -1.2874365e-06 -0.025405874 -1.204582e-05 6.67911e-06 -3.029405e-10 -1.143645e-06 1.7916842e-09
-0.0014925095 -1.8204162e-09 -0.006964464 -0.0023139927 -0.013721849 1.0060829e-09 9.375676e-10 1.6243437e-11
-6.2547556e-10 5.279355e-10 -3.947195e-13 -0.010099836 -0.002925795 5.911694e-11 -1.0083327e-11 -0.002034758
-0.008192056 -0.0033790797 -4.731241e-10 -1.9560529e-09 1.5604862e-09 8.5420715e-10 1.3192707e-09 4.9955653e-09
-6.98909e-16 -1.7252462e-10 1.8579824e-08 -0.002774868 -0.0063322936 -4.7195834e-09 7.9893786e-11 -1.1470027e-09
1.5314943e-09 -0.0012725291 -3.385323e-09 -5.564703e-10 -0.001517775 4.266115e-10 3.0668974e-07 -0.010813125
8.308833e-11 -0.003921947 -0.0011393747 -0.0018699002 -0.00027246753 0.0012272357 -9.389702e-10 -0.00137057
-1.1764109e-09 -0.003504579 -0.016240647 1.2810815e-09 -0.010492945 -0.01682396 -7.854378e-10 -0.0010458229
-4.9522365e-12 5.7132595e-05 -0.0027302396 -3.4492507e-09 -0.009555008 -0.00055385963 -9.356112e-09 -0.0015440743
0.000100846606 -1.0503976e-08 -4.019225e-06 3.0184738e-05 -0.005548283 -1.519743e-09 -2.9670987e-16 -0.0002570161
-0.0069165444 7.880108e-10 -0.0023747517 -0.0015927864 3.296154e-10 -3.3807388e-05 -6.0281397e-10 -0.0044727772
-0.0060231327 7.370036e-10 1.2550343e-12 -0.0005099573 -1.1893818e-10 9.4889825e-11 7.919127e-09 -0.0010266374
-0.004396388 -5.490386e-10 -1.0886885e-09 6.305562e-12 -0.00035573076 0.0004425552 -0.007537417 -2.710987e-09
3.1303515e-09 -0.0023194868 -6.8671477e-09 -1.8287215e-11 6.178e-10 -0.00069721567 3.4858668e-11 -1.0173735e-09
-2.0870204e-06 -2.1729677e-06 -2.4680777e-09 -0.004854705 -4.174213e-10 5.353499e-10 -2.1919586e-09 -3.5587106e-11
1.4940873e-09 -0.0003212395 -1.7742165e-11 4.0540787e-10 -0.0005133481 -5.2323383e-05 8.85266e-09 -5.3754656e-10
7.681943e-09 -0.00075748644 -0.0053627864 0.0008121725 2.6794318e-09 -0.0058549326 -2.5897577e-09 -1.4795687e-10

bias f4 [128]
00000000: 1864 5cbc bd97 a6ac 9ab9 fab9 c19c 03bd
00000010: 295b 8a99 09fd 60bc b897 96bb 69a7 28bd
00000020: 1f9d 82bc ff9a 82b8 03d7 11bd d2ac 35bd
00000030: f662 fbbd 331f 46a0 71aa 46b9 61a4 45bb
00000040: 592e 3c3e adeb 3fbd 8e5b b6b9 796b 6faa
00000050: d5ba 0f3e e541 31bd fe8f bd9c 6b21 743e
00000060: bf14 28b0 0066 d9bc 5f31 e6b9 1a13 1eb9
00000070: 5003 e23a f60f 6bb2 474c f2ba dafb b7a8
00000080: ddbb 54b1 faa6 55ad c6cc 94bb 090e 81b6
00000090: 13c4 afb5 101b d0ba 9381 69b9 eb2b b1bb
000000a0: c769 2ab0 6085 49bc de19 15bb 47a4 503e
000000b0: d175 82bb 8b9e 17bc 36d8 45bd 4c9e 3eb4
000000c0: 7f93 04bd 826b acb3 cc7e 06b8 8a2e e53e
000000d0: b7a9 b596 6b4d caa7 3a9d e2bc b486 bb94
000000e0: e00d 44b7 712f dbbc ae03 30b0 6fdb cab9
000000f0: c843 44b9 d60b e5a9 64c5 37b9 1a1b 58b4
00000100: f71b c1a8 b2ae fbba d5fb acba 2836 5cae
00000110: d739 cab7 93c7 f2ad d6fb 0cb9 6ae0 06ac
00000120: fdc3 44bd 0036 683d fccd d9bc 1ec1 9fbc
00000130: 4803 9baf f2ea 3c9d 05f3 a4bd d42f 57bc
00000140: fa4a e9b9 0b9b eeb7 3319 88b4 b0d4 19ae
00000150: 9705 04a8 3c63 bfba 3a44 383e 54e2 7fb7
00000160: 5137 0ebb 800e 5db9 c933 763e ac42 6dbd
00000170: 182a bdae dec8 53b3 b502 c13d e1a6 21b2
00000180: 71ae d13d 3fde 62b1 126e 32a9 36d7 4dbc
00000190: 0abb 44ba 90f4 453d 6c46 62b2 de3d aeba
000001a0: fa0d dcaa 1a44 1aa9 f174 acb9 f031 0fbb
000001b0: 3cfe e43d bd1e 88a9 4c9d feaa 8b5e ef3d
000001c0: d9e8 86b9 44d2 1ea7 68bd 19ba 7d2c cfb6
000001d0: 5802 adbc 61d6 af3e f750 cc3b 3380 92b1
000001e0: 116e 5eb1 b6b3 0cbd 8090 22bd 245f 0bbd
000001f0: a23b 66b9 d71f 25bd cb90 52bd 477b abbc
-0.013451599 -4.73485e-12 -0.00047822 -0.032131914 -1.4305685e-23 -0.013732203 -0.004595723 -0.04117528
-0.015944062 -6.227753e-05 -0.03560544 -0.044354267 -0.12274735 -1.6781575e-19 -0.00018946246 -0.0030157792
0.18377055 -0.046855617 -0.0003478196 -2.1264751e-13 0.14036115 -0.043275733 -1.2544192e-21 0.23840873
-6.1147526e-10 -0.026537895 -0.00043905803 -0.0001507517 0.0017243419 -1.3682429e-08 -0.0018485867 -2.0426305e-14
-3.0956848e-09 -1.21447245e-11 -0.0045410125 -3.8461335e-06 -1.3095581e-06 -0.0015877206 -0.00022268882 -0.0054068468
-6.199596e-10 -0.0122998655 -0.0022751014 0.20375167 -0.00398133 -0.009254108 -0.048301898 -1.7752717e-07
-0.032367226 -8.02893e-08 -3.206618e-05 0.4476207 -2.9349232e-25 -5.61502e-15 -0.027662862 -1.8935306e-26
-1.1685741e-05 -0.02675602 -6.4033656e-10 -0.00038691933 -0.00018717267 -1.0171696e-13 -0.00017525774 -2.0126427e-07
-2.1439432e-14 -0.0019201844 -0.001319761 -5.007031e-11 -2.410721e-05 -2.7600843e-11 -0.00013445257 -1.916712e-12
-0.04803847 0.056692123 -0.026587479 -0.019501265 -2.8196667e-10 -2.5003057e-21 -0.08054165 -0.013133962
-0.00044497085 -2.8444008e-05 -2.535031e-07 -3.4977077e-11 -7.328684e-15 -0.0014601718 0.17994776 -1.52518805e-05
-0.0021700452 -0.00021081604 0.24043192 -0.05792491 -8.602202e-11 -4.9309953e-08 0.094243445 -9.409377e-09
0.1023835 -3.301366e-09 -3.961941e-14 -0.012563517 -0.00075046776 0.048328936 -1.31709434e-08 -0.0013293584
-3.908955e-13 -3.4253938e-14 -0.00032893525 -0.0021849833 0.11181304 -6.0449455e-14 -4.522861e-13 0.116879545
-0.00025731957 -2.204089e-15 -0.00058647105 -6.17426e-06 -0.021119282 0.34343246 0.0062352377 -4.263734e-09
-3.2367817e-09 -0.034351073 -0.039688587 -0.03402628 -0.00021956724 -0.040313568 -0.051407617 -0.020932807

weight f4 [64, 128]
00000000: 2f68 2f30 d09f 7f81 67f9 06a7 1c77 2400
00000010: 7051 cd81 0467 361d f6ff ce2d 62ea c02d
00000020: b212 2723 1491 a59c ae71 e52d 6bc6 b3b1
00000030: e053 abb8 42d7 1502 00a5 7400 cece 9db2
00000040: 2aa1 05b1 e9d7 f330 4412 3a26 d094 7090
00000050: cf4f d7b8 621c 04a8 80a3 0701 45c7 baba
00000060: f67e fa01 7676 0727 4a30 ae1d f4db 881c
00000070: 4aff a288 f0ed 9c81 4abe 4381 668f 2802
00000080: 0870 2e98 b07a 1b82 8018 732a 9a43 1a80
00000090: 7314 0490 0553 0000 3df5 0f02 383a 232c
000000a0: 38c2 8d81 76f0 10b6 8a94 9827 3ae5 9fb9
000000b0: 098a 1700 0cba 3f19 0860 a2a6 81d5 2a80
000000c0: 71fb b5ae c878 5c01 a7bb 2180 6cab 19bb
000000d0: 0430 c981 18e6 c019 8daf 3830 8003 8401
000000e0: f2d9 5318 fb16 0032 4e1a 9c01 bef6 1b29
000000f0: c52e 5802 2902 0c24 00c3 7da4 6309 3d02
00000100: a877 d080 0832 6c2d 7019 6e27 0234 6482
00000110: 20ae b21e 8836 8d81 4159 0223 652c 1582
00000120: be95 ba26 779f acb9 05e0 ec22 6843 492a
00000130: e48b ed05 14a9 1480 6665 4c2f 11b3 dea1
00000140: 07fc 8a27 b411 1080 c0be 7089 4d7e 1700
00000150: c298 6a02 8c2a 5ca7 04bb 81b4 3e0e fa94
00000160: 0a39 da11 6bf1 919b 4763 24b4 d276 9ba6
00000170: 5a9e 8302 8c2f 6901 b1ca 78ba 78ce 2900
00000180: 1ab8 97b1 ee3e 4182 80c2 b512 4d06 2ea7
00000190: de5a 95aa aa61 f6b1 dcee 3100 1393 342a
000001a0: 9fb3 059a fc4d 0e00 6484 0629 0ca2 4eab
000001b0: 970c b3b7 cdfa b611 bb5e 3a02 f764 82b9
000001c0: 481d bc2b 6b20 4500 8ad0 db22 903b a3a9
000001d0: ca6c 98ad 5a66 8cb9 a6e5 a2b9 53ea c49a
000001e0: c705 831e 923f be2e 9642 d52e cb2c de23
000001f0: 1b63 0980 40be cb2c 4e89 e0af 93d4 7aa5
00000200: aba1 eb39 e499 8a10 9b8f 13b9 4634 b0bc
00000210: 6c0b 1700 c260 1c3b 01fc bbb7 6cab 90bb
00000220: 3e68 183c fd8e c021 3b57 84bc 2c9c 8fbc
00000230: bd3e 263e a4f4 0d00 eb27 b925 1283 5d3c
00000240: d3aa bdbd 62c3 81bc 091d 6735 1e5b d42a
00000250: 53cf d63d 01e8 97bc 1574 0a00 848a 923e
00000260: 5b88 7713 21d5 33bb 8d22 ee33 2fe5 dd20
00000270: 4f91 303c e3f8 0c2b 5487 c1b2 3ab0 f515
00000280: c4f9 7f2b 49d6 0b00 dbb9 8d30 356c aba7
00000290: 3d8c 6930 0d24 0cb8 c727 06b4 e7fd c8b9
000002a0: 2f69 1000 57b0 91bc 74b0 1438 fdd3 dc3d
000002b0: ecb8 f0b4 4b88 41ba e480 d0bb 76d4 9d2f
000002c0: e1b6 96bc 3ea2 2a8d bf16 63ab 0ccc b5bd
000002d0: b69d 3400 92af 349f 934e b33a 6e73 0c00
000002e0: 08bd 7a9b 2cc4 58bc 7dad d728 bc31 8b31
000002f0: 0fc6 c1a8 97c6 2ca5 53b3 f1b3 73a3 ddb2
00000300: 22ea 2300 e36a 9133 5252 2a39 c17f 2897
00000310: 6c53 6b33 2442 1000 96fd 9227 46ed 0d80
00000320: c1fd 91bc a3a4 1cbe a0f8 56bb 5334 1abc
00000330: 5f6a 92af 524b 2c00 7cec 8ebd f718 7ebc
00000340: a425 0a32 8287 ce2f a149 aa9b 0d04 4113
00000350: d419 1300 9e28 3938 cffb a03d 3253 01b3
00000360: 3952 ac3b 87c1 e535 b070 36bd b5f6 b4bb
00000370: 0212 a40b 45ef 711f 3b55 063d 336a 979e
00000380: f108 a03d a5a7 34a2 6040 6c96 d894 4f3c
00000390: 9d0d 18b7 5158 afbd f724 b712 6e6b f6b9
000003a0: f5d1 65a8 b35d 7fab 299c 0237 eb28 ad36
000003b0: 106d cabd d398 1195 419e 8f0a f20c 5abd
000003c0: 46c0 61b0 aaf3 0400 3b47 c5b8 b087 122f
000003d0: 6881 543c ea5a 5cba 82cf 7b3d 88c2 db22
000003e0: a4ff ab24 721f 743c 4bcb 843c 1167 89bc
000003f0: d00d 47b1 e173 0a3b 0185 f4bb 9198 d03a
6.3812683e-10 -4.6950763e-38 -1.8731437e-15 3.348806e-39 -7.5421964e-38 2.4140757e-21 2.3533158e-11 2.193196e-11
9.057047e-18 -1.0956286e-21 2.608477e-11 -5.232143e-09 -8.169538e-05 1.1008567e-37 1.0712108e-38 -1.837125e-08
-1.9445658e-09 1.7741942e-09 6.455647e-16 -4.7446295e-29 -0.000102668644 -7.3336265e-15 2.491289e-38 -0.0014250061
9.2017676e-38 1.8799231e-15 4.6107346e-21 9.056582e-22 -9.8100385e-34 -5.7646773e-38 -3.595237e-38 1.2383844e-37
-2.2545534e-24 -1.1422811e-37 2.1591236e-13 -2.411974e-39 -2.6048163e-29 2.9782e-41 1.0576361e-37 2.319601e-12
-5.207391e-38 -2.1597639e-06 4.234952e-15 -0.0003049763 2.161734e-39 9.9120404e-24 -1.1267037e-15 -3.933682e-39
-8.275592e-11 4.0494275e-38 -3.097888e-39 -0.0023448123 -7.390464e-38 1.9945269e-23 6.718828e-10 4.8494164e-38
2.7381145e-24 7.455806e-09 5.7343095e-38 3.463093e-14 1.5882596e-37 3.035949e-17 -5.50258e-17 1.3888221e-37
-1.9144708e-38 1.3426156e-11 3.3042925e-15 -1.676572e-37 1.89185e-20 -5.187347e-38 7.066214e-18 -1.0959532e-37
1.294693e-15 -0.00032925207 6.420512e-18 1.7875772e-13 2.233876e-35 -1.897364e-39 1.8589716e-10 -1.5090704e-18
3.8575943e-15 -1.475719e-39 -2.897864e-33 2.157525e-39 1.7235444e-37 -3.0554198e-15 -2.4164194e-07 -2.5249167e-26
3.4429489e-28 -2.414425e-22 -1.5309807e-07 -1.0787492e-15 1.933961e-37 4.2829454e-38 -0.00094906526 3.839322e-39
-4.4156083e-09 -1.419746e-37 1.1470654e-27 -2.4150766e-15 -2.653077e-13 -7.1706454e-09 4.585626e-39 1.6038238e-13
-2.7648852e-23 1.313672e-39 2.9868808e-14 -7.3410787e-13 -2.1344325e-05 2.8869105e-28 1.3692308e-37 -0.00024870757
1.3366331e-12 6.348279e-39 5.958087e-18 -7.2489866e-14 -1.7328711e-11 -0.0002677914 -0.0003107015 -8.144227e-23
1.3872554e-20 8.651492e-11 9.6979466e-11 2.4088259e-17 -8.62072e-40 5.790729e-12 -4.0842923e-10 -2.1756066e-16
0.00044943145 5.466851e-29 -0.0001407251 -0.0215093 2.116314e-39 0.0023861383 -2.2409486e-05 -0.0044149663
0.009302197 1.3048275e-18 -0.016154876 -0.017530523 0.1623487 1.281622e-39 3.2119434e-16 0.013520019
-0.09261098 -0.015840236 8.609646e-07 3.772199e-13 0.10488763 -0.018543245 9.59997e-40 0.28621304
3.1243011e-27 -0.0027440267 1.10890234e-07 3.7590517e-19 0.010776832 5.008339e-13 -2.2529697e-08 9.923275e-26
9.094082e-13 1.087061e-39 1.0311924e-09 -4.7579353e-15 8.4964197e-10 -3.3412176e-05 -1.2494193e-07 -0.00038336145
1.507101e-39 -0.01778428 3.5450284e-05 0.10782621 -4.4838032e-07 -0.0007382675 -0.006363021 2.8709096e-10
-0.01839775 -5.2580586e-31 -8.0678167e-13 -0.088768095 4.832022e-39 -3.826171e-20 0.0013680033 1.143434e-39
-2.0740595e-22 -0.013230365 2.3945034e-14 4.0510866e-09 -2.1513199e-14 -1.4985907e-16 -1.1255056e-07 -2.5802114e-08
3.298233e-39 6.771531e-08 0.0001624313 -5.4444976e-25 5.4791073e-08 1.493095e-39 4.079808e-15 -1.278979e-39
-0.017821195 -0.15297179 -0.0032802 -0.009411889 -2.6632826e-10 4.067782e-39 -0.069786996 -0.015508882
8.041216e-09 3.7567466e-10 -2.8171722e-22 2.4362022e-27 1.75414e-39 4.4145265e-05 0.07860529 -3.011082e-08
0.005258825 1.7118153e-06 -0.04454106 -0.005522574 6.31976e-32 5.1231654e-20 0.032796126 -1.603167e-20
0.078142054 -2.44833e-18 -1.9084241e-25 0.012669764 -9.063076e-06 -0.08561767 1.1558036e-27 -0.00047000818
-1.2757581e-14 -9.072423e-13 7.784963e-06 5.1605653e-06 -0.09884083 -2.9403074e-26 1.3829928e-32 -0.053235
-8.212776e-10 4.54752e-40 -9.40696e-05 1.3326829e-10 0.012970306 -0.0008405881 0.06147719 5.9566037e-18
7.45925e-17 0.014900075 0.016210219 -0.016772779 -2.8966163e-09 0.0021126198 -0.0074621444 0.0015914609

bias f4 [64]
00000000: 5594 eab9 b71c 7d3c 1636 793c 45da d93d
00000010: 6e1a a53d defa b73c 6c5a 18ba 3754 263d
00000020: 420a 603d 9d61 bf3c 4f57 813d 5e4a 133d
00000030: 0c0e d3bc c4a5 833d bcbc 813d 2d60 2e3d
00000040: c59e 9d3c a93e 853d 36ce 363d e943 183e
00000050: dedc 97a5 fba8 90bc f052 f132 a137 833d
00000060: 7d3d 43bb bd00 873c 4657 0d3e 144d 7cbb
00000070: 8a80 8c3c 34a5 293d 4766 22bc 032a 9dbc
00000080: 91a1 35bc 0928 b13d bcfa 8f3d 989e 8c3c
00000090: b1b7 383d c68c 3ebc 887d 82b6 609c 423d
000000a0: 64e0 a3bc 6ac7 243b 9855 583d 6eef 763c
000000b0: 25ea 109d 10c6 c03c e0ef 9c3d b441 513c
000000c0: 6083 833c 37dd 5a3d b779 273e 5634 f6b8
000000d0: 2e64 2dbc 46ff 893d c24b 6db7 9c22 4e3d
000000e0: 78c0 9f3c 7eaf 713d 28d8 5abc 94c4 f43d
000000f0: 776e 773d 202c 853d 989c 163d b6d0 82b1
-0.00044742474 0.015448741 0.015210649 0.10637335 0.08061682 0.02245849 -0.0005811814 0.040607657
0.054697283 0.023361975 0.06315481 0.035959594 -0.025763534 0.06428102 0.06334826 0.04257219
0.019240746 0.06506092 0.04463025 0.14869656 -2.634399e-16 -0.017658701 2.8093808e-08 0.06407095
-0.0029791289 0.016479844 0.13802823 -0.003849809 0.017151136 0.041417316 -0.00991208 -0.019185072
-0.011085884 0.08650214 0.07030246 0.017165467 0.045097057 -0.011630243 -3.8889157e-06 0.047512412
-0.020004459 0.0025143274 0.052816004 0.015071733 -1.9179291e-21 0.023531944 0.0766294 0.0127720125
0.016053855 0.053433623 0.16355024 -0.000117399424 -0.010582967 0.06738143 -1.414394e-05 0.050325975
0.019500956 0.059005253 -0.0133572 0.11951557 0.06040808 0.06502557 0.036770433 -3.8072256e-09

weight f4 [6, 64]
00000000: 2437 8c3a c7b1 10be b265 4bbe c576 ccbe
00000010: c163 a0be 36ef b7bd dea0 65bb 55ac 073f
00000020: 91ed 97be dae3 e2bd 2950 b1be 83e8 be3e
00000030: 0c5c 12bc 9112 e63c f562 b6be 682c d9bd
00000040: 69d8 3b3e 3f39 7a3f 7ca4 1cbe e047 69be
00000050: 6e7f 2b25 db8e 203c 8aa3 7131 5537 51be
00000060: 55f0 45bc 5e0f 23be b1b6 28be a9c7 19bb
00000070: da1d 273e 7cb8 9f3e d6ab 483c 19f8 e33a
00000080: e053 d2bc 9771 033f 0c50 54be 8388 54be
00000090: e786 e1bd 90e9 61bc 5fc0 d0b8 0788 22be
000000a0: 4c49 53bb 7224 f33d 5add c6be 10a2 4bbe
000000b0: f38a f9b5 abd4 033f 0ec9 0cbe d418 ae3f
000000c0: 019c c63f 557f 2ebe 92e7 7dbe 31e9 9aba
000000d0: 1c76 95bb 7f6e de3d 9c89 0ebc da43 29be
000000e0: 4b70 70be ba1f f6bd df7d 04bd 663e 93be
000000f0: ef48 78be 7276 01bf 380d c3bd a03b 94af
00000100: c78f 943b b85f 9c3e 3cb9 bbbe a897 b9be
00000110: 14f1 8bbe ec29 1d3e 7077 bf3a bb8e 143f
00000120: 5cc6 783f 3417 19be e6c6 86be 4129 65be
00000130: d182 8a3c 75ec 033f f8db 8ebe 5f7c 0ebd
00000140: ff18 793e 779d babe 492c 6fbe 052d c8bd
00000150: 31c7 7924 707e e9bc d3e2 26b5 c57d 1ebe
00000160: 0037 4f3a e7bd a83e 08ce 20bf a40b 09bc
00000170: 9b45 75bd e38d 39be 9eeb 08bd 5576 c33c
00000180: 5ced d3bb 8f19 bebe 6b74 abbe 980d 623f
00000190: ca00 1cbd f519 b53c cc29 4237 95db 7abe
000001a0: 163b d53b d0ec d13d 301d 6d3f 551c bbbe
000001b0: bb94 a638 f842 48be d39c 66bd 2ca0 b5be
000001c0: 091e cfbe 56e1 88be 18e8 dbbd 1725 993a
000001d0: 7e8b 87bc 07f6 85be 58bb 9b3b f4a9 83be
000001e0: 40e8 dabe bef0 39bd 4a38 c73c a52e 1dbe
000001f0: ca7f 1d3f a17f 8f3f f811 f4bd 4cda d3af
00000200: 487e b8bb 8a20 143e 7858 933f 4120 80be
00000210: 6e38 4abe 441e d4bd eb50 bfba dc67 c4be
00000220: 22f1 b3be 4731 5cbd 5001 32be cf55 a43e
00000230: c30b 063c 5e32 adbe f774 41be 4303 08be
00000240: ab84 45be 57f0 99be d2bb b6bd 2a99 c2be
00000250: 8d8c bfa4 0e60 fabb 5e1b 7a33 6744 11be
00000260: 254e 213c 30a8 3b3e 1f5f 8c3f 5886 f83c
00000270: c2e7 83bd eb74 4dbe dc71 45bc 5fc6 003c
00000280: 04e3 903c cc87 c3be cfb4 07be 1086 78be
00000290: 6b15 0fbe dd6f 073d 2b6a 4ab9 d2ca c0bd
000002a0: 3f51 673c f95b a3bd e854 8a3e 792b 933f
000002b0: 7821 401c e95d 03be 3c6a 55be 9b2c 6cbe
000002c0: 3242 88be f67c d4bd 5ec8 d4be 8b04 3eb9
000002d0: 6cae 2dbc f941 7cbe 54e8 9e37 8880 cbbd
000002e0: bb67 ad3f 4347 34be d621 ed3b f3f4 7cbe
000002f0: 3a96 8cbe 6908 e73e 1ac6 863e bc1b 45b2
00000300: caed 89b9 a156 eabd 68fc 3dbe c87b 503f
00000310: 60ab 223f 7dae d73d 0228 dfbb 83bf 44be
00000320: 5692 6cbe a598 d4bd 535a 913f 5085 40be
00000330: f0e2 50bc f4cd 643e b69a a03f 333a 23be
00000340: 9552 a13c 01cc c7be b2d0 39be 68e3 e3be
00000350: b73c 0127 aabf 06bd 34e1 bdb3 7e0f 023f
00000360: 6e77 003c 18ac 04be 9da7 ebbe 79b8 a1bb
00000370: dac1 d73d 6dc8 b73e 40d7 9dbc 6d8c bdbc
00000380: 2d8e 203b d593 573f 6357 8cbe 2755 0bbe
00000390: e120 29be 24b8 bc3c 8bca c338 6015 45be
000003a0: 3c9e 86bc eabf 553b f726 94be 92b2 3dbe
000003b0: 5572 37b1 979c 41be eda2 79be e678 c5be
000003c0: a938 e1be c53e 5abe ec75 f9be ea5b 37b7
000003d0: 2ba5 ad3c aa44 5c3f 1416 0eb5 3690 50be
000003e0: f1a4 5ebe e174 51be 0426 12bc adc5 ee3e
000003f0: eb7f 52be d751 c9be b908 17be 8173 ee31
0.0010697586 -0.14130317 -0.19863012 -0.39934364 -0.31326106 -0.08981173 -0.0035038511 0.5299733
-0.29673436 -0.110786155 -0.3463147 0.37286767 -0.0089330785 0.028085025 -0.35622373 -0.10604173
0.18344273 0.977436 -0.15297121 -0.22781324 1.487506e-16 0.009799684 3.5163077e-09 -0.20431264
-0.012081225 -0.15923831 -0.16475941 -0.0023464954 0.16319981 0.31195438 0.012248 0.0017392664
-0.02567476 0.513452 -0.2073366 -0.207552 -0.11012059 -0.013788596 -9.954045e-05 -0.15872203
-0.0032239733 0.11872186 -0.38840753 -0.1988604 -1.8592385e-06 0.5149638 -0.13748571 1.3601327
1.5516359 -0.17040761 -0.24795368 -0.0011818764 -0.004561199 0.10860919 -0.008699801 -0.1652979
-0.23480336 -0.1201777 -0.032346603 -0.28758544 -0.24246572 -0.5057136 -0.09524006 -2.696341e-10
0.004533741 0.30541778 -0.3666476 -0.36248517 -0.27332366 0.15348023 0.0014607739 0.5803029
0.9717767 -0.14950258 -0.26323622 -0.22379018 0.016908081 0.5153268 -0.27902198 -0.03478658
0.24325942 -0.3644826 -0.23356737 -0.09774212 5.416199e-17 -0.028502673 -6.216989e-07 -0.15477665
0.0007904619 0.32957384 -0.6281438 -0.008364592 -0.059880834 -0.18120532 -0.033427827 0.023860136
-0.0064675044 -0.37128875 -0.33487257 0.8830199 -0.03808669 0.022107104 1.1573033e-05 -0.24497826
0.0065072877 0.102502465 0.9262266 -0.36545053 7.9432e-05 -0.19556797 -0.056301903 -0.35473764
-0.40452603 -0.26734418 -0.10737628 0.0011684027 -0.016546007 -0.26164266 0.0047525577 -0.257156
-0.42755318 -0.045395605 0.024318833 -0.15349825 0.61523116 1.1210824 -0.1191749 -3.8535786e-10
-0.0056302883 0.14465538 1.1511374 -0.25024608 -0.19748089 -0.10357335 -0.0014596259 -0.38360488
-0.35144907 -0.053757932 -0.17383313 0.32096717 0.008181515 -0.3382749 -0.18892275 -0.13282494
-0.1928889 -0.30066177 -0.08922543 -0.3800748 -8.307115e-17 -0.007640845 5.823255e-08 -0.1418625
0.009845291 0.18325877 1.0966529 0.030337498 -0.06440689 -0.20064132 -0.012051072 0.007859795
0.017686374 -0.38189542 -0.13252567 -0.24269891 -0.13973014 0.033065666 -0.00019303772 -0.09413685
0.014118492 -0.07976527 0.27017903 1.1497642 6.357073e-22 -0.12828793 -0.20841306 -0.2306389
-0.26613003 -0.10375397 -0.41559118 -0.00018121504 -0.010600667 -0.24634542 1.8943254e-05 -0.09936625
1.3547281 -0.17605309 0.0072366996 -0.24702816 -0.27458364 0.45123604 0.26323014 -1.1473215e-08
-0.00026307843 -0.114423044 -0.18553317 0.81438875 0.6354275 0.10531328 -0.006810189 -0.19213681
-0.23102698 -0.10380677 1.135569 -0.18800855 -0.012749419 0.2234419 1.2547214 -0.1594017
0.019692698 -0.3902283 -0.18146017 -0.44509435 1.793526e-15 -0.03289763 -8.8419625e-08 0.5080489
0.007840974 -0.12956274 -0.46026316 -0.004935321 0.10535021 0.358951 -0.019267678 -0.02313825
0.0024498806 0.8420995 -0.2741042 -0.13606702 -0.16516449 0.023037024 9.336051e-05 -0.19246435
-0.016432874 0.003261561 -0.28935978 -0.1852515 -2.6694995e-09 -0.1890739 -0.24378558 -0.385688
-0.4398854 -0.21313007 -0.4872278 -1.092905e-05 0.021196922 0.86042273 -5.293125e-07 -0.20367512
-0.21742608 -0.20454742 -0.008920196 0.4663519 -0.2055661 -0.3932025 -0.14749421 6.939843e-09

bias f4 [6]
00000000: be8b f3bc 40a2 89bc 9533 3dbd 026e 503c
00000010: c22e 823d 7d0f 3a3c
-0.02972972 -0.016801 -0.04619177 0.01272154 0.063565746 0.011356232
