net.pkl (torch_old, 199112 bytes, 8 tensors)

weight f4 [256, 26]
00000000: c94e 06be 66dd ab3c b6c7 f5bc 1e5c 83be
00000010: 4220 cbbd e044 933e 57f2 e9bd 67f6 4f3d
00000020: 8a9b 103d 9b1f 403e 04d1 473e b44a 073e
00000030: bbc0 debc 09ba 0abc 3666 4a3d 533b b0be
00000040: b669 6ebd 4f41 243e 0b25 36be e266 263e
00000050: e0d6 be3d 78c2 23be d434 c9bc ee53 04bf
00000060: 9916 a73c a2b6 373d e2f4 973b 24bd b13c
00000070: a970 a2bb e894 99bb d730 853a efcf 3cba
00000080: 4ee5 fc3b 2858 28bc 8c59 14bb 4bf3 71bb
00000090: 5081 41bc 0917 6fbb a140 6cbb eed4 49bc
000000a0: 4482 c0ba 54ae d6bb dd09 b93b c53c 8bbb
000000b0: 4d54 c138 c07d 003c 16f3 9bbb 9da5 cf3a
000000c0: a357 9c3c f34a 2c3b 9c43 ea3a 78bf 8dbb
000000d0: 62c1 babc 7d9f 7f3d 2860 33bd b9b5 7ebd
000000e0: 6743 81bd 0f7d babc 3c01 463d 8d7f 143e
000000f0: 8c52 2a3c 1780 41bd bc13 d7bd 7edb 863d
00000100: 8ac0 adbd 8b3c 543d 4ada 01bb e674 033e
00000110: bd65 5b3d dc19 f03c 01ff 013d 6ee5 7ebd
00000120: b9bd f73d 3bd6 fbbc 7450 61bc dff0 ecbc
00000130: 841f 7abd b097 04bd 1ecf 98bb 8a27 e43b
00000140: 311a 333b 229e 26bb fd4d 52ba faec df3b
00000150: 3893 f53a b07b 9cbb 925b c3ba c4ee a3bb
00000160: 1dd2 5939 455d 77ba 8bc0 133b e19b 83bb
00000170: 18fb 003c 6057 0b3b a9a5 6cba 078e 983b
00000180: 738b 36ba 9ab5 123b e3c0 32bb 493e a13b
00000190: b86c bf3a c741 993b 57df 3a3b 9a2d 5d3b
000001a0: e548 d83d 8241 743d 5468 1f3e 96cf 5a3e
000001b0: 6fe9 413e d5e0 acbd ee2f 863b 9cd3 ef3c
000001c0: ff91 083d be42 c5bd f3c1 a7be b1c5 073a
000001d0: 3a3e 4c3e 4089 95bc 0c3c 153e 3639 443e
000001e0: f3f5 c63c 1eb0 46bd bd6f 383d 7e84 803e
000001f0: 7c9c 8bbc 32d3 92be cbea 6a3e 4d07 503d
00000200: fca9 02be c87d c33d 08e1 c73b f764 82bb
00000210: fad5 5eba f333 dc3a 92b5 0bbb c4b2 fe3a
00000220: 9b4c c0bb a9a4 c43b a932 acbb 366d debb
00000230: 9dd1 78bb 2944 9aba 3b7b f43b 392e 8dbb
00000240: cd4f 0ebb 674e 75bb c609 863b 0f4b 2e3b
00000250: 1ee5 0f3b b15a a43a b555 9d3a 5ea8 833b
00000260: b6c6 4ebb ac0c 373b c50c b9bb 031c 363b
00000270: e1b3 103e bdff b8be 45e1 993d 1eb7 443e
00000280: bd67 aebd c456 343e 899c 1fbe 7a0f abbd
00000290: 9f9f 31be 8f07 fd3c 19a1 253b 7bf5 04be
000002a0: bc82 f0be 7f08 f0bd c505 e4bd 4081 443e
000002b0: c692 ac3e 2536 18bd 80e0 f13d bcc2 5b3e
000002c0: 04d7 2dbd 3eaf a43d cdb1 0c3e a624 3c3e
000002d0: 2fd4 f4bc 3236 0fbd 0d24 bd3c bdb0 813d
000002e0: 664f f9bd 27fe a4bd 77fd 373d 19a6 2cbe
000002f0: 6d4e 583c f813 04bd 85a7 0c3e a26c 3a3e
00000300: 0ca9 d23c 636f 04be 15df 23be dfd4 a73e
00000310: f849 723d fd28 c0bd e1cb d8be 41d5 173d
00000320: b0d5 5a3e 100c 743d 6eb2 423d 8245 51bd
00000330: c32b 8cbb a43a 4fbe 2441 583e 2965 2bbc
00000340: 5df6 83ba 6a33 473b 926d af3a 5666 8b3b
00000350: 411d 963b 6131 983b fcbe cb3a ae48 29bc
00000360: 88eb efbb 81fc a5bb f604 72bc 208b 403b
00000370: c1cf ddbb 434a 343c d1bf c43b eae2 43bc
00000380: 5041 633b 1371 ddbb 9bc3 3abc 1fc8 08bb
00000390: 0460 39bc cfad 32bc 7b51 b1bb 42c3 2f3c
000003a0: 45cf 0a3c 444e 433c d440 9437 3e9c 393b
000003b0: 454a 6b3a a7b8 8d3b b672 6f3b fc5c daba
000003c0: a664 303b b548 003b 294d c03a 0e1b bcbb
000003d0: 5c8c 23bc 1603 0d3c 7c6d d83b 2ef5 9a3b
000003e0: e7e6 25bb ac84 cebb cfc2 723b cd90 f0ba
000003f0: 08b4 2fbb 2f97 ddba dd0f c138 82e7 49bb
-0.13115992 0.020979594 -0.030002456 -0.25656217 -0.09918262 0.28763485 -0.11423176 0.050772097
0.035304584 0.18762057 0.19513327 0.1321209 -0.02719151 -0.008467206 0.049413882 -0.3442026
-0.058206283 0.16040538 -0.17787568 0.16250184 0.09318328 -0.15992153 -0.024561323 -0.51690567
0.020396518 0.044851907 0.0046373466 0.021696635 -0.004957278 -0.0046869405 0.001016165 -0.00072026154
0.007717765 -0.010274924 -0.0022636382 -0.0036918696 -0.011810616 -0.0036482236 -0.0036049264 -0.012318833
-0.001468726 -0.0065515433 0.0056469277 -0.0042491877 9.2186594e-05 0.007842481 -0.0047592027 0.0015842203
0.019084757 0.002628979 0.0017872932 -0.0043258034 -0.02279729 0.06240796 -0.043792874 -0.062185023
-0.06311684 -0.02276471 0.04834102 0.14501782 0.010395657 -0.047241297 -0.10501811 0.065848336
-0.084839895 0.05181555 -0.0019813948 0.12837562 0.053563822 0.029309206 0.03173733 -0.06223052
0.120967336 -0.030741801 -0.013752092 -0.02892345 -0.061065212 -0.032371223 -0.004663362 0.0069627212
0.0027328844 -0.0025423844 -0.00080224854 0.0068336697 0.0018735891 -0.004775487 -0.0014904609 -0.0050028283
0.00020773006 -0.00094362005 0.0022545184 -0.004016385 0.007872365 0.0021261796 -0.0009027371 0.004655603
-0.00069635286 0.0022386075 -0.0027275614 0.004920755 0.0014604544 0.0046770307 0.0028514469 0.0033749104
0.105607785 0.059632786 0.15567142 0.2136825 0.18936704 -0.08441321 0.004095069 0.029275708
0.033342358 -0.09631871 -0.3276516 0.00051792996 0.19945613 -0.018253922 0.14573687 0.19162449
0.0242872 -0.048507802 0.045028437 0.25101084 -0.017042391 -0.28676754 0.22941129 0.050788213
-0.12760156 0.09545475 0.006099824 -0.003979321 -0.0008500513 0.001680015 -0.002131794 0.0019431938
-0.005868507 0.0060010743 -0.0052550626 -0.0067879213 -0.0037966736 -0.0011769581 0.0074609793 -0.0043084887
-0.0021715045 -0.0037430765 0.0040905206 0.0026595031 0.0021956633 0.0012539235 0.0012003692 0.0040178737
-0.0031551546 0.0027931137 -0.005647274 0.0027787692 0.14131118 -0.36132613 0.0751367 0.19210479
-0.0851588 0.17611223 -0.15587057 -0.08352561 -0.17346047 0.030887393 0.0025273024 -0.12984268
-0.46974742 -0.117203705 -0.11133913 0.1918993 0.3370573 -0.03716101 0.11810398 0.21461004
-0.042441383 0.08041237 0.137397 0.18373355 -0.029886333 -0.034963794 0.02308848 0.06332538
-0.12173347 -0.08056288 0.044919457 -0.16860236 0.013202292 -0.032245606 0.13735779 0.18205503
0.025715373 -0.12933116 -0.16003068 0.32779595 0.059152573 -0.09382818 -0.42343047 0.03706861
0.21370578 0.059581816 0.047533445 -0.05109168 -0.0042776777 -0.20237213 0.21118599 -0.01046113
-0.0010067929 0.0030395635 0.0013384095 0.0042541428 0.004581124 0.0046445583 0.0015544589 -0.01033227
-0.0073217787 -0.005065501 -0.014771691 0.00293798 -0.006769151 0.0110040335 0.0060043116 -0.011955956
0.003467638 -0.0067578643 -0.011399175 -0.0020871235 -0.011314396 -0.010905697 -0.0054113246 0.010727705
0.0084722685 0.011920515 1.7673163e-05 0.0028321887 0.00089756056 0.004324991 0.003653688 -0.0016659792
0.002691546 0.0019574587 0.0014671433 -0.00574053 -0.009982195 0.008606693 0.0066048484 0.0047289347
-0.002531463 -0.006302437 0.0037042385 -0.0018353701 -0.0026810188 -0.0016906018 9.205912e-05 -0.0030808155

bias f4 [256]
00000000: b67f 22be 31d5 e5bc 06bb e6bd 869f a2bc
00000010: 160f 083a 053f 38bd 41aa 003e 5632 353e
00000020: b0c3 1fbd 9f03 d0bc df0f d2bc 406e 94be
00000030: 3fdb 1bbd d03e cdbc e359 d3bc 27e0 0ebd
00000040: a40d 5fbe 32ad 6dbc c6e2 dcbc 7806 15be
00000050: 21c6 83be 65bd 10be 0f93 c7bc 82f1 12bd
00000060: 0c29 70be a866 5cbe f925 b5bc be2a 843d
00000070: d58d ecbc 9069 85bd 2aa6 d7bc 89a4 0bbd
00000080: 880c bdbc 515b 10bd d17d c8bc 2fa8 3ebd
00000090: 1a5f 71bd e18b 13bd cf3b 14bd dc80 09be
000000a0: d1c2 0ebd 0871 61bd f0ad d13d 0fca f3bc
000000b0: 04cf 95bc df08 05bd da0c 1fbd b7cd cbbd
000000c0: da07 e1bd 84e2 c2bc b858 52be 9482 6dbc
000000d0: 2218 09be bf91 cebc 817e 4bbe 652d 39bd
000000e0: bd88 ebbc 2783 ccbc 257b 73bc d47f bbbc
000000f0: f052 8ebc 89a3 acbc c34b f5bc 7336 09bd
00000100: 1ac1 35be ad97 eabc 7fff 08bd 7b45 27bd
00000110: 323e d7bd 8710 013d d27a c6bc 1943 44bd
00000120: 8aac 76bd bb12 8cbc a8c6 00bd 0816 54be
00000130: b100 a9bc 2970 87bc 27aa 81be 9bf5 dcbc
00000140: c11d ebbd de43 65bc 611b a9bc 5021 1ebe
00000150: 8a2f 1c3d 08ae 973d 5d8f b5bc 0c1d 0dbd
00000160: 6599 34bd 502c cdbc 917e 49bd 5551 94bc
00000170: 8bc3 4abd b60f 40bc 0c9a b2bd 433f d9bc
00000180: 557d 0bbd 01e2 3dbd c636 a6bc 4add f8bc
00000190: 0283 93bd d14b f2bc 27fd f5bc f79d 90be
000001a0: 6782 18bd 18a7 9ab5 54aa 08bd 3efc 22bd
000001b0: 0d6e fcbd ad0d 5bbd 05bf c4bc 9f9d 27bd
000001c0: 300b d4bc eecf 76bd a134 f9bc 0f6f a63a
000001d0: d487 d2bc 7594 93bd b03a 84bc 2a5b 8cbd
000001e0: 077b c6bc 030c 08bd 2ebb f93c 8d9f dfbc
000001f0: 9855 ebbc 6d89 d4bd 222c 1a3d 352b 00bd
00000200: c7a1 cbbd d6f7 edbc 65e2 56bd 379a 9fbe
00000210: 494a 2bbd 29f7 f1bc cdf8 6fbd b64a f2bc
00000220: b7bb 32be 0316 1ebd cca3 98bd ac4c c6bd
00000230: eb92 c6bc 82db d2bc e844 79be beac bbbc
00000240: 38f3 06bd 3807 e03c 6c5b b5bc 0719 d4bc
00000250: afc1 1fbd 49c1 e1bd 25cb 463e 4342 a8bd
00000260: 4e93 95bc 9056 05bd ae2d 01bd e7a3 83bc
00000270: 2068 32bd ec06 9ebc 48f7 5dbc 386f 40bd
00000280: 9709 08bd 03bf 1cbd 9077 bebd 6020 14bd
00000290: bf0c 31be 7929 15bd 4107 183e 812d 2dbd
000002a0: 2dad 4f3d cc7f f6bc e773 d3bd 108f e1bc
000002b0: cc2b ddbc 04f4 0ebd e8d0 a4be f55f f33d
000002c0: be3c 87be 7b31 95bd 98d3 10bd 7153 c7bc
000002d0: f821 673c 4d92 9dbc 65a4 10bd 00f5 16be
000002e0: 15f8 00bd d90c f3bc d360 53be a8a5 7dbe
000002f0: dcbe 95bd 8cf9 fcbc 89e8 1bbd 78d6 4fbe
00000300: db16 c8bc 4c49 c4bc 5a01 9cbd cf20 18bd
00000310: 1323 25be 64d1 973d c519 95bc bb9c d7bd
00000320: fbb7 46be 71e8 53bd a3ce 00bd e095 fabc
00000330: bbf2 30bd def0 dabc 4fd0 4cbc f5e8 7fbc
00000340: cecf a0bc 7f5e 1ebe 022f efbc 293c 14be
00000350: 9ff9 a5bc 7c08 bebc d6e6 6d3c 506a d1bc
00000360: 8a9d 08bd 7ec8 a8bd b8b5 f13d cb35 dbbc
00000370: 12c2 29bd a26e 09bd eb7b 7fbd 37b2 bebc
00000380: c853 e2bd f526 32bd 2bd3 b0bc 273f 2fbd
00000390: 16b1 c7bc 5921 c0bd 4b48 abbc cd22 cebd
000003a0: d865 27bd e834 bebc d2f2 d2ba 8a3e 15bd
000003b0: 7553 fabc 602a 0ebd 61e5 fdbc 51af 05bd
000003c0: 5733 81be 5ccd 28bd b50f 0dbd 30ef c4bc
000003d0: ae42 cb3e 13b6 02be ae8f a1be 975c dcbc
000003e0: c5be f0bc 315d afbc dc42 f4bd 25eb 1d3e
000003f0: a627 0bbd 54e0 87bc afc4 09bd 1ead e5bc
-0.1586903 -0.02805576 -0.11266141 -0.019851457 0.0005190236 -0.044981975 0.12564947 0.17694983
-0.03900498 -0.025392352 -0.025642334 -0.28990364 -0.038050886 -0.025054365 -0.025799697 -0.034881737
-0.21782547 -0.014506625 -0.026963603 -0.14553249 -0.25737098 -0.14134748 -0.024362115 -0.03587485
-0.23453158 -0.21523535 -0.022112833 0.06453465 -0.028876225 -0.06514275 -0.02632435 -0.03409246
-0.023077264 -0.035243336 -0.024474056 -0.04654711 -0.058928587 -0.03602207 -0.03618985 -0.13428062
-0.03485376 -0.055039436 0.10238254 -0.029759435 -0.01828719 -0.032479163 -0.038830616 -0.09951346
-0.10987826 -0.023789652 -0.20541656 -0.014496464 -0.13388112 -0.025215982 -0.19872476 -0.045209307
-0.028751725 -0.024964882 -0.014860903 -0.022888102 -0.017373532 -0.021074073 -0.029943353 -0.033499192
-0.17749444 -0.028636778 -0.033446785 -0.040837746 -0.1050991 0.031509902 -0.024228487 -0.04791555
-0.06022314 -0.017098775 -0.031439453 -0.20711529 -0.020630213 -0.016532974 -0.25325128 -0.026972583
-0.114802845 -0.013993232 -0.020642938 -0.15442395 0.038131274 0.07406241 -0.022163088 -0.03445153
-0.0440916 -0.025045544 -0.04919297 -0.018105188 -0.04950289 -0.011722496 -0.08720788 -0.026519423
-0.034055073 -0.046358112 -0.02028979 -0.030378956 -0.07202722 -0.029577168 -0.030027939 -0.28245518
-0.037233736 -1.1522525e-06 -0.033365563 -0.03979134 -0.12325678 -0.05347984 -0.024016866 -0.040921804
-0.02588424 -0.06025689 -0.030420603 0.0012697893 -0.025699534 -0.0720605 -0.016141266 -0.06853326
-0.024228586 -0.03321458 0.030484762 -0.02729776 -0.028727338 -0.103777744 0.037639745 -0.031291205
-0.09942966 -0.029048841 -0.052462 -0.31172344 -0.04181889 -0.0295368 -0.058586884 -0.02957664
-0.1745442 -0.03859521 -0.07453117 -0.09682593 -0.024239978 -0.025739435 -0.24342692 -0.022909518
-0.032946795 0.027347192 -0.02213832 -0.02589084 -0.03900307 -0.11023194 0.19413431 -0.082157634
-0.018258717 -0.032553256 -0.031537704 -0.016069366 -0.043556333 -0.01929041 -0.013547726 -0.046981066
-0.03321227 -0.0382681 -0.093001485 -0.036163688 -0.17290018 -0.036416505 0.14846517 -0.042279724
0.050702263 -0.030090235 -0.10324841 -0.027534038 -0.026998423 -0.03490068 -0.32190633 0.11883537
-0.2641353 -0.07284828 -0.03535804 -0.02433178 0.01410722 -0.0192348 -0.03531303 -0.14741898
-0.03148659 -0.029669212 -0.20642404 -0.24770224 -0.07311794 -0.030880712 -0.03806356 -0.20296657
-0.02442496 -0.023960732 -0.07617445 -0.037140664 -0.16126661 0.07412985 -0.018200764 -0.10527941
-0.1940612 -0.051735345 -0.031447064 -0.030589044 -0.043200236 -0.026726183 -0.0125008365 -0.015619506
-0.019630339 -0.15465735 -0.02919722 -0.14476074 -0.02026063 -0.023197405 0.014520368 -0.025563389
-0.033353366 -0.08241366 0.11802238 -0.026759049 -0.041444845 -0.033552773 -0.062374037 -0.023278339
-0.11051136 -0.043494184 -0.021585068 -0.042784836 -0.024376433 -0.093813606 -0.020908495 -0.100652315
-0.04086861 -0.023218587 -0.0016094095 -0.036436595 -0.030557374 -0.03470838 -0.030993165 -0.032637898
-0.25234482 -0.04121147 -0.034438808 -0.024039835 0.3969931 -0.12764768 -0.3155493 -0.026899619
-0.029387841 -0.021406742 -0.11926815 0.15421732 -0.03397336 -0.01658646 -0.033634838 -0.02803665

weight f4 [128, 256]
00000000: 4412 0a00 f15c 2c00 e817 0f00 5f43 1e00
00000010: e8c3 0080 20db 2f80 dea7 0e80 3566 2d00
00000020: c12b 2680 8c6e 0e00 b69c 0f80 2e2d 1a80
00000030: fb25 4a80 bd7d 0380 b18e 1300 97cf 0200
00000040: 5f8d 2580 f3b1 1b80 aabf 0680 7d0d 1f00
00000050: 4784 0180 c791 1680 4387 1c80 a9ef 1400
00000060: 1588 0a80 94e5 4a80 8e25 4700 d039 1200
00000070: c19e 0580 c695 0100 e271 3780 d2e6 1a00
00000080: 10bb 0400 655f 1600 f420 1980 b6c8 2a00
00000090: 9c25 b698 a54f 0900 0ed9 2680 b272 1b80
000000a0: ab59 0d80 d2b7 0b80 76fa 0900 0467 1700
000000b0: 1b2b 3580 0ec8 3a00 d3cb 1f80 b260 2f80
000000c0: b2a6 1880 646d 0a00 6685 2c00 0011 1200
000000d0: 3cd9 2700 65f2 1d00 d6b8 2880 d47d 2600
000000e0: af7b 1b80 7c4f 1000 5a71 2980 e3a5 2180
000000f0: df92 0800 a23d 1800 9c33 c384 20ea f200
00000100: 7373 3c00 7ce7 2f00 ca3f 2d80 ac94 0080
00000110: dfa1 0680 a33c 1880 5e8d 1f80 a1d4 2680
00000120: e13d 1000 0443 0580 a9a4 0580 4700 3400
00000130: ce29 0680 33c2 4500 440b 1992 024b 3c80
00000140: 6cc7 2980 c04c 0000 7157 4400 cba5 1a00
00000150: abb6 0980 469f 3380 b34f 4600 bbd4 3a80
00000160: b8fd 0880 2775 0000 d58e 1480 edc5 4080
00000170: 486b c301 3dea 1400 b9b4 3800 698c 3000
00000180: 9703 2d80 ee02 1f80 e58b 0180 997e 2300
00000190: 83d7 1b80 393f 1b00 6070 2c80 d6ba 1080
000001a0: 253f 0680 fcc4 2980 409d 2380 c189 0c00
000001b0: 8487 1800 52d2 0280 f46c 0000 292e 2d00
000001c0: 434c 2580 ea55 0380 5d25 4080 6214 2980
000001d0: a9ea 2500 61fb 3500 0710 1380 b0c0 0a80
000001e0: 2bb2 4100 6815 1c00 c5d4 0e80 49f6 0c00
000001f0: 73a9 3880 97af 2300 b596 0580 d68f 0380
00000200: c3b0 1180 0299 0400 6620 2280 3617 2400
00000210: 9798 2b02 a215 2380 e916 0f80 5f0d 3a80
00000220: 46bb 3100 2891 0a00 f7cf 4300 caef 0f00
00000230: 7db6 3900 b967 0980 d96f 0800 8887 3380
00000240: 8c14 0c00 e331 1480 ff1b 0880 4591 4800
00000250: f28f 1300 2881 1a80 31f6 0b80 e762 1500
00000260: 17ac 3a00 f6d5 4780 5530 2380 6c8e 0f80
00000270: b91a 1f80 681f 1f80 71e2 1680 73dd 0e80
00000280: 2579 1200 46ff 2e80 7ea9 1b80 3ad3 0b80
00000290: fe63 0080 d4b7 1b80 c8d6 1480 1d38 0180
000002a0: 64c7 1e00 282c 0300 ba2c 4780 8bb6 4a00
000002b0: d928 2c80 cbf3 0680 9b8f 0e80 b3f6 0d80
000002c0: b86f 1000 c400 0f00 d111 0300 a301 4800
000002d0: cffb 0780 cf51 4780 88dd 1080 202d 0d80
000002e0: 8604 4680 97fd 0e00 ddd5 2900 00c0 0480
000002f0: ebc2 1b80 d742 0000 0724 4580 d64f 0500
00000300: 2989 0280 3e7e 0900 5501 3a80 c06e 3280
00000310: 5321 0080 3bd0 1800 77b9 1e00 8234 1780
00000320: 7e2f 1d00 9f83 0280 c12d 2b00 c987 0080
00000330: ff7d 1200 ba22 1180 2ea0 1980 b3e3 0880
00000340: 5fc2 0800 6cf8 0700 0098 1b80 6d71 3f00
00000350: 4e9c 1580 67ae 0780 2870 1080 de0b 0f83
00000360: fd71 1d80 bbe6 1500 da68 068a ab1a 1680
00000370: 5536 3080 64da 1d00 f587 0a80 b10c 2580
00000380: b315 1880 54f0 2500 da5e 2300 dfed 4680
00000390: 122a 1e80 9bb4 4900 3a82 1200 2727 1100
000003a0: dd26 1100 8359 1080 6c9d 3400 9b83 1800
000003b0: a504 4380 e914 1200 b93e 2900 91c2 0380
000003c0: 8bd1 1b80 eb46 3100 09ad 2480 3ab6 3f00
000003d0: 2461 1f80 0e4c 0e80 00b1 0080 0f23 0c80
000003e0: e2ab 0c80 8559 0b80 df4e 1a80 8ab1 1580
000003f0: 6bea 0300 dac1 2a00 cf42 1880 ba9b 1380
9.24907e-40 4.074103e-39 1.386108e-39 2.779233e-39 -7.0278e-41 -4.394876e-39 -1.345916e-39 4.169262e-39
-3.505445e-39 1.325354e-39 -1.43375e-39 -2.40393e-39 -6.809452e-39 -3.20613e-40 1.796062e-39 2.5814e-40
-3.448628e-39 -2.543395e-39 -6.19769e-40 2.851739e-39 -1.39288e-40 -2.072676e-39 -2.619917e-39 1.922684e-39
-9.67172e-40 -6.878184e-39 6.533792e-39 1.673778e-39 -5.16128e-40 1.45564e-40 -5.091806e-39 2.470526e-39
4.34447e-40 2.054602e-39 -2.307709e-39 3.929092e-39 -4.7083873e-24 8.5509e-40 -3.567613e-39 -2.520703e-39
-1.226028e-39 -1.076133e-39 9.16368e-40 2.149171e-39 -4.882745e-39 5.398225e-39 -2.920019e-39 -4.350956e-39
-2.263851e-39 9.57597e-40 4.088616e-39 1.659137e-39 3.659513e-39 2.750184e-39 -3.739726e-39 3.534887e-39
-2.523928e-39 1.497882e-39 -3.805918e-39 -3.09008e-39 7.87371e-40 2.226162e-39 -4.5891675e-36 2.2308178e-38
5.551545e-39 4.399309e-39 -4.15548e-39 -5.3333e-41 -6.09081e-40 -2.225804e-39 -2.897613e-39 -3.566026e-39
1.491566e-39 -4.83218e-40 -5.18246e-40 4.775545e-39 -5.6601e-40 6.406315e-39 -4.8292173e-28 -5.537038e-39
-3.836794e-39 2.7533e-41 6.276182e-39 2.447198e-39 -8.92048e-40 -4.740747e-39 6.457075e-39 -5.402772e-39
-8.25701e-40 4.2026e-41 -1.887948e-39 -5.948474e-39 7.178563e-38 1.920739e-39 5.207619e-39 4.458473e-39
-4.133885e-39 -2.847951e-39 -1.4202e-40 3.259657e-39 -2.55687e-39 2.502238e-39 -4.081074e-39 -1.536392e-39
-5.73665e-40 -3.83592e-39 -3.270653e-39 1.151443e-39 2.252666e-39 -2.5912e-40 3.9085e-41 4.149156e-39
-3.425271e-39 -3.06327e-40 -5.890875e-39 -3.772567e-39 3.482094e-39 4.957459e-39 -1.750624e-39 -9.87478e-40
6.033222e-39 2.579073e-39 -1.362024e-39 1.190376e-39 -5.203575e-39 3.277232e-39 -5.13241e-40 -3.27105e-40
-1.624614e-39 4.22231e-40 -3.134029e-39 3.314404e-39 1.2606887e-37 -3.222003e-39 -1.385751e-39 -5.331255e-39
4.56712e-39 9.70427e-40 6.227582e-39 1.463553e-39 5.300088e-39 -8.63728e-40 7.74807e-40 -4.73223e-39
1.109397e-39 -1.854606e-39 -7.44727e-40 6.664269e-39 1.796512e-39 -2.434055e-39 -1.098507e-39 1.964025e-39
5.388193e-39 -6.597075e-39 -3.23158e-39 -1.428624e-39 -2.856487e-39 -2.858167e-39 -2.101613e-39 -1.365138e-39
1.696497e-39 -4.316008e-39 -2.540361e-39 -1.085964e-39 -3.587e-41 -2.545504e-39 -1.913759e-39 -1.11965e-40
2.826593e-39 2.91347e-40 -6.536365e-39 6.861311e-39 -4.055415e-39 -6.3847e-40 -1.337213e-39 -1.28236e-39
1.509445e-39 1.377807e-39 2.81898e-40 6.612743e-39 -7.3318e-40 -6.549668e-39 -1.548838e-39 -1.210049e-39
-6.430107e-39 1.376668e-39 3.841975e-39 -4.36219e-40 -2.549482e-39 2.3978e-41 -6.349573e-39 4.87817e-40
-2.32875e-40 8.71807e-40 -5.326937e-39 -4.631504e-39 -1.1954e-41 2.278751e-39 2.821597e-39 -2.131053e-39
2.680266e-39 -2.30888e-40 3.96534e-39 -4.871e-41 1.698238e-39 -1.573661e-39 -2.353349e-39 -8.16367e-40
8.04411e-40 7.31965e-40 -2.534086e-39 5.826326e-39 -1.984617e-39 -7.05412e-40 -1.509602e-39 -4.2037546e-37
-2.70412e-39 2.011316e-39 -6.471586e-33 -2.029948e-39 -4.427594e-39 2.741573e-39 -9.67127e-40 -3.402466e-39
-2.211836e-39 3.484127e-39 3.248269e-39 -6.513817e-39 -2.770157e-39 6.76878e-39 1.699755e-39 1.575249e-39
1.575145e-39 -1.501479e-39 4.831918e-39 2.251263e-39 -6.154644e-39 1.66054e-39 3.787756e-39 -3.45304e-40
-2.554728e-39 4.52538e-39 -3.368151e-39 5.851007e-39 -2.881748e-39 -1.31298e-39 -6.3496e-41 -1.114603e-39
-1.163686e-39 -1.042304e-39 -2.416017e-39 -1.992234e-39 3.596e-40 3.926632e-39 -2.228018e-39 -1.800739e-39

bias f4 [128]
00000000: 19ab 618a ae87 273e 46ee 543c 6c3b 0b19
00000010: e8e8 46a4 264a 8b9b 15ef f6b1 4c15 51ba
00000020: 3824 4bbb 7b09 b19e b65a a3b6 520f 7eb3
00000030: b599 0bba b9da 96b0 f89d 47bb ab79 e1a0
00000040: b475 be22 68c5 99b5 eb1d a3bb fa57 7fbb
00000050: 9667 da9e 8e2d 093e a665 f3b9 b8b4 c0bc
00000060: 8eca 34aa b005 1439 37f8 78b8 2eef dcbb
00000070: f891 93b1 f741 e3bd 42ff 64bc 87bf 83a3
00000080: 41ed be12 34be 0ab0 21b6 bc2b 5bd3 dbb9
00000090: 147d 0d3e f082 a1a8 aa40 45b5 a606 87bb
000000a0: 3f9c d6ba 21e3 a2b9 2bc8 b0bb 17c5 3a1d
000000b0: 6ebb 03b7 17f2 809e bd5a 9a9b 8d28 53af
000000c0: 8d9b 849f 9755 33ba 0cca 8591 8dab b33e
000000d0: 87ae 17a2 b64c 9a3b 9f1c 38b8 153d 8e9e
000000e0: f140 03a1 21af 81ae 5607 5db1 c4ef 10bb
000000f0: c96c 35b6 e66a 1cba e0aa 7f2f f6e4 1abb
00000100: b92d 08b2 9fdd 9bad 9df9 0dbb 9c87 e638
00000110: 9711 883d 65c3 f3bb f134 8fb7 940e bbaa
00000120: 8723 8bbb 2f21 4da2 5d3b d6bb cd5d c02d
00000130: caea 70bb 3870 809f 4e6f a83b 4edc 28ba
00000140: d685 cfba d20a aaba cc8d cfb9 19d2 b0b2
00000150: ae61 85bc 57ce 26bc 4827 8dab 7dda 9fae
00000160: 74da ffba 8c92 0596 5eda 4fba 3583 653e
00000170: a112 0300 74e0 c1a5 f293 aeb9 b110 b33e
00000180: a075 5ea8 c8d5 7aa3 79ff 2fa6 4af6 89b9
00000190: 4ae8 7538 c9c6 479a 9985 6fbb ab57 2caa
000001a0: 451d 28bb 740a 68bb 6897 21bc b08c 11bb
000001b0: 29a5 a1a0 da0a 1094 528a 5dbc c88e 85bb
000001c0: 4f0c 5d3e 08e5 91af 2227 2faf 3e2e 0daf
000001d0: d7c7 a7b4 543e dc34 2827 cd9d 9745 3da9
000001e0: a4c3 a1b5 d56e 67b2 5c43 623e 1a75 93ba
000001f0: e2db bfb4 dbe1 bd3b 8de3 fb3d 2422 833e
-1.0865536e-32 0.16360351 0.012996262 7.198132e-24 -4.3131685e-17 -2.3043538e-22 -7.1867228e-09 -0.0007975891
-0.003099693 -1.8744525e-20 -4.8683387e-06 -5.9152917e-08 -0.00053253333 -1.0976101e-09 -0.0030459147 -3.8196996e-19
5.1624226e-18 -1.1456841e-06 -0.0049779317 -0.003896235 -2.312449e-20 0.13396284 -0.00046424306 -0.023523673
-1.6057487e-13 0.00014116499 -5.9358976e-05 -0.0067423796 -4.294858e-09 -0.11096566 -0.013976874 -1.4284163e-17
1.2049173e-27 -5.04744e-10 1.3408754e-12 -0.00041928407 0.13817245 -1.7931376e-14 -7.348232e-07 -0.0041206656
-0.0016373469 -0.00031068272 -0.0053949556 2.4718788e-21 -7.851848e-06 -1.3652653e-20 -2.55358e-22 -1.9204745e-10
-5.616151e-20 -0.0006841062 -2.110822e-28 0.3509182 -2.055671e-18 0.0047088517 -4.3895674e-05 -1.5060098e-20
-4.4470476e-19 -5.89735e-11 -3.2163903e-09 -0.0022115568 -2.7034423e-06 -0.0005966857 2.3252822e-10 -0.0023635007
-7.926638e-09 -1.771988e-11 -0.0021663674 0.00010992514 0.0664398 -0.0074390643 -1.7071581e-05 -3.3227989e-13
-0.0042461785 -2.7800248e-18 -0.0065378384 2.1869529e-11 -0.003676104 -5.439576e-20 0.0051402217 -0.00064415194
-0.0015832733 -0.0012973195 -0.00039587764 -2.0584638e-08 -0.016281929 -0.010181031 -1.0029555e-12 -7.269294e-11
-0.001952006 -1.0789896e-25 -0.00079289626 0.22413333 2.82189e-40 -3.3632258e-16 -0.00033298094 0.34973672
-1.23489814e-14 -1.3597797e-17 -6.106155e-16 -0.00026314176 5.8628888e-05 -4.1312813e-23 -0.0036548136 -1.5307085e-13
-0.0025652212 -0.0035406621 -0.009862758 -0.00222091 -2.7383755e-19 -7.272282e-27 -0.013521748 -0.0040758587
0.21586727 -2.6538083e-10 -1.593006e-10 -1.2840304e-10 -3.1251577e-07 4.1023543e-07 -5.4303535e-21 -4.202679e-14
-1.2052374e-06 -1.347117e-08 0.22096008 -0.0011250109 -3.5736508e-07 0.0057947463 0.12299261 0.25611985

weight f4 [64, 128]
00000000: 083a 828a 3ccc 7dbe ea4a 6f3b d9f5 0b19
00000010: 109a c712 bfb2 21a0 8046 65b1 30ff 7639
00000020: 174b a1bd 88c6 4f1d 2113 d117 f989 acb0
00000030: 482f 40ba 03db 482e 983d a03e 5490 25a0
00000040: 684c 79a4 c6c2 1cb1 2389 233b c005 523a
00000050: 7cc2 249b df29 063e 0d7e 1bb9 0379 2f3c
00000060: 9716 85a9 4644 7b3a ac83 ef37 3144 3f3b
00000070: 4857 9231 814c 433d 745c 0cba d911 5027
00000080: b7d8 e612 440c 9830 c0bd fea9 f52a a73a
00000090: 5f76 b73e 3748 8d27 115f 4b34 f63d 523b
000000a0: c333 b5b9 0b47 7635 53cf 12b8 abdc 4c1d
000000b0: 41de 3ab5 f571 4f0b 14e8 2203 fd44 aaad
000000c0: 5d08 071f 1d8e 0639 ab77 cd0e 6c0d 10be
000000d0: 3f52 0714 4d43 e83e 1ea7 c9b7 000e 3e1e
000000e0: 7d10 90a1 fcfc 1300 55d5 ac2f d957 b23c
000000f0: f6c1 c3b7 b5fd a0b7 0805 b12f 06f8 85bb
00000100: 3a55 5f31 26af 0080 6631 3b39 64b4 1638
00000110: 4200 313d 474a 19bc b18c ca37 5c7b 012a
00000120: 6561 b0ba fa28 6a9b 6ac3 6339 c736 8a2c
00000130: 6259 01bb 810b 5da2 380e 8d3a 59e1 ca38
00000140: f5ad a3bb 6d81 1835 afa6 9439 09e1 06b1
00000150: 9d3b e63d 33ee 0f3b e71f 132b 5d55 db99
00000160: 2310 93bb 34db 1596 0194 7a3a 7a14 0fbd
00000170: 3bab 0680 263f eb2a 1d11 25ba 2a78 9ebe
00000180: df15 c7a8 9ac8 5123 e206 6ba3 578e ad36
00000190: 0cc8 ab38 73db a919 149c 933a f49f 4a04
000001a0: 6e04 54ba 92ec b738 723d 8a39 2f8d 1f39
000001b0: eae2 b40e c450 4f10 bb9e a63a 1835 5cb9
000001c0: c757 62bc a7d4 a82c 963d 96ab 8953 c32e
000001d0: 4232 cd34 711d 9634 48b9 4b21 12a0 a4a8
000001e0: a4c6 67b0 5bed 67b1 258f 193e 9080 e7b6
000001f0: 8ad4 85b1 08c6 99bb 8a31 673e ea56 6e3c
00000200: 1475 0400 ab40 f33c fe16 afbb b03f c499
00000210: dfcf 0a00 03ef 568e f20f b6b0 853c 7037
00000220: e96c 3d3d 5adc 461e 25ef 2c00 f072 5cad
00000230: e398 35b9 d640 130f 857b 663d 6680 081f
00000240: 3430 07a4 f54b 85a7 0125 4337 40cf c238
00000250: 3bce 809d a581 c3bc eb25 a4af aa4b 0e3c
00000260: aa32 2629 dcbd 0aba de93 2336 2d15 fd3a
00000270: 385e 2b2f e9a7 323d 67c0 4a38 6f9a 0480
00000280: 7841 f692 dc2d 0500 4e73 20ac e4cf b9ad
00000290: c898 a2bd 49d9 3727 37af 482f 0dfa 87b2
000002a0: 0d0b 18b9 a04e c1b5 c9ea 9e37 fcba 149c
000002b0: ba44 4734 b996 0080 6fe2 2100 21f0 dd2d
000002c0: 049c d99e e7ad 6cb3 1c19 3e10 7410 11bd
000002d0: fbf0 1600 50df 8abd a78f 0735 8f32 3c1d
000002e0: 77ca ab1f 1d98 3680 d9e0 e6af 011b b1ba
000002f0: 08db 2b32 ee07 8c36 4a6e 91af 3b38 8fba
00000300: bde1 78af 20a4 3f00 c5b3 a438 e1cc 90b6
00000310: d4cd 88bc 45b6 a638 a4b3 44b0 dd4e f50d
00000320: 0edc cd39 1fb0 279b 32ce 33b5 9401 55ad
00000330: bb2a b838 bb0c 2321 1ef1 fdb7 76b6 0638
00000340: 60e5 abb7 a353 a6a9 4880 8d39 d9e3 7c2f
00000350: 1070 1a3d 5ab7 783b 78c3 24a9 4fcb 6611
00000360: 013f 1f36 c8df 9715 2448 f634 2d7a 5bbd
00000370: 5eae 1600 eabc 3d80 7508 1aba 94dd ea3d
00000380: fed8 e927 1ab1 349a 2006 2f20 02ec 9132
00000390: ed61 7db8 b280 5e99 68d0 3d36 df3f 2f00
000003a0: c774 b432 bd79 24b7 6295 2eb3 fdeb ca37
000003b0: 5d52 6187 79e8 be11 0d77 91b8 059c 8931
000003c0: 4fbe ad3d 66bc 0b22 98ed 0cac 5434 f4ac
000003d0: 0583 77a9 1072 05b5 710c 0880 6379 96a8
000003e0: 079d 67aa b5e9 a2ae 5d13 b23d 48c8 7337
000003f0: 8e8b 4e29 b9cb 6dbd d6fe 18bd df86 ae3c
-1.2540374e-32 -0.2478494 0.0036513158 7.23578e-24 1.2596645e-27 -1.3696373e-19 -3.336396e-09 0.00023555453
-0.078756504 2.749886e-21 1.3511137e-24 -1.2553861e-09 -0.0007331264 4.5669257e-11 0.31296992 -1.4023798e-19
-5.4057987e-17 -2.2811704e-09 0.0024953566 0.0008011721 -1.3628603e-22 0.1310191 -0.0001482891 0.010710004
-5.910305e-14 0.00095850637 2.8552335e-05 0.0029184932 4.259082e-09 0.04768038 -0.0005354353 2.8875474e-15
1.4568465e-27 1.1062942e-09 -1.1312782e-13 0.0012753891 0.35832497 3.9213657e-15 1.8940433e-07 0.0032080389
-0.00034561576 9.174552e-07 -3.50022e-05 2.7113258e-21 -6.961382e-07 3.9952482e-32 4.7873934e-37 -1.93574e-11
2.859428e-20 0.00012832177 5.0651638e-30 -0.1406762 6.8319784e-27 0.45363846 -2.4038887e-05 1.0061411e-20
-9.762184e-19 1.835628e-39 3.14382e-10 0.021770405 -2.3336132e-05 -1.9191628e-05 3.2199687e-10 -0.0040884046
3.2499217e-09 -6.2831e-41 0.00017852112 3.593079e-05 0.043213136 -0.009356088 2.4145791e-05 1.15003e-13
-0.001345676 -1.9369267e-22 0.00021721204 3.9282774e-12 -0.0019737114 -2.9957175e-18 0.0010761684 9.674085e-05
-0.0049951025 5.681275e-07 0.0002835295 -1.9627484e-09 0.11241839 0.0021962046 5.2269164e-13 -2.2678547e-23
-0.0044880076 -1.2105292e-25 0.00095587975 -0.034931637 -6.12439e-40 4.1788204e-13 -0.00062968006 -0.30951053
-2.2102923e-14 1.1372392e-17 -1.2740833e-17 5.1723723e-06 8.191177e-05 1.7562825e-23 0.0011261725 2.3818433e-36
-0.0008087818 8.770185e-05 0.00026367191 0.00015216017 4.4591936e-30 4.088577e-29 0.00127121 -0.00021000614
-0.013814873 4.7984563e-12 -1.0675235e-12 8.882412e-11 3.8220793e-07 2.79611e-07 6.9024293e-19 -1.8277077e-14
-8.4319596e-10 -3.3749845e-09 0.14996012 -6.899303e-06 -3.8949723e-09 -0.0046927966 0.22577491 0.014547089
4.09342e-40 0.029693922 -0.005343317 -2.0291648e-23 9.92925e-40 -2.6492616e-30 -1.3246775e-09 1.4319206e-05
0.046246443 1.05276e-20 4.126551e-39 -1.2531073e-11 -0.0001731846 7.2601465e-30 0.05627014 2.890533e-20
-2.9314288e-17 -3.699727e-15 1.1631521e-05 9.289244e-05 -3.4094555e-21 -0.02386553 -2.9858369e-10 0.008685032
3.690335e-14 -0.00052925735 2.4374963e-06 0.0019308679 1.5585833e-10 0.043617163 4.833974e-05 -4.22742e-40
-1.5540922e-27 4.75629e-40 -2.2801375e-12 -2.1124387e-11 -0.07939297 2.5514142e-15 1.8252143e-10 -1.5829778e-08
-0.00014499966 -1.4402503e-06 1.8944398e-05 -4.9210764e-22 1.8558322e-07 -5.4069e-41 3.1118e-39 2.523143e-11
-2.3040295e-20 -5.5106195e-08 3.7490237e-29 -0.03541608 2.106828e-39 -0.06780875 5.050046e-07 2.490773e-21
7.275627e-20 -5.013685e-39 -4.199652e-10 -0.0013512076 1.0003312e-08 4.1732483e-06 -2.6453711e-10 -0.0010926792
-2.2635667e-10 5.844513e-39 7.853614e-05 -4.3153855e-06 -0.016699709 7.949447e-05 -7.155967e-10 1.5118276e-30
0.000392646 -1.3870824e-22 -6.698275e-07 -1.2107999e-11 8.781763e-05 5.5243397e-19 -3.027223e-05 3.211802e-05
-2.04916e-05 -7.3863895e-14 0.00026989193 2.3000214e-10 0.037704527 0.0037951083 -3.6584857e-14 1.820645e-28
2.372952e-06 6.134148e-26 4.587356e-07 -0.053583313 2.082932e-39 -5.669735e-39 -0.0005875894 0.11468044
6.4905755e-15 -3.736619e-23 1.4825103e-19 1.6987546e-08 -6.04111e-05 -1.1503121e-23 2.8284503e-06 4.339181e-39
2.1007862e-08 -9.803506e-06 -4.0648395e-08 2.4190167e-05 -1.6951323e-34 3.0119987e-28 -6.936314e-05 4.004962e-09
0.08483564 1.893775e-18 -2.0027088e-12 -6.9407067e-12 -5.495866e-14 -4.9712344e-07 -7.39147e-40 -1.6705988e-14
-2.0571401e-13 -7.408422e-11 0.086950995 1.453056e-05 4.5862233e-14 -0.058055613 -0.037352405 0.021304546

bias f4 [64]
00000000: d4b8 0b3d 93cf 9c3c f31e d83d ad75 1d3e
00000010: 7eda d13d 1bef d93c c2e7 133d e88d e6aa
00000020: b33b 403d 3ad1 443d 7dd7 4c3d ed1f ab3d
00000030: bea2 44bd 3f93 a23d 3471 7a3d 9efa 973c
00000040: f278 e23d dbd9 083d 9650 dfba 2f70 36b2
00000050: 50c3 053d c9cb b5b9 ae43 7f3d 95ca 753d
00000060: ef0e c33d 31d0 823d f9d7 983d 1fd7 a93d
00000070: d3ff 373d b74d 243b 0660 693d a2fe 3c3d
00000080: bf4c ec3d 2b40 d63c 40fa 0e3d 0bba 6a2e
00000090: 7a8b 07bb 72fb f614 688e 1793 0346 9f3d
000000a0: 0389 f43d 599a 113d e749 6f3c 4e85 4fa4
000000b0: 3137 8a3c 75e3 f49d dc86 e13d d740 4fbc
000000c0: 4959 aa37 6c27 1738 e269 5a3d 22dc 513e
000000d0: 0d44 8f3d 1166 e93c b062 86ad 39b5 68a2
000000e0: 6d76 6d3d 8d3c 413d cb83 8b2f 2c9c a0ba
000000f0: a38a 9c3d 47cb 003e a33c a73d a671 fa9b
0.034111813 0.019141948 0.10552778 0.15376921 0.10246752 0.026603272 0.036109693 -4.0954675e-13
0.046931934 0.048051096 0.050010193 0.08355699 -0.048006766 0.07938241 0.061143115 0.01855212
0.11058225 0.03341089 -0.0017037566 -1.0619302e-08 0.032656968 -0.00034674842 0.062320404 0.06000765
0.09524333 0.063873656 0.074630685 0.08292984 0.044921707 0.0025070736 0.05697634 0.046141274
0.11538076 0.026153645 0.034906626 5.337068e-11 -0.00206825 2.493883e-26 -1.9129091e-27 0.077770256
0.119401954 0.035547588 0.014605022 -4.4998883e-17 0.01687202 -6.4821447e-21 0.110120505 -0.012649736
2.0307156e-05 3.603792e-05 0.053323634 0.2049413 0.069954015 0.028491052 -1.5277862e-11 -3.1537801e-18
0.057974268 0.047176886 2.5377597e-10 -0.0012253574 0.0764363 0.12577544 0.081658624 -4.1432474e-22

weight f4 [6, 64]
00000000: a057 a43e 3497 e3bd b047 5fbe 67bb 8bbe
00000010: f1eb 6cbe bdb3 85bd c42f 32be a014 a628
00000020: 87d3 423e 250d fe3e fb25 223f 23d5 f3bd
00000030: e46f d23f 2a9a bcbe ae50 8ebd bf2d cebc
00000040: 08e3 0dbf 9d75 5dbe 1acc a23a 65cc c4b9
00000050: 1195 943e 2842 1ab8 4bcb aebe 3306 aabe
00000060: e4f0 5bbe 60a9 da3e 9e31 d3bd c380 d6bd
00000070: dfac 003e 840c 15bc 829b 9f3e b801 65bd
00000080: efec 6fbe 06a3 cebd 2f0e 6b3e 04af 142f
00000090: d978 8eb9 25b2 8f15 87cd b210 5c5d c83e
000000a0: b7ad 283f b240 43be 815f 153f 0dae 9a35
000000b0: d4e0 3cbd 1588 e01c 3c2f 83be 1a1d bd3e
000000c0: 7bec e5b7 225d 5838 f0e5 7ebd d3b4 3bbf
000000d0: c2bd b8be 9d60 c1bd 2ed2 65af d5ff 1923
000000e0: 6f72 fdbe ce3e c03e 9853 c02e 8549 7e3a
000000f0: 0bbb cebd 1889 293e 6176 31bf a084 141c
00000100: 29cf 1c3f 17bd 8fbc 7d57 a2be 8d84 3dbe
00000110: aa19 b2be a0ea c9bd 6a21 ce3d 6a0a 1fab
00000120: 0d1e 05be 52fc 4d3f e9e8 b8be 4423 8ebe
00000130: e061 13bf f122 a3be 83cb b8bd 6fdd 24bd
00000140: 1688 d43e ada0 6dbd d331 913a 914a 8fb7
00000150: 59ff 173f 5872 633a 9181 983e cbd0 2dbd
00000160: 953f a6be 6816 87be 9949 6cbe fa08 4abe
00000170: cd3b 12be e590 4abd 3b12 5bbe f583 98bd
00000180: c58f 36be b16e bfbd 38c8 b03e f225 a02d
00000190: ac1f d439 5001 0493 acd8 1411 157e 88be
000001a0: 640c e3be 4294 9dbd 08ba 66be 7767 d834
000001b0: 88d9 9bbe 9aa3 329c b4c8 9f3e 7fdc eebd
000001c0: 0020 8bb8 75c7 8bb8 4a39 acbd 37ab 49bf
000001d0: 7aa6 78be 4f0c 39bd 85ff 16af 9d89 9ca3
000001e0: 0ba2 503f f10a 563f b7ad 1431 a387 91ba
000001f0: f223 49be 7332 8b3e a8fb 8f3f 868f 7a9b
00000200: a70a 4dbe 8180 88bd 2c5b 743f 9d62 a6be
00000210: b1df 973f e047 b83e a74a 353e 28a2 bcaa
00000220: e309 7abe 46e4 8cbe 5a5c bcbe 8b50 55be
00000230: 9583 bfbe ad00 54be 7388 1ebe d3e2 2bbd
00000240: 4280 eb3e cc27 0fbe 7bb1 91ba b650 e8b6
00000250: 4af5 3fbe f64a b7b9 636c 703e 1815 4bbe
00000260: 0b27 8e3f 5b60 bdbe d082 3cbe 2af1 50be
00000270: 2dad bf3e 15fe 03bd 331a fd3e 8b87 1ebe
00000280: a61c 7cbe ba46 e33c dc25 d8bc c13c 5dae
00000290: e77d 43b9 c373 7295 653e 4892 2dcf d5be
000002a0: 3292 7d3f c141 e7bd be08 43be 24b6 0cb3
000002b0: 2936 40be 9ff6 249d 56ec 93be e81b b9bd
000002c0: 2664 81b8 efb1 4cb9 97bc 0dbe d54f ba3e
000002d0: 0de2 51be c4d4 88bd 63ef 8cad 34e5 1ca3
000002e0: e95c 73be f4c6 6fbe 2268 652f f98b 53ba
000002f0: 3783 4cbe 2279 00bc a288 aebe 6b77 fb9b
00000300: 9ddc 75be 1227 173e a588 5cbe 0cfa 063e
00000310: 2c05 6abe 1d33 92bd 2697 fabd f66e 882a
00000320: 3af4 243f 928b b7be aeff 2d3f b377 a6be
00000330: 588d fabe 6d00 153f 81f2 1bbe c808 74bd
00000340: ab65 a9be f6a6 343f 4ea1 44b9 45af 7139
00000350: 6cb1 64be d6f6 863a a0d6 2fbe ca06 d03e
00000360: c52c 5bbe 77c1 5e3f a1eb 8fbe 8587 8cbe
00000370: ca0a 06be 38f1 48bd bc66 6cbe e4fd 3cbe
00000380: b2c7 9a3e 092d d83d 3b2b 49be f22b 3aaf
00000390: ab80 623a 024a ca95 dbc8 4611 49e5 883f
000003a0: b1a9 f8be c331 963e 063b 3bbe 5bd2 11b4
000003b0: 553b 8bbe 5d83 3a1d 29ae c7be 5f91 ddbd
000003c0: e647 9fb8 6375 0b3a d27e 13be fb5d 353f
000003d0: 637a 143f 849e 5d3e 0089 ac2e 25dd 60a2
000003e0: f4b0 39be ac63 9fbe aa51 2d30 d4fa 003a
000003f0: bba6 88be 3d7c 03bf 1a01 85be 68fc c01c
0.32098103 -0.11112824 -0.2180469 -0.27291414 -0.2313688 -0.06528423 -0.17401034 1.8438647e-14
0.19026004 0.49619403 0.63339204 -0.11905887 1.6440396 -0.36836368 -0.06948982 -0.025168298
-0.5542455 -0.21626897 0.0012420446 -0.0003753632 0.2901998 -3.6778074e-05 -0.34139475 -0.33207855
-0.21478611 0.42707348 -0.10312198 -0.10473778 0.12565945 -0.009097222 0.3117333 -0.055909842
-0.23430227 -0.10089688 0.2295463 1.35227e-10 -0.0002717439 5.80383e-26 7.0525286e-29 0.39133728
0.6589007 -0.19067648 0.5834885 1.152455e-06 -0.04611285 1.4858253e-21 -0.25621974 0.36936265
-2.7409047e-05 5.158515e-05 -0.062231004 -0.7332279 -0.36082274 -0.09442256 -2.09021e-10 8.348321e-18
-0.49501368 0.37547916 8.7459984e-11 0.00097002863 -0.10094269 0.16556203 -0.69321257 4.9140506e-22
0.612536 -0.01754622 -0.31707373 -0.18507595 -0.34785205 -0.09859204 0.10064967 -5.65026e-13
-0.12999745 0.80463135 -0.36115196 -0.2776128 -0.5757122 -0.31862596 -0.09023192 -0.040250238
0.41510075 -0.05801456 0.0011077471 -1.7081651e-05 0.59374005 0.00086764013 0.2978635 -0.04243545
-0.32470384 -0.26384282 -0.2307495 -0.19729987 -0.14280625 -0.04945459 -0.21393673 -0.07447044
-0.17828281 -0.093472846 0.34527755 1.8206745e-11 0.00040459388 -1.666139e-27 1.1741909e-28 -0.26658693
-0.4434539 -0.076942936 -0.22531903 4.0308416e-07 -0.304394 -5.910671e-22 0.31207812 -0.1166315
-6.633997e-05 -6.665188e-05 -0.084093645 -0.7877688 -0.24282256 -0.045177754 -1.3733199e-10 -1.6971835e-17
0.8149726 0.83610445 2.163558e-09 -0.0011103045 -0.19642618 0.27186927 1.1248674 -2.072589e-22
-0.20023595 -0.06665135 0.9545162 -0.3249711 1.186514 0.35992336 0.17704259 -3.3508027e-13
-0.24417834 -0.2751791 -0.3678921 -0.20831506 -0.37405077 -0.20703383 -0.15481739 -0.041964363
0.4599629 -0.13980025 -0.0011115515 -6.923535e-06 -0.18745914 -0.0003496033 0.23478846 -0.19832265
1.1105665 -0.36987576 -0.18409276 -0.20404497 0.3743681 -0.032224733 0.4943405 -0.15481393
-0.24620304 0.027743686 -0.02638524 -5.0303543e-11 -0.00018643551 -4.896283e-26 -6.318578e-28 -0.41759625
0.990512 -0.112918384 -0.19046304 -3.2761946e-08 -0.1877066 -2.183272e-21 -0.28891248 -0.09038526
-6.1698534e-05 -0.00019521241 -0.13841473 0.36389032 -0.20496388 -0.06681207 -1.6022466e-11 -8.505313e-18
-0.23765911 -0.23415738 2.0864424e-10 -0.0008069869 -0.1997193 -0.00784138 -0.34088618 -4.160164e-22
-0.24009939 0.14760998 -0.21536501 0.13181323 -0.22853535 -0.07138655 -0.122358605 2.4235448e-13
0.6443516 -0.3584867 0.6796826 -0.32513198 -0.48935962 0.58203775 -0.15229227 -0.059578687
-0.3308538 0.7056726 -0.00018752107 0.00023048844 -0.22333306 0.0010296952 -0.17171717 0.4063018
-0.21403797 0.87013954 -0.28109458 -0.27447143 -0.13090053 -0.04905817 -0.23086065 -0.18456227
0.3023048 0.10555465 -0.19645397 -1.6932214e-10 0.0008640389 -8.1703914e-26 1.5681339e-28 1.0694972
-0.48566964 0.2933484 -0.18284234 -1.3580704e-07 -0.27193704 2.4684808e-21 -0.3900006 -0.10818743
-7.595103e-05 0.0005319921 -0.14403847 0.7084653 0.5799925 0.216425 7.8459905e-11 -3.0474734e-18
-0.18133909 -0.3113073 6.3053085e-10 0.0004920189 -0.26689705 -0.5136145 -0.25977403 1.277074e-21

bias f4 [6]
00000000: 7bd3 bebd e5bb 8bbb f817 583d 707e ac3c
00000010: 2275 a73d 07d1 8abd
-0.093176804 -0.004264342 0.052757233 0.021056384 0.08176638 -0.0677815
