MLP/models/net.pkl (torch_old, 199112 bytes, 8 tensors)

weight f4 [256, 26]
000000 f7 01 e7 3d f8 00 d7 3d c3 f0 79 bc 1d cb 20 bd
       0.11279672 0.10498232 -0.015255156 -0.039256204
000010 e9 0e 64 be 97 ba 6b 3e 4d 7a 9f 3d 58 16 0c 3f
       -0.22271313 0.23020397 0.07786999 0.54721594
000020 04 5f d7 3d 3c 22 53 3e 01 2d 20 3e a9 2a ce bc
       0.1051617 0.20618528 0.15642168 -0.025166826
000030 2d ce 2f 3e 3d 12 d4 3e d5 9f 94 be 81 f9 63 3c
       0.17168494 0.41420165 -0.29028192 0.013914467
000040 25 f6 b7 bd 57 52 d9 3d c9 75 88 bd 83 b0 30 be
       -0.08982495 0.10611408 -0.06663091 -0.17254834
000050 4b 15 4f 3d 33 b5 ef bd f5 7f 55 bd 40 90 12 be
       0.050557416 -0.11704483 -0.052123982 -0.1431284
000060 88 a8 2a be 44 29 0a be ec 17 b9 bb 38 cf 89 3b
       -0.16665852 -0.13492304 -0.0056486037 0.0042056106
000070 66 3a 9e 3b 05 01 bc bb 03 7e 1b 3b f3 14 ad 3c
       0.004828739 -0.005737426 0.0023726232 0.021128153
000080 be cf 43 bb db ca 30 bb 6a b5 13 3c 5e 9d b1 bb
       -0.0029878463 -0.002697638 0.00901542 -0.005420371
000090 c4 1a 92 bb 08 1b 55 3c f8 57 9a bc 39 75 06 3b
       -0.004458757 0.013006933 -0.018840775 0.0020516647
0000a0 1b 1f fa 3b 8f 33 a8 3c 99 19 30 3b 6f 6e 90 bb
       0.0076331026 0.020532398 0.0026870726 -0.004407696
0000b0 3e 9a 2a 3b 18 6c b8 bb ad 9c 19 bc 7c 7d 76 bc
       0.0026031877 -0.00562812 -0.009375733 -0.015044566
0000c0 5d bd 93 bb 7d 32 12 3c 4e 56 82 3a aa 15 31 3c
       -0.004508658 0.00892317 0.0009943934 0.010808388
0000d0 4e c4 23 3c f2 06 e8 39 80 a1 d3 ba f2 14 be 38
       0.009995533 0.00044255663 -0.0016146153 9.0638074e-05
0000e0 aa 53 32 bc b3 3d a8 3b 97 79 01 b9 00 a9 06 3c
       -0.010884205 0.0051343082 -0.00012347694 0.008219004
0000f0 fc bb 68 3a 15 86 9d bc b1 af a6 3b 48 d9 da 3b
       0.00088781095 -0.019228974 0.005086862 0.006678734
000100 d0 04 05 bc 9d 38 de 3c c4 9b 39 3c 49 08 e5 3b
       -0.008118823 0.027126605 0.011328641 0.006989513
000110 bb 8d 5e 3c 4a b7 28 3c 30 3b 30 3b 05 fc aa bb
       0.013583596 0.010297606 0.0026890747 -0.0052180314
000120 9b 7c ab 39 ce 1f c8 3b 1a a1 c2 bc cc d3 18 bb
       0.000327085 0.006107307 -0.02375846 -0.00233196
000130 be 11 01 bc 80 9e ac bc ed a2 99 bc c7 66 4e 3c
       -0.007877765 -0.021071672 -0.018754447 0.012597746
000140 83 71 02 bb ad b0 80 3c e6 03 65 3c 77 c8 56 bc
       -0.0019904084 0.015709246 0.01397798 -0.013109318
000150 77 89 52 3b a1 58 bf 3a 17 4f 6c 3c 1b d3 cd 3a
       0.0032125392 0.0014598557 0.014423153 0.0015703173
000160 8d 81 46 3c ba 70 d5 bb 73 03 30 bc da 70 48 3b
       0.012115848 -0.006513682 -0.01074301 0.0030584843
000170 6c 9d 32 3c 39 f1 e5 bc 67 95 36 bc 61 0c 37 3c
       0.01090179 -0.028069125 -0.011144019 0.011172385
000180 4d 74 e8 bc c8 e6 dc 3c 82 76 59 bc 1a 3e 03 3c
       -0.028375769 0.026965514 -0.013272883 0.008010412
000190 07 8c 6a 3c 6a 82 8a bb 19 a4 aa 3b de 53 bb 3c
       0.014315612 -0.0042269723 0.0052075502 0.02286714
0001a0 00 87 4f 3e c9 e4 48 3d dd eb 35 bd e9 7c 35 be
       0.20266342 0.04904631 -0.04441439 -0.1772343
0001b0 56 dd b0 bc 55 1c 20 3e b6 11 c1 3d 9b 66 a7 3d
       -0.021589916 0.15635808 0.09427206 0.08173867
0001c0 7d 11 a2 3d e6 77 db 3d b8 40 fd bd c6 eb 0d be
       0.07913492 0.10716228 -0.1236586 -0.13859472
0001d0 f3 92 ac 3d d3 bc 12 3e 9f a9 0d 3e 4b b1 36 be
       0.08426466 0.14329843 0.13834237 -0.1784107
0001e0 0f af 68 be aa be 2c 3e 04 62 10 3e 18 97 74 3d
       -0.2272303 0.16869608 0.1409989 0.059714407
0001f0 0c 00 78 3d ab 96 0b be c8 d1 f9 bd b9 f7 5d be
       0.06054692 -0.13631694 -0.12198216 -0.2167653
000200 3d cb 5f 3e cc 81 76 3e bd 32 5d 3e f7 e4 7f be
       0.21854873 0.24072951 0.21601386 -0.24989687
000210 30 5b f8 bc 36 ac 8e 3d 57 f2 47 bd 07 a5 02 bd
       -0.03031692 0.069664404 -0.048815098 -0.031895664
000220 e0 c3 f9 bd aa e9 d8 bd 82 04 92 3d cb 08 11 bd
       -0.12195563 -0.10591443 0.07129766 -0.035408776
000230 ad 15 44 3d 33 48 86 bd d0 4c 8a 3e 53 31 74 3e
       0.047872234 -0.0655674 0.27011728 0.2384694
000240 5d 50 99 be 85 ce 63 be ab 89 9a 3e c8 5a 02 be
       -0.29944125 -0.2224675 0.30183157 -0.12729943
000250 1f 83 2b be 01 fd 7d be a7 69 01 3f c1 4c 9d bc
       -0.16749237 -0.24803545 0.5055184 -0.019201638
000260 5f ca e8 3b a0 e7 80 3e ad 91 9d 3e 55 e3 f8 3d
       0.0071042026 0.25176716 0.30775204 0.12152735
000270 b9 f9 7d bd 1b ed 61 be 5e 59 9c bb 41 5f 34 be
       -0.062005732 -0.22063105 -0.0047713956 -0.17614461
000280 d0 c1 91 ba 8e e5 1b 3d aa eb 3b be 8c 56 54 3e
       -0.0011120383 0.038060717 -0.18351617 0.2073614
000290 db 64 0d be 09 0c 7c 3e e8 f7 45 be c0 51 35 3e
       -0.13808005 0.24613966 -0.1933285 0.17706966
0002a0 7a 3f 39 3e 4a 25 e6 bd a4 af 46 3e 2c 87 83 bd
       0.1809062 -0.11237581 0.19402939 -0.06422266
0002b0 ad c1 98 3c d8 f3 06 3e 95 d6 c0 be dd 61 12 be
       0.01864704 0.13178957 -0.37663713 -0.14295144
0002c0 82 1c f0 bd d4 87 89 3e d9 dd 99 3d c6 97 be 3d
       -0.117241874 0.2686144 0.07513017 0.09306292
0002d0 b8 74 53 bd ea ad 59 be 2b 35 0f bc 9a d8 18 3b
       -0.051624984 -0.21257749 -0.008740704 0.0023322464
0002e0 e1 31 93 bb 46 d3 f6 3b 98 1a 08 b9 e2 ce 6e bc
       -0.00449203 0.00753251 -0.00012979878 -0.014575692
0002f0 c5 3b c7 3c 26 27 26 3b 3c 09 60 bb f7 10 16 bc
       0.024320493 0.0025352924 -0.0034185192 -0.009159318
000300 f2 03 8e bb a8 64 a1 3b 3a 73 ec 3b a6 fb 8a 3a
       -0.0043339664 0.0049253292 0.0072158845 0.0010603562
000310 af fe 2c 3c 64 04 35 3c f5 68 c0 3b fc 3d 6e bb
       0.010558768 0.01104841 0.005871887 -0.0036352864
000320 f6 a2 aa bb bf 40 e2 bb 78 2a 12 ba a1 2e 28 3c
       -0.0052074147 -0.006904691 -0.00055757863 0.010265023
000330 4e 94 48 ba 0c e4 94 3b 63 7f 49 bc 02 ec 2a bc
       -0.00076514937 0.004543787 -0.012298438 -0.010432245
000340 37 50 4c bc 30 db 2f bb 93 e9 f4 39 94 f6 89 3b
       -0.012470297 -0.0026833527 0.00046713333 0.0042103026
000350 a1 dd 38 3a 8f eb 7e ba 2e 05 87 bb 73 12 c6 bb
       0.0007052068 -0.0009724432 -0.0041204905 -0.00604468
000360 02 87 ab 3c 0e 4e 4e bc da f6 b0 3b 18 1f 2c 3c
       0.0209384 -0.012591852 0.0054005207 0.01050546
000370 39 8c 9f bc 04 4f 4b 3c 42 c8 67 3c c6 43 99 bb
       -0.019476043 0.0124089755 0.014146866 -0.0046772687
000380 35 a7 f4 3a 4a c4 8f 3c f1 69 a5 bb 7f bb 59 3b
       0.0018665554 0.017549653 -0.0050480296 0.0033223329
000390 de d1 18 bc 08 4f 45 3c 18 bc e4 3b 47 1d 1a bb
       -0.00932738 0.012042768 0.0069804303 -0.0023515986
0003a0 42 1b 3a 3c 5d 3b 0d 3c 82 5a ae be 8d 48 03 bd
       0.011359038 0.00862011 -0.34053427 -0.03205161
0003b0 67 bf c9 3c 57 91 ba bd 2e 40 01 be 15 e0 ba 3d
       0.0246274 -0.091097526 -0.12622139 0.091247715
0003c0 d9 0a 09 3e 7c a5 9f 3d b9 0d 7a 3a 54 9e 4d bd
       0.13383044 0.077952355 0.0009538788 -0.05019982
0003d0 66 5e 63 3e 63 c4 d5 bd ee 64 89 3d 6f d3 a4 3e
       0.22203979 -0.104378484 0.06708704 0.3219256
0003e0 03 3a 34 bd f1 46 2e 3e bf 82 1b 3e 7d 9a 4b bd
       -0.044000637 0.1701925 0.15186594 -0.04970788
0003f0 8c 6d 6a be 18 96 b8 bd 4e 12 1e bd 25 b6 26 be
       -0.22893351 -0.09013003 -0.038591675 -0.1628042

bias f4 [256]
000000 1b 55 8c be 4e e0 a8 bd b0 33 aa bd 56 f4 b4 bd
       -0.2740868 -0.08245908 -0.0831064 -0.08835666
000010 13 fa 91 bd 1f b6 05 bb d6 d0 5b be e6 ad 98 bd
       -0.07127776 -0.0020402742 -0.21466383 -0.074550435
000020 a6 79 e6 bd 66 cc 37 3d b1 92 33 be be 84 22 be
       -0.11253671 0.044872664 -0.17536427 -0.1587095
000030 33 ca 93 bd 2a b6 a3 bd eb 46 b4 bd 72 ec 92 bd
       -0.07216301 -0.079937294 -0.08802589 -0.071740046
000040 5d d8 05 be 36 a5 a3 bd 10 1b 35 be ff 27 89 bd
       -0.13070817 -0.07990496 -0.17686105 -0.06697082
000050 2b 6f 30 3d 8e ac 3b bd f1 1a 99 bd d7 49 be bd
       0.043074768 -0.045818858 -0.07475842 -0.092914276
000060 81 78 44 be 00 b2 20 be 16 7b 9f bd 80 b2 02 be
       -0.19186594 -0.15692902 -0.07787149 -0.12763405
000070 03 e0 5f bd 86 92 1d bd 47 6c 9f bd 63 4f 8c bd
       -0.054656994 -0.038469814 -0.07784324 -0.06851079
000080 fe 3c 44 be 16 ae ae bd 47 22 a7 bd ef 76 d3 bd
       -0.19163892 -0.08529298 -0.08160835 -0.10325419
000090 93 c4 99 bd 4a a6 95 bd 64 4a 68 bd 3b 86 9b 3a
       -0.07508197 -0.07307108 -0.05671157 0.0011865565
0000a0 03 3a aa bd a4 d5 4b bc eb 11 93 bd 6f 37 96 bd
       -0.08311846 -0.012441073 -0.07181152 -0.07334792
0000b0 6a fb ab bd e9 ea 15 bd c7 61 8b bd 06 4a 41 be
       -0.08397563 -0.03660098 -0.06805759 -0.18875894
0000c0 3d 09 91 bd 0d fc 82 be 8f b1 92 be 5d 28 c3 bd
       -0.0708184 -0.25582924 -0.2865109 -0.09529183
0000d0 1b 47 b4 bd 74 0a 83 bd 79 cf 32 3c 31 a1 b8 bd
       -0.08802625 -0.06398478 0.010913723 -0.0901512
0000e0 7a ad bf bd 42 86 bf bd 0f 1a d3 bd d2 b1 9d bd
       -0.0935926 -0.093517795 -0.10307705 -0.07699932
0000f0 24 04 36 be 5b 4e b3 bd 35 0a 67 bd 07 9e d4 bd
       -0.17775017 -0.087551795 -0.05640622 -0.10381704
000100 59 16 8d be d1 91 be bd e4 44 e2 bd 1f 4c 86 3d
       -0.27556112 -0.09305156 -0.11048296 0.06557488
000110 4f c6 c1 bd 58 0c a8 bd c6 48 c8 bd 60 7a 8e be
       -0.094616525 -0.082054794 -0.097795054 -0.2782774
000120 fb a5 b0 bd 17 e9 a8 be 41 8c c7 bd 67 20 95 bd
       -0.08625408 -0.32990333 -0.09743548 -0.07281571
000130 f8 63 85 bd d3 15 cb bd 01 a2 a3 bd 87 4e 90 bd
       -0.06513208 -0.09916272 -0.07989884 -0.07046228
000140 c6 6d a2 bd 2b 19 49 3d 78 69 2b be cc 6c a8 bd
       -0.07931094 0.049096268 -0.16739452 -0.08223876
000150 5e ee ce bd 75 8f 94 bd 9d 45 73 bd 9c 28 db bd
       -0.10104059 -0.07253925 -0.05939256 -0.10701105
000160 1a cf 8f bd b0 62 7c bd 35 ad bb bd 17 ef ce bd
       -0.07021923 -0.061617553 -0.09163896 -0.101041965
000170 48 81 b4 bc 84 e1 c5 bd 29 ea 12 be 2d 48 b5 bd
       -0.022034302 -0.09662154 -0.14347138 -0.08851657
000180 70 88 a8 bd 71 d4 9b bd 1f 0c 50 bd 9e 05 85 bd
       -0.082291484 -0.07608879 -0.05079281 -0.06495212
000190 c8 cd a3 bd 96 88 38 bd ba 56 0c be c2 e7 a9 bd
       -0.07998234 -0.045052134 -0.13704959 -0.082961574
0001a0 17 a6 82 bd 7f fe 8e bd 31 8d cc bd 31 0a b2 bd
       -0.063793354 -0.06982135 -0.099878676 -0.0869335
0001b0 f5 42 98 bb f8 b3 33 be b8 54 92 bd c9 5e 82 3d
       -0.004646654 -0.17549121 -0.07145065 0.06365735
0001c0 fb 57 84 bd 24 06 8f bd 23 6a 8e bd b3 54 04 3d
       -0.064620934 -0.06983593 -0.06953838 0.032307338
0001d0 80 b3 8e bd 63 22 84 bd 92 65 a2 bd 78 10 0a 3d
       -0.06967831 -0.06451871 -0.07929529 0.033707112
0001e0 2b 61 fb bd e5 24 98 bd e4 3e a8 bd b3 02 3e 3d
       -0.12274393 -0.07428912 -0.082151204 0.046389293
0001f0 6f 4b 2f 3e e5 b9 a3 bd 50 97 74 be ef 40 9a bd
       0.1711862 -0.07994441 -0.23885846 -0.07531916
000200 b5 51 c6 bd c1 c2 b1 bd 88 0e 91 bd da 86 60 be
       -0.09683553 -0.086797245 -0.0708285 -0.21926442
000210 33 ba 74 bd c4 af 59 bd c6 e2 a2 bd 2d cc b5 bd
       -0.059747886 -0.05314614 -0.0795341 -0.08876834
000220 f3 4a 45 bd d2 df 07 be 53 fc ac bd ef 5a 9c bd
       -0.04816718 -0.13268974 -0.084465645 -0.07634532
000230 33 67 9b bd e9 aa a9 bd 67 7e c1 bd fa 7b 8b bd
       -0.07588043 -0.08284552 -0.094479375 -0.06810756
000240 fa c2 a5 bd ed ea 7b bd 52 c2 a0 bd 9b 6c 81 bd
       -0.080938295 -0.06150334 -0.07849564 -0.06319543
000250 00 90 a3 bd 89 11 e2 bd ca 3d bf bd a2 14 71 bd
       -0.0798645 -0.11038501 -0.09337957 -0.058857568
000260 80 36 57 bd 5a fc 88 bd 33 d5 d5 bd 3f 37 40 be
       -0.05254221 -0.06688757 -0.10441055 -0.18771075
000270 19 37 81 be a6 fa 80 bd a9 b2 a9 bd 03 0b 25 be
       -0.2523735 -0.062978074 -0.0828603 -0.16117482
000280 39 0b 37 bd 3a dc fb bd 54 08 c5 bd ac ca a8 bd
       -0.044688437 -0.12297864 -0.09620729 -0.082417816
000290 e2 d3 8f bd 6d d8 bb be bb de a8 bd cc 39 7f bd
       -0.07022835 -0.36688557 -0.082456075 -0.06231098
0002a0 1b 9f 9d bd 82 97 00 be 5b 8c 30 3e d9 03 a8 bd
       -0.076963626 -0.12557796 0.17241041 -0.08203859
0002b0 e7 5c 85 bd 51 cb 28 be 9f 5a cb bd a8 53 9b bd
       -0.0651186 -0.16483809 -0.09929394 -0.075843155
0002c0 de 1a 6c bd 29 29 de bd c6 79 a6 bd ac de 9a bd
       -0.05764281 -0.108476944 -0.08128695 -0.075620025
0002d0 b6 9e 8b bd 06 ba bc bd a6 80 e3 bd 1a 7c 7a bd
       -0.06817381 -0.09215169 -0.11108522 -0.06115351
0002e0 d2 3c 7e be 06 7c 31 3e 5a ed 25 bd 95 b6 61 bd
       -0.24827889 0.17332467 -0.04050956 -0.055105764
0002f0 c5 9c d2 bd c4 cd a1 bd 64 8e 42 be 75 07 6e bd
       -0.10283808 -0.07900575 -0.1899963 -0.05811258
000300 6a d0 4c 3c a6 72 a4 bd e8 ac c8 bd 0f 4b bd bd
       0.012500862 -0.0802968 -0.09798604 -0.09242832
000310 cf 14 bb bd 79 dd 82 bd 2e e8 9e bd cd 1a b8 bd
       -0.09134828 -0.06389899 -0.077591285 -0.08989487
000320 58 23 b1 bd 41 7f 9e bd aa ed a5 bd ec fd b6 bd
       -0.086493194 -0.077391155 -0.081019714 -0.089351505
000330 08 1f a0 bd ff 56 01 bd 37 ca 94 bd 78 61 8a bd
       -0.07818419 -0.031577107 -0.07265132 -0.06756872
000340 35 63 c3 bd 9e c0 88 bd b3 27 42 bd 6c 97 6d 3d
       -0.095404066 -0.06677364 -0.04740114 0.058005735
000350 33 6c 83 bd e9 52 e3 3d d9 db 03 3c 07 9b 9f bd
       -0.06417122 0.11099798 0.008048021 -0.07793241
000360 8f d8 3a bd 2b c9 be bd 45 c4 02 bd 1c 04 94 bd
       -0.045616683 -0.093157135 -0.03192546 -0.07227346
000370 37 d7 a4 bd d0 c0 64 bd bf cd 94 bd b7 75 f1 bd
       -0.080488615 -0.055847943 -0.072658055 -0.117900304
000380 d7 64 aa bd 6e 37 89 bd 89 49 17 3e 0f e8 bb bd
       -0.08320015 -0.067000255 0.14774145 -0.09175121
000390 7b 3e bf bd b5 cb 54 be 32 d1 83 bd 71 8b 8a bd
       -0.09338089 -0.20780833 -0.06436385 -0.067648776
0003a0 fe 97 e6 bc 8b b3 21 be bf 38 c8 bd 44 1e aa bd
       -0.028148647 -0.15791146 -0.097764485 -0.08306554
0003b0 9e 04 91 bd b3 66 b9 bd 68 56 8f be b8 b0 8a bd
       -0.07080959 -0.090527914 -0.2799561 -0.06771988
0003c0 a8 e9 e7 bd 8c af ef 3a fa ae b1 bd cf e6 82 bd
       -0.11323863 0.001828657 -0.08675952 -0.063916795
0003d0 14 e2 bc bd 27 e9 a6 bd 16 d3 95 bd 1a ef a3 3c
       -0.092228085 -0.08149939 -0.07315652 0.020011473
0003e0 c7 e2 82 bc fe d3 ac bd fa 04 58 be 3d 67 26 bd
       -0.015977276 -0.08438872 -0.21095648 -0.0406258
0003f0 ee e4 5e bc a1 99 86 be 07 8b ee bb f1 91 8a be
       -0.013604386 -0.26289085 -0.007279757 -0.2706447

weight f4 [128, 256]
000000 20 78 1c 3e c2 1f 0f 3c 6c 2a 8a 3c 60 1f aa 3b
       0.15280199 0.008735599 0.016865931 0.0051917285
000010 c0 c4 8a 3c 38 2e d0 3d 9d 97 7a bd d8 b3 b2 3b
       0.01693952 0.101650655 -0.061179746 0.005453568
000020 ad b5 0a 3c dc fe 1f 3d e5 fc 91 3d 35 10 1d 3e
       0.008466166 0.039061412 0.07128314 0.15338214
000030 4b 89 b3 b9 1b 68 72 3b de 69 9d b9 34 fb c6 3c
       -0.00034243832 0.0036988321 -0.0003002425 0.024289705
000040 04 32 41 bd 03 05 e3 bb 5d 07 81 3d 92 1f ea 3a
       -0.04716684 -0.0069280877 0.063002326 0.0017862192
000050 7f b2 a4 3d a0 46 4a 3c 3b ec 55 3c 79 61 fa 3b
       0.08041858 0.01234594 0.01305681 0.007641014
000060 ac cb 12 3e 94 a3 19 be 20 b3 19 ba 08 ef 2f 3d
       0.14335507 -0.15003806 -0.00058631785 0.042952567
000070 e1 54 fb bc 98 e7 bf 3d 02 4e 49 bb 32 7f 8e 3b
       -0.030680122 0.09370345 -0.0030716662 0.004348659
000080 f0 04 87 3e 29 99 3c 3c 40 64 67 ba 41 73 9e bb
       0.26370955 0.011511126 -0.0008826889 -0.0048355167
000090 9c 91 b8 ba c8 46 fb ba 00 0f 15 b9 e7 63 32 3d
       -0.0014081481 -0.0019170875 -0.00014215335 0.043552306
0000a0 71 4f 24 3c 1b 26 00 bd fc 30 91 3c da 8e cb 3b
       0.010028706 -0.03128634 0.017723553 0.0062120976
0000b0 85 30 c5 3b 94 4b 76 bd 33 86 a5 3b 0d 5e 6f bd
       0.006017747 -0.06013067 0.005051398 -0.058439303
0000c0 17 1e 4c 3c e9 ef 92 3c 15 5d 58 3d 0d 95 83 3a
       0.012458346 0.017936664 0.052823145 0.0010038927
0000d0 f3 02 83 3b 43 bf f6 ba bd 1c 1d be c6 4e c2 bd
       0.0039981543 -0.0018825311 -0.15342994 -0.09487681
0000e0 1f 65 8b ba b1 3b b4 bb 16 c5 95 bd a2 22 db 3b
       -0.0010634995 -0.00550028 -0.07312982 0.006687478
0000f0 27 9b 01 3d 07 70 8d bb 6f 1b 77 bd 01 00 bd bb
       0.031642105 -0.004316333 -0.060328897 -0.0057678227
000100 07 00 a4 bd 1c b3 de b9 60 44 37 3b ac 87 2f bd
       -0.08007818 -0.00042476587 0.0027964339 -0.042853996
000110 4f d2 60 3b 8f 65 4b 3b 58 29 07 3c 32 ef 29 be
       0.0034305041 0.0031035875 0.008249603 -0.16595152
000120 41 57 d3 3c aa 72 53 bc df b6 95 ba 7e df 11 3b
       0.025798442 -0.012905756 -0.0011422298 0.0022258456
000130 09 b2 6b ba 4f 3c c7 bd 63 24 25 bb 64 ca ca 3b
       -0.0008991068 -0.097283 -0.002519869 0.0061886776
000140 6b f8 44 3c b0 3d 7e 3d 3a 92 7a 3d 9c 10 15 3c
       0.012022118 0.06207055 0.06117461 0.009098198
000150 ad 1e 83 3b 0f 7d d7 3c b9 b9 7a 3c 5f c0 ba bb
       0.0040014596 0.02630475 0.015303069 -0.005699202
000160 cf ba 1b 3b e6 7a 5e 3b d2 c4 a9 3c 22 8b a0 3d
       0.002376247 0.0033947765 0.020723734 0.078390375
000170 e0 77 df 3d fa 14 4d 3c fb f5 08 be 90 f6 02 bb
       0.10911536 0.012517208 -0.13375084 -0.0019983388
000180 3c 6f cd bb 58 7f 14 bc 59 8b d8 3d 9a 23 0f 3c
       -0.0062693637 -0.009063564 0.105734535 0.008736515
000190 f1 ae 32 3c 61 16 c4 bb 74 5a 94 bd 8b 7e e4 3a
       0.010905967 -0.005984113 -0.07243815 0.0017432732
0001a0 88 c2 5f ba 79 51 c8 3b 2b ad 8a bb 99 9b 8e 3a
       -0.00085357623 0.006113228 -0.004232069 0.0010880112
0001b0 59 bd 97 3b 9b 39 bd 3b 9a 95 56 3b 8b b3 f6 3d
       0.0046307263 0.0057746894 0.0032742978 0.12045964
0001c0 1d 59 42 3b c0 b3 7f 3c 7a 04 37 3a df 2f 65 be
       0.0029655166 0.015606821 0.0006981563 -0.22381543
0001d0 9e 32 d0 ba da 01 44 bb 38 fe b7 3b 3f 3d 48 3e
       -0.0015884226 -0.002990833 0.005615022 0.19554614
0001e0 95 8a 14 3c 95 32 8d b6 a3 a9 16 3a c3 12 06 be
       0.009066244 -4.208016e-06 0.0005747324 -0.13093095
0001f0 b5 89 e2 bc 88 3c 67 b8 77 90 11 bd dc 58 1b 3c
       -0.027653554 -5.5131066e-05 -0.035538163 0.009481635
000200 67 a0 45 3d c3 da 5a bd 95 9d c7 3a 8f c9 e1 bd
       0.048248675 -0.053431284 0.0015229458 -0.110247724
000210 35 a8 42 bb d7 8d 0a bd 44 84 c4 b9 ff 04 aa bb
       -0.002970231 -0.033826675 -0.0003748258 -0.005188584
000220 0d 69 95 3d bd 46 0b bd ca 16 54 bc c9 e7 47 3b
       0.072954275 -0.03400301 -0.012944886 0.0030503145
000230 80 d4 a3 bc 9c cf 46 ba 3d 8b b2 3d 92 0f 5b 3b
       -0.019998789 -0.0007584037 0.08717964 0.0033426029
000240 ca 90 d0 bc 07 89 3f 3b 27 ca 26 3b b5 f6 c9 bc
       -0.025459666 0.0029225962 0.0025450082 -0.024653772
000250 35 89 0d ba bc ef a8 ba cc 3d a5 3b 50 f8 24 3a
       -0.00053991686 -0.0012888829 0.005042767 0.0006293105
000260 b0 2e 18 be ec 2c 00 bd a3 64 26 3c d2 0e b7 3d
       -0.1486156 -0.03129284 0.01015583 0.089383736
000270 2c 9f 43 3e 5f 6b 0b bc d4 8a 3e 39 7e 50 11 3b
       0.19103688 -0.008509486 0.0001817153 0.0022173221
000280 2c a9 94 3a e0 4c 27 3d 7b 9d b3 3a d4 b0 90 3c
       0.0011341921 0.040844798 0.0013703549 0.017662443
000290 9d 83 5c 3c 86 6d 2f be f0 1f ac b8 92 a3 a2 3b
       0.013459113 -0.17131624 -8.207548e-05 0.0049633468
0002a0 ba 89 2c 3c 0d 8d 7f 3b 5b cc bd bd e0 b8 71 ba
       0.010530883 0.0038993985 -0.09267493 -0.0009220969
0002b0 12 76 d0 ba ae c6 51 3d 6f 6a 6a bd 4d 6b 70 bb
       -0.0015904328 0.051214866 -0.05723041 -0.003668505
0002c0 1f 02 bf bc c6 ff fa bd 9b 33 92 ba 73 ad 5b 3c
       -0.023316441 -0.12255816 -0.0011154296 0.013408053
0002d0 db dd 02 bc 27 bb b8 ba ca 8d 14 be 52 ba d0 b9
       -0.007987465 -0.0014093862 -0.14507213 -0.0003981167
0002e0 49 ed df bd 9d d9 cf bd a7 60 0e 3b f7 10 a8 3d
       -0.109339304 -0.10148928 0.002172509 0.08206361
0002f0 f1 62 9c bb 93 87 28 3e e3 7f 44 3e 18 07 f1 3b
       -0.004772537 0.16457967 0.1918941 0.007355582
000300 4f e9 3a bd 58 a9 e9 3b 9b e2 7e 3a 4f 51 b1 bc
       -0.045632657 0.007130783 0.0009723098 -0.021645216
000310 f9 2a c7 3a 32 ed 2f 3c de 93 01 ba 11 ba de 3d
       0.0015195302 0.010737704 -0.00049429934 0.10875333
000320 b0 98 05 bd 54 2d 8f 3c c1 de 63 3b e7 ee a8 3a
       -0.032616317 0.017477669 0.0034770223 0.0012888581
000330 2d 64 f7 3b b2 eb 4f be 5c d2 48 39 5a ec d7 ba
       0.0075497837 -0.20304754 0.00019151851 -0.0016473636
000340 64 20 d0 bb dd ba a2 bb c3 0e 6e ba 5f 97 3b 3d
       -0.0063515175 -0.0049661235 -0.0009081179 0.045798656
000350 31 98 c6 3b 29 bf 7c bd 15 bc 63 bc 9a 2b 2a 3c
       0.006060623 -0.061705742 -0.013899823 0.010386372
000360 7d f9 f8 ba a3 18 cf b9 43 f6 9d bc cb ac d8 3b
       -0.0018995252 -0.00039500472 -0.019282466 0.0066123954
000370 8d 33 81 3c 2c 46 db bc 2a a8 9b 3b ad 7c 1e bc
       0.015771652 -0.026766859 0.0047502713 -0.00967328
000380 35 d8 31 bd ff 8e dc 3a 00 8d c7 3e 29 ef 6a 3b
       -0.04341908 0.0016827284 0.38974762 0.0035848117
000390 8f 45 d1 3a c9 2b 19 bc ea f0 de 3d 72 cb e7 bc
       0.0015966165 -0.009348818 0.108857945 -0.028295252
0003a0 64 b1 9c 3d a8 2b 84 bd 99 05 54 3b ba b7 7e 3c
       0.07651022 -0.06453639 0.003235197 0.0155467335
0003b0 4e dc dd bb fd ae d6 ba a1 da d2 bb db 3f a8 bb
       -0.006770647 -0.0016379055 -0.006434754 -0.0051345653
0003c0 ff 48 04 be 48 3c 25 be af 09 99 bc 2e b4 ba bd
       -0.12918471 -0.16136277 -0.018681375 -0.09116398
0003d0 3a d1 46 bb 3c a8 c6 b7 82 be 7e ba be a2 2e be
       -0.003033711 -2.368178e-05 -0.0009717719 -0.17054269
0003e0 4a 87 8d bd 34 49 f4 3b fb f4 5b bd 30 92 af b8
       -0.0691057 0.0074550156 -0.05370043 -8.37188e-05
0003f0 7e aa b9 3c a4 36 19 3d 8a 13 47 bd f1 0a 3c bd
       0.022664305 0.037405625 -0.04860262 -0.045908872

bias f4 [128]
000000 99 1d 2f bd f0 09 4d ad 59 b5 9d bc 8f 93 26 a7
       -0.042752836 -1.16551074e-11 -0.019251512 -2.311712e-15
000010 99 07 89 af 52 a1 c5 9f f7 2d 16 ad 25 7c 9c 2f
       -2.4925553e-10 -8.369963e-20 -8.536719e-12 2.8464445e-10
000020 7d 42 48 a2 a0 40 fe 31 b4 9f 21 3e 1e fc 54 3e
       -2.7140253e-18 7.39972e-09 0.15783578 0.207993
000030 bd 65 95 3e d0 4a 46 a9 8b 1e 7d 8b d1 0c c4 22
       0.29179183 -4.402972e-14 -4.8749006e-32 5.3139476e-18
000040 45 b4 d9 bc e4 4c 2a bb 17 ec 65 97 5b cc 18 9f
       -0.026575217 -0.0025985772 -7.429188e-25 -3.235629e-20
000050 3f b6 f7 ad 0c c1 74 b3 43 62 9c af 5f 18 97 ad
       -2.8161582e-11 -5.6986252e-08 -2.8446054e-10 -1.7177535e-11
000060 74 2c 11 bc 9f bc ca 9f f3 cb e7 b5 b8 26 18 be
       -0.008860696 -8.5862375e-20 -1.7270198e-06 -0.1485852
000070 8a ba 0d 20 74 de d4 bc 48 41 a2 3e 61 60 76 8c
       1.2004885e-19 -0.02598498 0.3169043 -1.8980154e-31
000080 bb 09 a4 36 e7 ec 12 9f fd 4b d9 8b 0c 3a 53 af
       4.8887136e-06 -3.1112664e-20 -8.3699694e-32 -1.921096e-10
000090 62 b7 b4 bd 6c e9 2d bc 4d 0a 88 ac e2 a4 99 b6
       -0.0882404 -0.010614734 -3.866496e-12 -4.57895e-06
0000a0 5d 56 29 bb 49 40 88 bd 47 14 86 3e b2 ca 71 a3
       -0.002583883 -0.066528864 0.26187345 -1.31075586e-17
0000b0 97 34 f5 a2 ea 14 43 3c 01 fd d5 bb 18 87 6d b7
       -6.6463065e-18 0.011906842 -0.0065304046 -1.4157755e-05
0000c0 d2 5a ec a6 fa 3a d8 a3 05 91 d5 ab b8 fd 7b b1
       -1.6400407e-15 -2.3443744e-17 -1.5174811e-12 -3.666953e-09
0000d0 7f cf 14 3e 56 12 02 8f 02 1f e1 b9 8e 78 b0 bc
       0.14532278 -6.413026e-30 -0.00042938447 -0.02154186
0000e0 6d 70 83 b8 d8 4e 10 ad 73 c7 78 ae b1 f9 0f bc
       -6.267508e-05 -8.202959e-12 -5.6565818e-11 -0.008787558
0000f0 e3 0e 92 b1 1e cd 08 97 c4 e7 4d ba 6e 87 d5 a5
       -4.2508517e-09 -4.4202864e-25 -0.0007854665 -3.704138e-16
000100 75 e7 67 bc 24 e5 19 b1 79 28 df bc a5 3a 9b a9
       -0.014154305 -2.2394682e-09 -0.027240979 -6.893556e-14
000110 5a 63 1a ad ee 77 95 3d da ce 96 a3 c8 f7 1b 3c
       -8.775947e-12 0.072982654 -1.6350638e-17 0.009519525
000120 56 6f d9 27 40 96 f0 bb 79 85 0f 93 e7 69 1b bc
       6.035031e-15 -0.00734213 -1.8114945e-27 -0.009485698
000130 a9 42 78 3e be ef 9f 19 eb fa 4a bc a5 bd e0 97
       0.24244179 1.6537046e-23 -0.012388925 -1.4523534e-24
000140 d3 66 50 bc e6 a7 50 97 59 b1 fa aa 8e 69 17 9f
       -0.012719828 -6.742034e-25 -4.453198e-13 -3.2062807e-20
000150 36 c8 55 b2 bc 38 0b ac 19 13 b8 9b 03 91 63 a8
       -1.24437545e-08 -1.9784582e-12 -3.0452588e-22 -1.2632476e-14
000160 04 76 d9 a8 46 ca 67 a4 0c b8 8a 9d 10 c0 db b1
       -2.414302e-14 -5.0261473e-17 -3.6718596e-21 -6.395574e-09
000170 f0 c5 e8 a6 91 54 e8 a5 a1 68 21 ad 94 32 2d b8
       -1.6151885e-15 -4.030289e-16 -9.175023e-12 -4.129352e-05
000180 12 76 22 b9 88 df 13 bc 82 2a df 3d 26 1a 4c 93
       -0.00015493509 -0.009025462 0.108967796 -2.5761312e-27
000190 5f 03 61 af d0 42 31 95 52 0a 35 bc 98 fc 16 b3
       -2.0464828e-10 -3.579757e-26 -0.011049824 -3.515433e-08
0001a0 84 f2 1c a6 a8 de c8 2d 44 23 c6 3e fc a6 26 3d
       -5.445204e-16 2.2836247e-11 0.3869878 0.040686592
0001b0 73 80 58 3c ea c2 73 9e 8d 09 74 9b c9 b6 77 a0
       0.013214218 -1.290462e-20 -2.0186293e-22 -2.0982192e-19
0001c0 a6 4c 9c b8 8a 48 ed a8 e4 7f 4c 3d b3 5e 10 3e
       -7.4529366e-05 -2.6343744e-14 0.049926654 0.14098625
0001d0 9f 61 31 a6 c2 67 1d b7 b4 74 1e bd 92 f0 7e b5
       -6.154151e-16 -9.382087e-06 -0.038685516 -9.497245e-07
0001e0 11 65 c2 bb f3 3b 01 a6 ea e4 6b bc 60 36 dc b3
       -0.005932458 -4.483711e-16 -0.014397839 -1.0254439e-07
0001f0 e8 3c 6a b0 11 10 88 a1 92 c1 27 88 a0 dd 33 ac
       -8.5215257e-10 -9.219971e-19 -5.0482275e-34 -2.5560457e-12

weight f4 [64, 128]
000000 d7 d9 37 3c b8 fd 1b 80 f2 35 17 3c 1f 94 93 a7
       0.011221371 -2.570576e-39 0.00922917 -4.096129e-15
000010 06 1d 1a aa e9 ab b7 9c 6e d7 5c ae 55 71 06 2f
       -1.3688017e-13 -1.2154362e-21 -5.021355e-11 1.2227493e-10
000020 fe 0b 06 00 63 5b 87 33 f2 c0 b8 3e b5 80 fe 3e
       5.55315e-40 6.3030505e-08 0.36084706 0.4970757
000030 78 be 63 be 33 1c 5d 90 f2 af 43 8a 73 6c bb 23
       -0.22240627 -4.360629e-29 -9.422e-33 2.032051e-17
000040 ab 13 80 bc c6 3d 89 38 50 bb 43 17 28 0c f7 1d
       -0.015634378 6.544175e-05 6.324432e-25 6.5392925e-21
000050 08 7a 02 2c 91 99 02 b4 3a 5c 08 ae 6c 7d 4b 80
       1.8541852e-12 -1.216306e-07 -3.1004734e-11 -6.932655e-39
000060 f9 73 75 3c a7 8b 8d 9e 3e 2e ea 34 a7 1c 0f 3d
       0.014981263 -1.4986715e-20 4.3619542e-07 0.034939434
000070 d6 b1 b1 1f ab 57 3c be 05 1a 60 be 98 44 3b 0a
       7.525662e-20 -0.18392818 -0.21884926 9.0166235e-33
000080 3c a4 6d b5 f8 b4 00 1e a2 2c 3f 80 a8 6f 2d 9e
       -8.852837e-07 6.813687e-21 -5.801647e-39 -9.181634e-21
000090 a2 6e 1c be a4 72 b4 3b f2 aa 9f 2a 1b 3a b9 35
       -0.15276578 0.0055068303 2.836269e-13 1.3800485e-06
0000a0 53 1c 6c 3a 7c 77 81 be eb e7 95 bc de 81 bb 20
       0.0009006906 -0.25286472 -0.018299064 3.176497e-19
0000b0 c4 ab 98 9a 13 6c 99 3b da e4 7c b8 70 70 31 2f
       -6.314323e-23 0.004682073 -6.0294617e-05 1.6138002e-10
0000c0 d2 a8 5f a7 19 50 a9 23 3f 06 1c 00 43 5d 3e a5
       -3.1038984e-15 1.835694e-17 2.573635e-39 -1.6511471e-16
0000d0 fd cf 31 3c b9 21 8d 0e 9b 23 f9 33 00 0c 05 bc
       0.010852811 3.4791657e-30 1.1601443e-07 -0.008120537
0000e0 c5 89 25 a8 b7 08 21 8f 79 85 fd aa 7d 9b a4 bb
       -9.189214e-15 -7.939591e-30 -4.5034443e-13 -0.0050234185
0000f0 86 01 6c 9b 26 5a 1c 80 38 c8 3f b5 c3 c5 17 25
       -1.9521955e-22 -2.603733e-39 -7.14444e-07 1.3164167e-16
000100 a4 39 07 3d 2e ea 81 30 ad 2a 89 3e e3 77 16 a9
       0.033013955 9.452543e-10 0.26790372 -3.3410676e-14
000110 78 d2 ca 17 12 00 02 bf 1c ca a7 22 75 5a 17 bc
       1.3107074e-24 -0.5078136 4.5479432e-18 -0.009237875
000120 73 b5 5a 28 91 ed 7d ba 29 ca 32 00 22 f8 07 3c
       1.21407765e-14 -0.0009686584 4.664296e-39 0.008298906
000130 63 19 e3 be 27 08 a4 98 28 86 4b 3b 15 14 38 80
       -0.44355306 -4.240124e-24 0.0031055305 -5.149992e-39
000140 b5 6a 85 3b d6 87 43 00 d3 d8 05 a9 62 7b 72 1e
       0.0040715584 6.201707e-39 -2.9719997e-14 1.2836888e-20
000150 70 99 00 ad cc 27 ba a7 51 41 ba 02 62 e7 2c 93
       -7.310028e-12 -5.166852e-15 2.7367733e-37 -2.1823533e-27
000160 ed 45 44 90 6e a4 56 9f 6c 1b 06 00 b8 6f 5d 32
       -3.8708053e-29 -4.5452276e-20 5.6085e-40 1.2889295e-08
000170 58 eb 06 00 73 47 10 a3 eb e1 25 aa 04 3e 17 80
       6.35438e-40 -7.821386e-18 -1.4733325e-13 -2.134463e-39
000180 59 02 f9 b2 4b 55 02 bb 3c 36 53 bd 02 4d ef 90
       -2.8988483e-08 -0.0019887264 -0.051565394 -9.438753e-29
000190 4e e5 59 ae 18 93 12 00 53 0c 31 b9 68 ff dd 39
       -4.954375e-11 1.705806e-39 -0.00016884627 0.00042342697
0001a0 73 b8 42 00 92 2b 4d ad 44 04 e9 3e 00 84 35 bd
       6.12731e-39 -1.1662575e-11 0.45511067 -0.044315338
0001b0 05 33 e9 3a 94 a4 17 1e c0 9c c2 99 69 e9 01 00
       0.0017791694 8.027907e-21 -2.012244e-23 1.75567e-40
0001c0 e0 53 26 00 36 f7 0a 83 a5 e0 6d be 7e d1 9f 3e
       3.519838e-39 -4.083834e-37 -0.23230226 0.31214517
0001d0 16 a5 f6 26 4e 57 60 b4 01 77 89 37 a2 e3 a1 33
       1.7114426e-15 -2.0893387e-07 1.6387088e-05 7.538553e-08
0001e0 a4 07 48 bb 44 48 10 26 6a 53 b8 b9 0c bc ce 34
       -0.0030522132 5.0057974e-16 -0.00035157363 3.8507312e-07
0001f0 9c cd 83 1a fd 27 14 80 e3 8f f3 82 ec 3c c5 2a
       5.451251e-23 -1.851055e-39 -3.5788228e-37 3.5036503e-13
000200 a0 20 f6 26 52 93 1e 80 5c 1e 0c 00 97 28 9d 11
       1.7078522e-15 -2.807913e-39 1.112917e-39 2.4795248e-28
000210 a6 b2 2d 80 80 68 3b 0c 29 43 5d 19 19 da 3f 98
       -4.196684e-39 1.4437403e-31 1.1438995e-23 -2.4796283e-24
000220 30 e8 26 80 ca 59 57 22 9f 81 69 a9 19 88 e0 a8
       -3.573042e-39 2.9185467e-18 -5.184882e-14 -2.4928019e-14
000230 c2 f9 ae a7 e8 51 a4 01 40 78 87 00 40 49 5a 0f
       -4.856549e-15 6.0361615e-38 1.244093e-38 1.0762337e-29
000240 60 e3 f1 23 dc d2 5d 00 58 f4 05 84 11 b3 34 06
       2.622557e-17 8.616343e-39 -1.5746272e-36 3.3985795e-35
000250 bc c4 ab 97 b7 76 ce 1e d2 27 fe 18 fa d5 ad 82
       -1.1100279e-24 2.1860198e-20 6.569767e-24 -2.5542882e-37
000260 30 2c 36 24 a4 05 ef 86 80 26 bb 1b 40 f9 b1 a9
       3.9502387e-17 -8.9910096e-35 3.0961435e-22 -7.903617e-14
000270 ab 8b 18 06 69 9b 05 28 71 a2 73 a8 d4 45 bc 81
       2.8690634e-35 7.416682e-15 -1.3524434e-14 -6.916049e-38
000280 d0 74 6d 1b 1c 38 2a 0a f8 6f cc 00 ed e4 9a 14
       1.9641925e-22 8.195755e-33 1.8774608e-38 1.5640321e-26
000290 4b 83 11 a6 e5 17 41 82 7f f3 82 18 fc 67 5d 20
       -5.0484916e-16 -1.4186258e-37 3.385008e-24 1.8753834e-19
0002a0 60 ef 26 01 b3 c3 9a a7 2b f2 e4 a8 3a 7f 88 10
       3.0661128e-38 -4.2955764e-15 -2.5418109e-14 5.3838565e-29
0002b0 10 f1 33 01 80 04 93 a8 66 17 2f 26 2f aa 1b 24
       3.3050061e-38 -1.632223e-14 6.074703e-16 3.375442e-17
0002c0 63 9c 74 95 5b 43 31 90 1e 85 b7 01 3a 4d 7e 02
       -4.9398775e-26 -3.4958984e-29 6.7414597e-38 1.8683136e-37
0002d0 b7 9a 69 a7 f0 89 27 00 1a 65 f9 19 b0 dc 02 00
       -3.2419117e-15 3.631067e-39 2.5786831e-23 2.62839e-40
0002e0 40 80 33 80 38 a2 0e 80 a0 99 50 01 d0 ab 15 80
       -4.729618e-39 -1.34389e-39 3.8313787e-38 -1.99018e-39
0002f0 04 ae 2c 82 f8 6f 0f 00 99 87 6f 1b 2b ac 12 10
       -1.2686504e-37 1.417699e-39 1.981343e-22 2.8926056e-29
000300 2d af 94 1e e4 e9 76 81 07 50 2f 29 c3 03 89 93
       1.574256e-20 -4.5350872e-38 3.892722e-14 -3.458737e-27
000310 3c 54 b1 01 cf 13 83 a9 76 85 11 09 4c 79 dd a7
       6.51404e-38 -5.821005e-14 1.7516493e-33 -6.1471332e-15
000320 6c ab 2b 02 80 5d e8 01 a2 36 33 80 e8 31 b5 80
       1.2612292e-37 8.5357506e-38 -4.703209e-39 -1.6640128e-38
000330 5a af ea a7 83 13 8e 02 e0 2c 46 01 36 47 97 01
       -6.5138163e-15 2.0876224e-37 3.6399053e-38 5.557082e-38
000340 a0 c0 7c 00 58 b8 0a 00 d4 e1 f0 81 59 04 b3 0b
       1.1456702e-38 9.84485e-40 -8.8486124e-38 6.8954834e-32
000350 5b 01 0a 00 51 cf bb 92 ff 7e 38 02 8b dd 15 82
       9.18841e-40 -1.1852467e-27 1.3554631e-37 -1.1010371e-37
000360 1a 3c 14 02 f6 c1 0b 02 80 e4 40 80 3e 6f bd 98
       1.0890571e-37 1.0267771e-37 -5.959442e-39 -4.896768e-24
000370 34 ad ce 01 04 0d 31 02 df df b4 81 cc f3 82 81
       7.5920983e-38 1.3007642e-37 -6.6442796e-38 -4.810429e-38
000380 05 5d 01 a1 8d 64 06 9e 22 70 36 28 8c db 58 81
       -4.383001e-19 -7.114694e-21 1.01273445e-14 -3.9830451e-38
000390 68 82 37 01 d0 67 52 81 1c b0 32 00 0a 85 be 01
       3.3705353e-38 -3.864539e-38 4.654951e-39 6.998588e-38
0003a0 62 2c 30 00 be 09 e5 10 4a be ec 28 a8 3b ec a7
       4.424025e-39 9.0339584e-29 2.6283788e-14 -6.556784e-15
0003b0 a0 a1 b0 a6 7b d7 ff 87 5d da 5e 07 36 de f3 81
       -1.2256262e-15 -3.8494784e-34 1.6765595e-34 -8.958296e-38
0003c0 c0 6f 2b 82 7b f9 0d 82 77 0d e6 a9 df 74 0b a9
       -1.2595167e-37 -1.0430641e-37 -1.02163876e-13 -3.096557e-14
0003d0 f0 7d 8a 92 00 ee b0 81 09 dd 08 28 b6 6b 59 13
       -8.74007e-28 -6.49937e-38 7.597446e-15 2.7442356e-27
0003e0 d0 62 79 80 9a dc b8 93 b8 33 0b 1f 00 a4 11 1e
       -1.1147542e-38 -4.666566e-27 2.9477176e-20 7.7101505e-21
0003f0 32 5b 89 02 b7 1e 3f 82 a2 c5 93 01 72 53 eb 96
       2.0182684e-37 -1.4041279e-37 5.428286e-38 -3.801896e-25

bias f4 [64]
000000 ae 78 9f 3d 1c 97 21 a9 09 d8 cf a9 c4 c0 a6 9e
       0.0778669 -3.5880248e-14 -9.230123e-14 -1.765566e-20
000010 78 49 90 3c 30 0e ca 3d 32 7d 80 33 89 e7 9a 3c
       0.017613158 0.09865987 5.9832374e-08 0.018909233
000020 3e 1c 02 3e b7 b3 bb 3d a4 34 ba 38 f8 d8 61 3d
       0.12706086 0.09165137 8.878976e-05 0.05513856
000030 b5 66 4e bb b8 fe ad 3d ef fe f5 3d 9c c3 b9 3c
       -0.0031494324 0.08495849 0.12011515 0.022676282
000040 8b 44 93 3d 24 9f 0f 3e 0e 63 75 38 c6 8a c8 3d
       0.07190808 0.14025551 5.8504804e-05 0.09792094
000050 77 ca 1e 3d b6 67 ea bb 79 19 1c 00 c1 4d 91 ab
       0.038767304 -0.0071534766 2.580532e-39 -1.0324451e-12
000060 3d bb 99 3d a4 c5 da a9 ba 2f 88 3d 7b b2 f9 3d
       0.07506416 -9.71543e-14 0.06649728 0.121922456
000070 dc 4b bf 3d 20 47 06 3d d0 cf 65 01 79 60 10 3b
       0.09340641 0.032782674 4.2209755e-38 0.0022030158
000080 8d 5f f2 9c 58 64 38 b8 16 d4 22 3e 35 d1 d6 b7
       -1.6038916e-21 -4.396247e-05 0.15901217 -2.5608208e-05
000090 59 52 a9 ba 21 d3 65 ab fe 20 a6 3c a8 af c6 1e
       -0.0012918218 -8.1650143e-13 0.020279404 2.1036715e-20
0000a0 6a 32 e3 3c 2d 76 4e ad 5a ea bc b6 43 ab 2d 24
       0.027734 -1.1735985e-11 -5.6301187e-06 3.765846e-17
0000b0 29 e2 51 ac bb 17 49 3d 4d 75 e8 ab e7 5b 46 8c
       -2.982623e-12 0.049094897 -1.6517149e-12 -1.5281021e-31
0000c0 10 8f 4f 3e 8a d9 81 95 61 72 fc 3c aa dd 92 3d
       0.20269418 -5.24459e-26 0.030816259 0.07171185
0000d0 34 bb c4 0b e6 4a f5 3d 34 cf 61 3c a8 ba a5 3c
       7.5778126e-32 0.11977176 0.013782311 0.020230606
0000e0 30 de db bc cd 42 ab 3d 5e cb 11 3c 26 d7 70 a5
       -0.026839346 0.083623506 0.008898584 -2.0889577e-16
0000f0 45 22 b7 3d 1e 93 77 3d 87 9d ef 3d 31 06 ad bc
       0.08942083 0.060443036 0.11699968 -0.021121116

weight f4 [6, 64]
000000 ac d9 a8 be 12 14 8a 26 3e cf d6 28 ea 45 38 1c
       -0.3297857 9.581114e-16 2.384865e-14 6.0970855e-22
000010 2f 0c 19 3f 33 1f 11 3f ca 0d 08 b4 46 60 4c bd
       0.59784216 0.5668823 -1.2671003e-07 -0.0498965
000020 22 b0 94 be 75 b8 7e be 31 b5 5a 38 ba aa 8b be
       -0.2904063 -0.24875052 5.2143998e-05 -0.27278692
000030 11 b3 99 3e 9c 95 01 bf 55 06 00 bf 66 76 74 bd
       0.3001943 -0.5061891 -0.5000966 -0.059683226
000040 8b bc 6c be b3 cc c9 be c2 d1 2f 39 69 e0 d2 be
       -0.23118798 -0.39413986 0.00016767441 -0.41186836
000050 e7 4b 00 be 70 14 35 3f 57 65 09 80 16 14 37 b8
       -0.12528954 0.7073431 -8.62873e-40 -4.3649306e-05
000060 66 25 26 be 57 1f ba ad 21 77 14 3e 6b e0 84 3f
       -0.16225204 -2.115967e-11 0.14498569 1.0380987
000070 9e dd 9f be 7c f4 46 be 50 5c 8c 20 ba 00 04 be
       -0.31223768 -0.19429201 2.377801e-19 -0.12890902
000080 34 68 89 9e 76 6c 5a b9 7d 97 ae be 6c 91 72 37
       -1.4548537e-20 -0.00020830505 -0.3409995 1.4458183e-05
000090 e9 6f a9 be b6 43 7e ac de b3 68 bd ab 5f b6 1d
       -0.33093193 -3.6133158e-12 -0.05681216 4.8273917e-21
0000a0 5b 48 4e 3f 8f 2a c1 b8 d6 db 08 ba 53 76 43 22
       0.80579156 -9.210884e-05 -0.00052207464 2.6490068e-18
0000b0 b8 0f 91 aa df f0 1b be 9f a8 8f ac e1 e7 48 0c
       -2.576808e-13 -0.15228604 -4.083025e-12 1.5477218e-31
0000c0 c6 1e 18 bf 6c 70 3f 96 f2 21 c4 bd bd ea e6 be
       -0.59421957 -1.5464331e-25 -0.09576787 -0.45100966
0000d0 88 76 6c 0b b0 65 a8 be f2 3b 4c be d3 e8 c8 be
       4.554112e-32 -0.3289008 -0.19944742 -0.3924013
0000e0 4e 21 ee be 1c fe 04 bc d7 48 6a 3f da 2d 5d 38
       -0.46509784 -0.008117225 0.91517395 5.273321e-05
0000f0 07 9f 44 3f 58 77 82 be f2 8f 78 3f c0 03 8c be
       0.76805156 -0.25481677 0.97094643 -0.2734661
000100 4e 76 b0 be 19 33 18 26 52 de 1e ab a1 b5 92 9d
       -0.3446526 5.2804844e-16 -5.644141e-13 -3.883368e-21
000110 37 97 a4 bd f2 85 da be 01 37 f4 34 5c 23 60 bd
       -0.080366544 -0.42680317 4.5488562e-07 -0.05472122
000120 e0 de 8f be ea 79 42 be 26 c1 8b 36 4f 1d bd 3e
       -0.28099728 -0.18991819 4.1650082e-06 0.36936423
000130 cd 6c 90 bd ff 62 49 3f 71 cb 04 bf 79 c3 9f bd
       -0.07052002 0.7866668 -0.51872927 -0.07800955
000140 14 06 5b be 86 0d 9a be a1 6a a9 b9 ee 2f db be
       -0.21389037 -0.30088443 -0.00032313637 -0.42810005
000150 26 6f ed bd 84 61 2a be 09 2a 45 2d 37 25 6a b7
       -0.115934655 -0.16638762 1.1207487e-11 -1.3956152e-05
000160 c7 e5 2a be 8f be a6 1d ba 6c 64 be 95 e5 19 bf
       -0.16689216 4.4136867e-21 -0.22307101 -0.6011594
000170 90 8f 88 be 91 5b 4f 3e da 9b 9e 96 5b 71 8c 3e
       -0.2667203 0.20249774 -2.5624633e-25 0.27430233
000180 54 2c 46 1f 64 87 3a b8 a0 6b a0 be d4 a0 2f b7
       4.1964798e-20 -4.4471948e-05 -0.3133211 -1.0468259e-05
000190 2f 5b 33 3f d4 30 05 ab 17 30 74 bd a4 52 6e 1b
       0.7006101 -4.7318855e-13 -0.059616175 1.9713601e-22
0001a0 5b 0a 08 3e 4e be 36 39 02 68 26 ba ff b9 fa 23
       0.132852 0.00017427767 -0.0006347896 2.7183827e-17
0001b0 c7 84 7f af dc 29 1e be f2 b2 8c 2b 28 2b 19 8c
       -2.3239287e-10 -0.15445656 9.997266e-13 -1.1799678e-31
0001c0 0b a9 1a bf e6 ed 00 16 04 61 bd bd 4e 6b 03 3f
       -0.6041419 1.0414825e-25 -0.0924702 0.5133561
0001d0 0e de b4 8b 89 a6 7c be e8 56 79 3e 36 cc 1a 3f
       -6.966759e-32 -0.24672903 0.24349558 0.6046785
0001e0 d0 6a b3 3f 17 37 80 be c8 e6 bb 3e bd 42 09 b4
       1.4016972 -0.2504203 0.3669951 -1.2783399e-07
0001f0 e1 8a ba be 33 91 89 be 71 50 f3 be 78 56 54 3f
       -0.3643408 -0.2686859 -0.4752231 0.8294444
000200 7b 6c 8b 3f 74 6e 32 26 7b 3b 60 ab 88 e6 1d 9e
       1.0892481 6.190585e-16 -7.966333e-13 -8.3591835e-21
000210 93 58 95 3d 3f ee 84 be ee e4 72 b3 48 bb 1f bc
       0.07292285 -0.25963017 -5.6553226e-08 -0.009749241
000220 f0 b9 0a be 7c 8f 1f be 67 a3 94 38 58 e4 15 be
       -0.13547492 -0.15582079 7.087626e-05 -0.14637887
000230 4f ba 2f bd 94 83 86 be 08 d8 d2 3f 3b 58 5c bd
       -0.042902287 -0.2627226 1.6472178 -0.05379508
000240 42 b6 3d be 85 67 70 be 3a 3a 81 b7 7d c5 ad 3f
       -0.18526557 -0.2347699 -1.5405112e-05 1.3575894
000250 5f 98 b1 bc 15 cb e4 bd 05 54 03 80 a5 e7 8c 23
       -0.021679102 -0.11171547 -3.05647e-40 1.5276936e-17
000260 a2 00 91 bd 85 f0 28 00 24 16 5c be 6a d5 bd be
       -0.07080199 3.759702e-39 -0.21492821 -0.37076885
000270 f2 10 81 bd df d9 ce bd 23 98 96 84 bb 27 a1 bd
       -0.0630206 -0.10100149 -3.5404546e-36 -0.07868906
000280 0c 15 be 9e 7d 94 0d 3a 45 81 4e be de a1 64 b7
       -2.0125737e-20 0.00054008496 -0.201665 -1.3627547e-05
000290 d1 4e 84 3e 9f 9e 2e 2c 27 43 23 bc 24 8f a0 9d
       0.25841382 2.481494e-12 -0.009964741 -4.249965e-21
0002a0 ae ca 35 3e 9f 84 e6 36 50 79 81 b9 3a bb df a3
       0.17753097 6.8699733e-06 -0.00024695182 -2.4257002e-17
0002b0 9b 2c ef 29 3d eb 00 be 0a d7 5f 2c f2 26 e0 0b
       1.062147e-13 -0.12589736 3.1809577e-12 8.634026e-32
0002c0 94 9e 59 be 9d b3 c4 13 75 f6 84 bc 36 b3 58 be
       -0.21251899 4.965447e-27 -0.016230801 -0.21162114
0002d0 68 34 4b 8b 59 18 51 be 16 ac f2 bd f6 4f 51 be
       -3.9135804e-32 -0.20419444 -0.11849229 -0.20440659
0002e0 40 73 a5 bd 25 01 65 be 8b 7b 2c 3e 04 71 a4 ad
       -0.08078623 -0.22363718 0.16844003 -1.869483e-11
0002f0 09 49 a7 be ae 5c 58 3f 10 53 da be d9 49 96 bd
       -0.3267291 0.8451642 -0.42641497 -0.07338304
000300 bf f2 38 be 72 b3 fc a5 dd ff 4b ab 67 83 86 9e
       -0.1806135 -4.3836628e-16 -7.247517e-13 -1.4242149e-20
000310 6c ac 26 be 36 a2 6e be 61 6e a8 b3 bb ca d1 bc
       -0.16276711 -0.23304066 -7.8431874e-08 -0.025609365
000320 ec cb 9b be 05 71 d8 3e b6 b9 c0 38 80 dd 9a be
       -0.30429018 0.42273727 9.189865e-05 -0.30247116
000330 60 f5 97 bd d9 e2 07 bf 03 cb 8c be 68 8a c7 3e
       -0.074198484 -0.5308052 -0.27498636 0.38972783
000340 c6 0a a4 3f 99 e9 06 3f 63 55 11 b8 ee 71 67 be
       1.2815788 0.5270019 -3.4650217e-05 -0.22602054
000350 b7 5f 8c bd ec 84 2a be 4a de 37 00 b0 cb 25 35
       -0.06854194 -0.16652268 5.130695e-39 6.1763694e-07
000360 a4 8a 2f be d2 89 6e b6 0f 05 6a 3f 5b 12 d4 be
       -0.17142731 -3.5544986e-06 0.9141397 -0.41420254
000370 7f b8 2e be 2a f5 01 be be 1a 1a 0b 65 35 a0 bd
       -0.17062567 -0.12691179 2.967944e-32 -0.07822684
000380 38 02 bd 9d 76 7f 8c 39 19 76 94 be 01 b1 70 b7
       -5.0030178e-21 0.00026797847 -0.2899635 -1.4346327e-05
000390 52 36 38 be 68 2a 37 2c b7 36 f8 bc 34 35 8f 1d
       -0.17989472 2.6029404e-12 -0.030299528 3.7906796e-21
0003a0 0f 18 9e be 4b 32 cb 31 83 be cc 38 76 a5 c4 a3
       -0.3087773 5.9137952e-09 9.7629636e-05 -2.1320438e-17
0003b0 a0 7d 2b 2e 28 2c 60 3f 6a 69 e4 2b 9f e8 8e 0a
       3.8992476e-11 0.8756738 1.6229633e-12 1.3761605e-32
0003c0 12 42 41 3f b7 96 c0 95 37 10 57 bd 7d 12 97 be
       0.7549144 -7.778597e-26 -0.052505698 -0.29506293
0003d0 af 90 7d 8a 95 7c 01 3f 50 92 aa 3e 9f df f3 3e
       -1.2208719e-32 0.5058072 0.33314753 0.47631547
0003e0 84 55 90 be 80 85 a0 3f b1 7a c9 be 44 0a d3 36
       -0.28190243 1.2540741 -0.3935142 6.289485e-06
0003f0 19 5c b2 be cc d9 0e be ef a2 e7 be dd 0b 15 be
       -0.3483589 -0.1395027 -0.45241496 -0.14555307

bias f4 [6]
000000 c1 aa de bc c6 9d 83 bd 16 80 26 3c 6d 46 79 3c
       -0.027181031 -0.06426577 0.010162374 0.015214545
000010 42 19 0e 3d 4f a4 00 3d
       0.034692056 0.031406697
