MLP/MLP_network_bs_32_epoch_1000_lr_small_01.pkl (torch_old, 211408 bytes, 8 tensors)

weight f4 [256, 38]
-0.0053025056 0.007378333 -0.09869174 0.20939974 0.17990957 -0.0015549298 -0.09375498 0.08333197
0.2379647 0.2594954 -0.30459344 0.023000676 -0.30668285 -0.24480298 0.16362344 0.10067992
0.24416493 -0.045366447 0.22385886 0.34907845 -0.08675851 -0.16395286 0.14058742 -0.24649423
0.21224824 -0.22345424 0.18180528 0.20997553 0.025534179 -0.13820106 -0.08370905 0.040264726
0.040031582 -0.08584982 -0.20997581 0.088380784 -0.008994375 0.14713264 -0.10946386 -0.0508212
-0.009645842 -0.3570217 -0.26678044 -0.09251615 0.0024859128 0.01758461 -0.09250788 0.2383984
0.19807959 0.118129775 0.0035528052 -0.08416392 -0.19456227 0.017725004 0.26880553 -0.108838156
0.047282565 0.20957753 -0.14557908 -0.26099798 -0.39422485 -0.13621955 0.07120154 -0.05735054
0.08393426 0.1612794 0.20300248 -0.24157447 -0.34614572 -0.14866883 0.025167432 0.09705409
-0.049149826 0.0638721 -0.17476165 -0.04263629 -0.29892135 -0.16116196 -0.19970128 0.22899555
-0.24449934 -0.28533894 -0.26574507 0.37431005 -0.10706511 0.24946229 -0.06584086 -0.20169845
0.3275784 0.11596912 -0.14638543 -0.00531098 0.11037261 -0.12116859 0.005385619 -0.1541098
-0.1813991 -0.2658573 -0.06807731 -0.01846226 -0.2628017 0.013644431 -0.28110626 -0.19697313
-0.08706096 -0.16808744 0.0038682246 0.1730408 -0.022699466 -0.10239134 -0.1132674 0.040475618
-0.028497027 -0.20869838 0.06008444 0.41241685 0.24211077 0.044704217 0.2786937 -0.121981874
0.27269948 -0.10892444 -0.33378628 -0.17654954 0.03929604 0.10059383 0.014821855 -0.25620034
0.45566517 0.023798391 0.060645215 -0.07849395 0.0011572716 0.20052215 -0.21528856 0.18262611
0.056958333 0.18226673 0.13447244 0.0015480084 -0.03672483 0.11574041 -0.14837208 0.11244554
-0.134726 -0.26905096 0.011364002 0.23518609 -0.09648387 0.09431789 0.0029728238 -0.087477446
0.061206374 0.10832038 -0.03516451 -0.074414805 -0.1611674 0.23471221 0.21245141 0.06740083
0.058291208 -0.048885155 -0.12761731 -0.012668201 -0.66206396 -0.16176413 -0.5468593 -0.17721035
-0.18705201 0.2589523 0.029455056 -0.20445397 -0.106410116 -0.17897263 0.12984091 -0.08104034
0.39670086 -0.050496645 0.07328495 0.33227158 0.06958575 0.0426704 -0.06898717 -0.12171402
-0.2104876 -0.15194996 -0.099453405 0.0643882 -0.061659336 0.07532739 -0.06266062 0.29086325
-0.02585221 0.14839691 0.056155782 0.10799329 -0.1233155 0.066966295 -0.102592796 -0.29507685
0.10156621 0.0062061558 -0.15579873 0.12942265 -0.014128987 0.30444735 0.12760556 0.14376174
0.1382206 -0.22893043 0.23031263 0.10176672 -0.032499902 0.098040044 -0.07078358 0.12619545
0.11815219 -0.11780441 -0.18651369 0.10086424 0.011983803 -0.118399166 0.11553064 0.110949814
-0.04132367 0.16379811 0.06902096 -0.11061994 -0.19203873 0.1645823 0.045035034 -0.036929574
0.19121307 0.1765368 -0.0578271 -0.17754176 0.06473953 -0.07349583 -0.18543175 0.053733166
0.021486564 -0.0040001394 0.2564743 -0.026942922 -0.0857069 0.014948359 -0.123814255 -0.3536474
0.17536901 -0.16746241 0.1970819 0.1480277 -0.38844755 0.20748664 -0.013364625 0.019978177
00000000: a4c0 adbb f1c5 f13b e51e cabd e36c 563e
00000010: 373a 383e c9ce cbba 9c02 c0bd f4a9 aa3d
00000020: 05ad 733e 95dc 843e acf3 9bbe ea6b bc3c
00000030: 8905 9dbe a2ad 7abe e78c 273e 4631 ce3d
00000040: 5f06 7a3e 2bd2 39bd 423b 653e 69ba b23e
00000050: 72ae b1bd 42e3 27be 26f6 0f3e fc68 7cbe
00000060: 9a57 593e 30d1 64be 2a2b 3a3e d303 573e
00000070: 0e2d d13c 9484 0dbe a76f abbd a0ec 243d
00000080: 28f8 233d 08d2 afbd e603 57be fc00 b53d
00000090: 255d 13bc f0a9 163e 972e e0bd e429 50bd
000000a0: 9809 1ebc 8ccb b6be 7297 88be 1b79 bdbd
000000b0: b2ea 223b 9a0d 903c c574 bdbd b61e 743e
000000c0: 60d5 4a3e 06ee f13d 2ed6 683b 225e acbd
000000d0: 553b 47be 0734 913c e1a0 893e 8ae6 debd
000000e0: 5dab 413d 7e9b 563e af12 15be 87a1 85be
000000f0: d7d7 c9be 237d 0bbe 1dd2 913d 66e8 6abd
00000100: bae5 ab3d 6d26 253e e2df 4f3e 4c5f 77be
00000110: 033a b1be a43c 18be ee2b ce3c 4bc4 c63d
00000120: 5451 49bd 60cf 823d b8f4 32be 64a3 2ebd
00000130: 380c 99be a407 25be 7e7e 4cbe cf7d 6a3e
00000140: 095e 7abe f217 92be bd0f 88be 91a5 bf3e
00000150: f444 dbbd 0b73 7f3e 93d7 86bd 0a8a 4ebe
00000160: 5bb8 a73e 3881 ed3d 10e6 15be bb07 aebb
00000170: 090b e23d 3d27 f8bd d979 b03b f6ce 1dbe
00000180: b0c0 39be 731e 88be 1e6c 8bbd 2a3e 97bc
00000190: f28d 86be e48c 5f3c 29ed 8fbe 53b3 49be
000001a0: 044d b2bd 1d1f 2cbe 0a82 7d3b 9c31 313e
000001b0: 3bf4 b9bc 8db2 d1bd bdf8 e7bd c3c9 253d
000001c0: 9972 e9bc 07b5 55be 1a1b 763d 4d28 d33e
000001d0: e3eb 773e c51b 373d f1b0 8e3e a2d1 f9bd
000001e0: 449f 8b3e c713 dfbd 09e6 aabe 67c9 34be
000001f0: e2f4 203d 2304 ce3d 5ed7 723c b12c 83be
00000200: f24c e93e d8f4 c23c 1e67 783d 70c1 a0bd
00000210: 97af 973a ae55 4d3e 9b74 5cbe 5702 3b3e
00000220: 244d 693d 21a4 3a3e 25b3 093e 8be6 ca3a
00000230: c66c 16bd 4f09 ed3d daee 17be d949 e63d
00000240: 9df5 09be 0cc1 89be 1430 3a3c 9fd4 703e
00000250: 5699 c5bd bd29 c13d b5d3 423b 6027 b3bd
00000260: 89b3 7a3d 13d7 dd3d a908 10bd ca66 98bd
00000270: 1109 25be 6658 703e dd8c 593e 7209 8a3d
00000280: c3c2 6e3d cd3b 48bd 1dae 02be 498e 4fbc
00000290: 067d 29bf 7fa5 25be f9fe 0bbf a176 35be
000002a0: 908a 3fbe 6595 843e bb4b f13c 625c 51be
000002b0: 8ced d9bd 9a44 37be 04f5 043e 7af8 a5bd
000002c0: 601c cb3e 92d5 4ebd 6b16 963d 801f aa3e
000002d0: f982 8e3d 28c7 2e3d 2549 8dbd 3345 f9bd
000002e0: 108a 57be c598 1bbe 3aae cbbd f6dd 833d
000002f0: 808e 7cbd 3f45 9a3d 3654 80bd 07ec 943e
00000300: 04c8 d3bc 5cf5 173e 9b03 663d 962b dd3d
00000310: d68c fcbd a025 893d 2c1c d2bd 5014 97be
00000320: f201 d03d 025d cb3b b489 1fbe 5f87 043e
00000330: 447d 67bc 86e0 9b3e 08ab 023e 4736 133e
00000340: b389 0d3e bd6c 6abe 13d7 6b3e 126b d03d
00000350: 9e1e 05bd 38c9 c83d fbf6 90bd 6139 013e
00000360: c7f9 f13d 7043 f1bd 72fd 3ebe e991 ce3d
00000370: b657 443c 437b f2bd 549b ec3d a839 e33d
00000380: 0243 29bd b1ba 273e dc5a 8d3d b58c e2bd
00000390: cda5 44be 4388 283e a876 383d 7743 17bd
000003a0: 5ccd 433e 10c6 343e 1cdc 6cbd 82cd 35be
000003b0: 2996 843d fb84 96bd d2e1 3dbe 4f17 5c3d
000003c0: 9704 b03c 9a13 83bb 9950 833e 67b7 dcbc
000003d0: 1987 afbd f6e9 743c 5492 fdbd 4611 b5be
000003e0: ef93 333e 447b 2bbe d6cf 493e 9394 173e
000003f0: 99e2 c6be 6177 543e 4df7 5abc 46a9 a33c

bias f4 [256]
-0.1942788 -0.25459436 -0.3331231 -0.29500863 -0.22326413 -0.29532045 -0.40607193 -0.27509078
-0.17765926 -0.1902522 -0.17745003 -0.37647232 -0.24909726 -0.077776395 -0.5124092 -0.4327434
-0.39157462 -0.40561828 -0.40926793 -0.20989491 -0.39298394 -0.40691504 -0.28612077 -0.18335806
-0.13168018 -0.35093465 -0.32712284 -0.07154831 -0.12971452 -0.052578323 0.0883592 -0.5081845
-0.22619158 -0.35940883 -0.56105345 -0.3316706 -0.32629994 -0.34963202 -0.43961197 -0.09633925
-0.029175837 -0.2699358 -0.40682957 -0.36533985 -0.14756271 -0.28631872 -0.22059608 0.058369264
0.059510153 -0.05550125 -0.19414158 -0.24405701 -0.017090147 -0.572514 -0.11123445 -0.3836767
-0.22702873 -0.5580628 0.050585546 0.13869745 -0.0066836523 -0.17790313 -0.08470292 -0.04830303
-0.10786416 -0.11370048 -0.20455667 -0.14035153 -0.4319083 0.01188229 -0.0459796 -0.15394014
-0.10776083 -0.2554216 -0.33617604 0.027485121 -0.1588882 -0.08971981 -0.3879898 -0.046433967
-0.1871482 -0.293906 -0.24798614 -0.24145043 -0.29820016 -0.044433814 -0.34110525 -0.114317216
-0.39936796 -0.039895996 -0.21578777 -0.38099408 -0.22172128 0.061017018 -0.41744113 -0.314615
-0.24444844 -0.35376295 -0.12332872 -0.34505504 -0.2302828 -0.23248698 -0.4069146 -0.22037512
-0.17237261 -0.5475251 -0.37553775 -0.1765947 -0.0028513407 -0.5228812 -0.08952352 -0.035363846
0.22055416 -0.39506698 -0.26022688 -0.10044773 -0.52550334 -0.012472481 -0.021006102 -0.24619067
-0.09025082 -0.20216243 -0.04521114 -0.24845333 -0.09533269 -0.32277146 -0.2676574 -0.20704894
-0.27161035 -0.23425855 -0.14003558 -0.58916473 -0.31347945 -0.38666233 -0.41744173 -0.030883938
-0.120571844 -0.2871789 -0.2880049 -0.17077358 -0.23805414 -0.56635743 -0.16810302 -0.17465751
-0.021470226 -0.27217108 0.025759833 -0.13301595 -0.27835676 -0.4118012 -0.5289234 -0.035085432
-0.3323711 -0.26925078 -0.13325341 -0.25534728 -0.41135958 -0.033853833 0.009044277 -0.3475756
0.01650817 -0.0726139 -0.18936169 -0.47285005 -0.15182258 -0.41737607 -0.2192955 -0.32747054
-0.21226582 -0.42625257 -0.22736461 -0.21156761 -0.15302466 -0.22518371 -0.29258174 -0.096548155
-0.16480504 -0.30044878 -0.06707591 -0.4438762 -0.42040196 -0.334614 -0.18976407 0.014009237
-0.1392367 -0.0063857175 -0.095919 -0.22417858 -0.28643572 -0.0824072 -0.21530554 -0.2092149
-0.29189572 -0.2852324 0.011939444 -0.30848977 -0.31518838 -0.45846424 -0.48534268 -0.2215185
-0.3523354 -0.46780235 -0.44522935 -0.334477 -0.35469097 -0.072281405 -0.095884874 -0.35202828
-0.16333668 -0.17537145 -0.26229787 -0.23620597 -0.21219519 -0.36519402 -0.23532201 -0.013201862
-0.08455833 -0.3721065 -0.28255948 -0.28258443 -0.2737518 -0.34453037 -0.2192178 -0.32929417
-0.31051803 -0.23335005 -0.27911595 -0.343423 -0.2212576 -0.3405557 -0.13106264 -0.23277959
-0.09923781 -0.50381446 -0.1486649 0.037686236 -0.034683403 -0.18251468 -0.24832089 -0.24091244
-0.051927365 -0.30876228 -0.27520654 -0.2705971 -0.3172223 -0.40100905 -0.3351029 -0.2586631
-0.23428322 -0.11049376 -0.11460212 -0.2916967 0.082411245 -0.44345033 -0.24729481 -0.40211722
00000000: 06f1 46be 315a 82be 1c8f aabe 5f0b 97be
00000010: 5a9f 64be 3e34 97be a9e8 cfbe b3d8 8cbe
00000020: 4fec 35be 79d1 42be 76b5 35be fbc0 c0be
00000030: 5a13 7fbe 3b49 9fbd 402d 03bf 8b90 ddbe
00000040: 787c c8be 33ad cfbe 918b d1be b1ee 56be
00000050: 3135 c9be 2b57 d0be 6c7e 92be 37c2 3bbe
00000060: 2bd7 06be b5ad b3be a57c a7be ec87 92bd
00000070: e2d3 04be 5e5c 57bd abf5 b43d 6118 02bf
00000080: c49e 67be 6f04 b8be 33a1 0fbf bbd0 a9be
00000090: c910 a7be f802 b3be d214 e1be 834d c5bd
000000a0: 2a02 efbc 0635 8abe f74b d0be d30d bbbe
000000b0: ae1a 17be 5e98 92be f0e3 61be 9c14 6f3d
000000c0: ebc0 733d 4755 63bd 0dcd 46be 15ea 79be
000000d0: a300 8cbc 4790 12bf e3ce e3bd 4671 c4be
000000e0: 387a 68be 34dd 0ebf ca32 4f3d b406 0e3e
000000f0: 8a02 dbbb 3d2c 36be b978 adbd 66d9 45bd
00000100: e2e7 dcbd ccdb e8bd 4e77 51be 50b8 0fbe
00000110: 1623 ddbe f0ad 423c 1b55 3cbd 7ca2 1dbe
00000120: b6b1 dcbd 9fc6 82be 441f acbe 7a28 e13c
00000130: 97b3 22be 05bf b7bd 99a6 c6be 8b31 3ebd
00000140: c7a3 3fbe d97a 96be 14f0 7dbe c83e 77be
00000150: b1ad 98be 3b00 36bd 59a5 aebe 251f eabd
00000160: f579 ccbe fc69 23bd 78f7 5cbe a811 c3be
00000170: e70a 63be fbec 793d d8ba d5be 3815 a1be
00000180: b150 7abe 6b20 b5be c593 fcbd 0eab b0be
00000190: 41cf 6bbe 1111 6ebe 1c57 d0be 04aa 61be
000001a0: 7282 30be 9b2a 0cbf 7c46 c0be 3ed5 34be
000001b0: 8fdd 3abb 8bdb 05bf 1b58 b7bd aed9 10bd
000001c0: f3d8 613e 3846 cabe 753c 85be 8ab7 cdbd
000001d0: 6387 06bf 6059 4cbc fd14 acbc 6819 7cbe
000001e0: 6cd5 b8bd ab03 4fbe 512f 39bd 8d6a 7ebe
000001f0: c93d c3bd 4d42 a5be 640a 89be a304 54be
00000200: 8310 8bbe 79e1 6fbe 7d65 0fbe 80d3 16bf
00000210: 6180 a0be 9bf8 c5be ecba d5be 5000 fdbc
00000220: 5fee f6bd 1d09 93be 6175 93be 45df 2ebe
00000230: 77c4 73be cdfc 10bf 3323 2cbe 6bd9 32be
00000240: 54e2 afbc 025a 8bbe 4906 d33c 5535 08be
00000250: c784 8ebe 9bd7 d2be 8667 07bf beb5 0fbd
00000260: 8b2c aabe 3ddb 89be 9573 08be e1bc 82be
00000270: b99d d2be 51aa 0abd 722e 143c 6ef5 b1be
00000280: 243c 873c 99b6 94bd 08e8 41be 6719 f2be
00000290: 6177 1bbe 51b2 d5be 008f 60be 38aa a7be
000002a0: 365c 59be c73d dabe 45d2 68be 2ea5 58be
000002b0: 7fb2 1cbe 8f96 66be 46cd 95be 0abb c5bd
000002c0: a7c2 28be 6cd4 99be 185f 89bd be43 e3be
000002d0: ed3e d7be 8752 abbe 8351 42be 0087 653c
000002e0: 1194 0ebe 483f d1bb 2e71 c4bd 128f 65be
000002f0: b4a7 92be 1bc5 a8bd 0e79 5cbe 6e3c 56be
00000300: 5b73 95be fb09 92be a89d 433c 5ff2 9dbe
00000310: 5f60 a1be d3bb eabe d67e f8be bfd5 62be
00000320: 4e65 b4be ca83 efbe 1af5 e3be 9240 abbe
00000330: 0e9a b5be 4608 94bd 4a5f c4bd 0d3d b4be
00000340: bb41 27be 9394 33be e84b 86be fadf 71be
00000350: b249 59be b6fa babe 41f8 70be 9f4c 58bc
00000360: eb2c adbd be84 bebe a3ab 90be e8ae 90be
00000370: 3229 8cbe 4966 b0be a27a 60be 3f99 a8be
00000380: 38fc 9ebe 51f3 6ebe 49e8 8ebe 24d5 afbe
00000390: 5a91 62be 515d aebe 4935 06be c65d 6ebe
000003a0: 313d cbbd fcf9 00bf 9d3b 18be e25c 1a3d
000003b0: 2f10 0ebd 21e5 3abe d547 7ebe c0b1 76be
000003c0: cab1 54bd 1716 9ebe dfe7 8cbe b48b 8abe
000003d0: f66a a2be 0f51 cdbe 9b92 abbe 7d6f 84be
000003e0: f1e7 6fbe 8d4a e2bd 84b4 eabd 4559 95be
000003f0: 3ac7 a83d ec0b e3be da3a 7dbe 4fe2 cdbe

weight f4 [128, 256]
-0.15632674 -0.18361291 0.31173918 -0.07963389 -0.21607007 -0.013308023 -0.040281013 0.275551
0.125499 -0.108002104 -0.022322616 -0.100938626 0.08536319 0.19732966 -0.0018112132 0.061021592
-0.012647672 -0.13966379 0.12695174 0.08604546 -0.029650722 0.018027326 -0.0702847 -0.27495518
0.23729086 0.056678325 0.06540649 0.05111808 -0.13053219 -0.09345437 0.13669272 0.2335314
-0.018282473 0.13100922 -0.14018393 0.05253081 0.011202644 -0.14520004 -0.2084492 -0.20997895
0.16498096 0.053777404 0.15358506 -0.052229963 -0.04438578 -0.031410664 -0.0666283 0.22071911
0.12637247 -0.2763046 -0.08101754 -0.11881306 0.19946404 0.12251204 0.05027274 -0.13232233
-0.6846577 -0.07873074 -0.07398276 0.21142146 -0.07068973 -0.19495569 0.03987899 0.043860443
-0.22466691 -0.109207705 0.0470251 -0.1817603 -0.5423991 -0.1524188 0.041504435 -0.21910265
-0.1571042 -0.13044308 -0.081963584 -0.104210064 -0.05361891 0.07774777 -0.2078422 -0.06442357
-0.25401443 0.072308876 -0.11212845 0.010140421 0.14522561 -0.08218909 0.105746575 -0.035396073
0.014741217 0.18256313 -0.09777705 0.09008188 0.0034174055 -0.024234768 -0.15710989 -0.052570954
0.022121375 -0.008818435 0.15614389 0.06303475 0.047706943 -0.07992944 0.00033471442 -0.18746474
-0.27679673 -0.1584322 0.01866957 0.10824466 -0.0421688 -0.08719444 0.023053017 -0.047943287
0.10589733 -0.24539024 0.024851253 -0.05064244 -0.42605826 -0.07687394 0.02488521 -0.23290312
-0.13286352 -0.22908355 -0.028866015 0.13128757 0.0877297 -0.14164406 0.061087687 0.032059886
-0.12505676 -0.2460312 -0.2256477 -0.2266011 -0.06837282 -0.02468991 0.2781407 0.030619849
-0.036992673 0.10373103 -0.08212753 0.17840677 -0.009823531 -0.3580319 0.010286552 -0.27447107
0.16861153 -0.34052703 0.45543462 0.1450772 -0.23759414 -0.12847838 -0.51711434 0.036834713
0.08125067 -0.329775 0.15411139 0.09740256 0.050642487 0.0791695 0.20506246 -0.061864126
0.06347666 0.009472108 -0.1625456 0.14951812 -0.12317324 -0.10430714 0.06402434 0.08327876
-0.011190437 0.03631275 0.21538073 0.16747025 0.22281137 -0.101599656 -0.15556228 0.05571219
0.14501947 -0.009317134 -0.021509593 -0.23880367 0.014984967 -0.12092273 0.19941281 0.0854155
-0.14099056 -0.14316577 0.026102616 -0.032050367 -0.12957367 -0.06548453 -0.0036674028 -0.0039355378
0.18451707 -0.35461974 0.09319029 0.01662374 -0.27318928 0.03251597 0.043761414 0.18914439
-0.08257071 0.2482167 0.116780154 0.15017365 -0.17881377 -0.081206985 -0.03661173 -0.125165
0.038166434 -0.0539194 -0.108249836 0.13806409 -0.107538074 -0.22173132 -0.2759523 0.009446792
-0.14603977 0.011600884 0.29319304 0.08015498 -0.08890032 -0.23274678 -0.06747106 0.102878585
-0.17710896 -0.11471303 0.18318553 0.12015108 -0.21765529 0.30200964 0.04541541 0.08712595
-0.15092956 0.07543719 0.20369262 -0.17415448 0.19172174 -0.116547115 -0.05117563 0.044689458
-0.013904939 -0.18770596 -0.37190586 -0.024347905 -0.18799019 0.11381897 0.1061605 0.096120834
-0.14148466 -0.18063799 -0.20668516 -0.14348127 -0.0714948 -0.06938946 -0.45551637 -0.23867707
00000000: 1e14 20be 0605 3cbe 479c 9f3e 1817 a3bd
00000010: 7941 5dbe e509 5abc b4fd 24bd 0515 8d3e
00000020: cf82 003e 3530 ddbd ebdd b6bc e9b8 cebd
00000030: e5d2 ae3d c910 4a3e 3b66 edba c7f1 793d
00000040: 2e38 4fbc 0604 0fbe a3ff 013e 9a38 b03d
00000050: 12e6 f2bc 0bae 933c 6df1 8fbd edc6 8cbe
00000060: 60fc 723e 8827 683d d6f3 853d 3161 513d
00000070: 3baa 05be 0165 bfbd 2df9 0b3e db22 6f3e
00000080: 20c5 95bc 4827 063e 608c 0fbe 8c2a 573d
00000090: 4b8b 373c 52af 14be b573 55be b904 57be
000000a0: c5f0 283e b245 5c3d 6745 1d3e 16ef 55bd
000000b0: ddcd 35bd 78a8 00bd 6b74 88bd 3104 623e
000000c0: c967 013e cc77 8dbe 86ec a5bd 4354 f3bd
000000d0: 4d40 4c3e 98e7 fa3d caea 4d3d 817f 07be
000000e0: ba45 2fbf 953d a1bd 4684 97bd de7e 583e
000000f0: c7c5 90bd 77a2 47be 2758 233d 02a7 333d
00000100: 150f 66be 4aa8 dfbd 649d 403d 5f1f 3abe
00000110: abda 0abf ad13 1cbe 8e00 2a3d 725c 60be
00000120: ecdf 20be df92 05be 86dc a7bd 166c d5bd
00000130: 819f 5bbd 393a 9f3d 96d4 54be 81f0 83bd
00000140: 2e0e 82be ad16 943d 9aa3 e5bd 0224 263c
00000150: 06b6 143e c152 a8bd a991 d83d 79fb 10bd
00000160: 2585 713c d4f1 3a3e 563f c8bd d97c b83d
00000170: 8df6 5f3b fe87 c6bc 6ae1 20be a454 57bd
00000180: e337 b53c 327b 10bc 2fe4 1f3e 5d18 813d
00000190: 5b68 433d 0cb2 a3bd 9c7c af39 c2f6 3fbe
000001a0: 4db8 8dbe 0d3c 22be edf0 983c 60af dd3d
000001b0: 31b9 2cbd 0093 b2bd aed9 bc3c 2e60 44bd
000001c0: b3e0 d83d 9447 7bbe db94 cb3c 726e 4fbd
000001d0: 4f24 dabe 1670 9dbd 11dc cb3c 287e 6ebe
000001e0: 600d 08be e194 6abe 6c78 ecbc 4070 063e
000001f0: a1ab b33d 240b 11be 1537 7a3d 3a51 033d
00000200: e10e 00be 9aef 7bbe 3110 67be 1e0a 68be
00000210: 0d07 8cbd 7e42 cabc 7568 8e3e 7ad6 fa3c
00000220: a185 17bd ef70 d43d 7a32 a8bd 44b0 363e
00000230: e0f2 20bc f54f b7be ed88 283c 7987 8cbe
00000240: 80a8 2c3e 8f59 aebe ba2e e93e 1e8f 143e
00000250: e14b 73be d68f 03be 9b61 04bf ffdf 163d
00000260: c066 a63d 45d8 a8be 60cf 1d3e fe7a c73d
00000270: 7f6e 4f3d 9e23 a23d e5fb 513e 3d65 7dbd
00000280: 0d00 823d e730 1b3c 5b72 26be 471b 193e
00000290: 4042 fcbd fb9e d5bd 311f 833d 0e8e aa3d
000002a0: 1858 37bc aebc 143d c48c 5c3e 527d 2b3e
000002b0: aa28 643e 7b13 d0bd b84b 1fbe 7732 643d
000002c0: fc7f 143e e4a6 18bc e334 b0bc f388 74be
000002d0: 8283 753c 56a6 f7bd df32 4c3e 52ee ae3d
000002e0: d45f 10be 0c9a 12be 27d5 d53c 3f47 03bd
000002f0: f6ae 04be c11c 86bd cf58 70bb aff5 80bb
00000300: 0bf2 3c3e b890 b5be 8dda be3d 822e 883c
00000310: 77df 8bbe 772f 053d 2b3f 333d 11af 413e
00000320: d51a a9bd 852c 7e3e 6f2a ef3d 1fc7 193e
00000330: f51a 37be d94f a6bd 2ef6 15bd 412b 00be
00000340: 6854 1c3d 97da 5cbd 17b2 ddbd ac60 0d3e
00000350: ec3c dcbd 890d 63be 9f49 8dbe b8c6 1a3c
00000360: 738b 15be a211 3e3c 661d 963e 4b28 a43d
00000370: 5f11 b6bd 2c55 6ebe 442e 8abd 02b2 d23d
00000380: 0d5c 35be aaee eabd fd94 3b3e c511 f63d
00000390: 07e1 5ebe 02a1 9a3e 8205 3a3d 176f b23d
000003a0: 478d 1abe d07e 9a3d cc94 503e 8d55 32be
000003b0: b452 443e 41b0 eebd 8a9d 51bd 4b0c 373d
000003c0: 8bd1 63bc fe35 40be 726a bebe 4275 c7bc
000003d0: 8080 40be ec19 e93d ad6a d93d 00db c43d
000003e0: 5be1 10be 2af9 38be 46a5 53be c1ec 12be
000003f0: de6b 92bd 101c 8ebd 7139 e9be c367 74be

bias f4 [128]
0.1799618 0.11072883 -0.30459568 -0.11896326 -0.12880172 0.13739768 0.028033094 0.038542084
-0.1534024 -0.13096055 0.09590556 -0.021808604 -0.086160325 -0.035107713 0.11474912 -0.18713185
0.21597154 -0.059067566 -0.05952748 -0.08828904 -0.0102775805 -0.11541452 -0.012132402 0.015844202
0.08481988 0.036943346 -0.19395794 -0.10560789 -0.13167861 0.03605947 -0.10053327 -0.04536246
0.033565827 -0.1365999 0.0870203 0.028376374 -0.08095652 0.16348936 -0.08696322 -0.110034876
-0.066062875 0.03383499 -0.08119744 0.20274988 0.11718642 0.02666759 0.027279096 0.16747293
0.033957057 -0.23020929 0.080469385 -0.104158156 0.09766113 0.07955263 0.012196242 -0.11187558
0.23146264 0.050121106 0.14981994 -0.29985774 0.057983592 -0.15273197 -0.059088256 0.060978323
0.039853655 -0.12232492 -0.16029717 -0.22673066 -0.01350417 -0.0015657906 0.06336059 0.11352346
-0.030513857 0.22082095 -0.113653466 -0.15624481 -0.024537733 0.15010574 0.021436375 0.04768782
-0.12526052 0.13457234 -0.006009455 0.055008184 -0.024018878 0.1501787 -0.041430645 -0.19554271
-0.144987 0.10415125 0.0058990694 0.015099364 0.113679804 -0.049679477 -0.20590617 -0.10619185
-0.0016014461 0.030074347 -0.024242345 0.006248689 -0.17243788 0.0040664384 0.21449712 -0.09638973
0.0011664695 -0.048659217 -0.1516494 -0.018250046 0.24301808 0.023805572 0.0058455877 -0.08318236
-0.0822076 -0.07666598 -0.048165657 -0.13814631 0.094254054 0.15398425 0.17131405 0.16971213
0.041933168 0.29910055 -0.07214662 -0.09617054 -0.06318927 -0.07326912 0.07859236 0.04984631
00000000: e847 383e ccc5 e23d f7f3 9bbe 02a3 f3bd
00000010: 99e4 03be fab1 0c3e a9a5 e53c 4ede 1d3d
00000020: 8515 1dbe 861a 06be 226a c43d f5a7 b2bc
00000030: d374 b0bd 1bcd 0fbd 9601 eb3d 7e9f 3fbe
00000040: a527 5d3e d5f0 71bd 16d3 73bd e2d0 b4bd
00000050: 4c63 28bc 735e ecbd fbc6 46bc b3cb 813c
00000060: 0cb6 ad3d e851 173d e99c 46be f348 d8bd
00000070: c2d6 06be 18b3 133d 63e4 cdbd fdcd 39bd
00000080: 527c 093d d8e0 0bbe b337 b23d 9275 e83c
00000090: 88cc a5bd c169 273e c619 b2bd f759 e1bd
000000a0: f94b 87bd 8f96 0a3d d84a a6bd aa9d 4f3e
000000b0: 6fff ef3d fd75 da3c 6978 df3c 067e 2b3e
000000c0: 8e16 0b3d fcbb 6bbe 22cd a43d df50 d5bd
000000d0: 8f02 c83d 7dec a23d bfd2 473c 061f e5bd
000000e0: 8b04 6d3e ca4b 4d3d 666a 193e f486 99be
000000f0: 3480 6d3d c565 1cbe 8706 72bd 68c4 793d
00000100: 963d 233d 7d85 fabd f124 24be 152c 68be
00000110: 9840 5dbc 373b cdba 32c3 813d fd7e e83d
00000120: 32f8 f9bc e31e 623e 26c3 e8bd a4fe 1fbe
00000130: 5b03 c9bc 52b5 193e 569b af3c 4e54 433d
00000140: 4b44 00be 55cd 093e f6ea c4bb 4350 613d
00000150: 3dc3 c4bc 72c8 193e 2eb3 29bd 593c 48be
00000160: 7977 14be 404d d53d fb4c c13b 5363 773c
00000170: f5d0 e83d b57c 4bbd 11d9 52be 1d7b d9bd
00000180: 9de7 d1ba 7a5e f63c e297 c6bc cdc1 cc3b
00000190: 8e93 30be c23f 853b 22a5 5b3e fb67 c5bd
000001a0: 39e4 983a e34e 47bd fb49 1bbe 1f81 95bc
000001b0: bbd9 783e e703 c33c 588c bf3b 835b aabd
000001c0: 755c a8bd 0e03 9dbd 5a49 45bd 3a76 0dbe
000001d0: 4508 c13d 0cae 1d3e f36c 2f3e 04c9 2d3e
000001e0: 1dc2 2b3d b523 993e 9bc1 93bd 0ff5 c4bd
000001f0: 6069 81bd 1f0e 96bd 08f5 a03d a52b 4c3d

weight f4 [64, 128]
-0.0396595 -0.078422755 -0.089787126 0.04349264 0.11232888 0.26126412 0.26639304 0.10558395
0.18980275 -0.3066502 0.29576635 0.2499521 -0.15169904 -0.00444745 0.09595771 -0.037615284
0.1498003 0.1436872 -0.23841372 0.10217064 0.050376885 -0.16769908 0.29068807 0.058634304
0.19661841 0.0333995 -0.008856498 0.542624 0.027744232 0.1733849 0.03980844 0.15365696
-0.061064634 -0.15249507 -0.25739482 -0.21448041 0.0348612 0.05735719 0.2659699 0.07493666
-0.10284722 -0.027407642 0.039210152 -0.06694203 -0.1812855 -0.07682046 0.55782545 0.09506803
0.097431704 0.056282498 0.077708766 0.18057165 0.02145246 0.073047884 0.083992556 0.1380389
0.048202936 0.4370333 0.27138272 -0.61850375 -0.4375843 -0.26755884 -0.13614318 0.16108139
0.23903659 0.13316013 -0.15057994 0.06693002 0.12547305 0.04937084 0.09246624 0.21943462
-0.018644497 0.32399443 -0.03344611 0.02319395 -0.23497881 0.036227416 0.34866804 0.20752747
0.21789932 0.13298504 0.104366824 0.11006888 0.0012834693 0.0011797551 0.04589089 0.016760059
-0.18615289 0.2588456 -0.07249507 -0.19188286 0.12915584 -0.15429623 0.0761006 0.08298546
-0.27935496 0.15234473 0.17434828 -0.34921432 -0.043763127 -0.02928328 -0.15416567 -0.047781415
0.15232052 -0.09567145 0.22887567 -0.08709444 -0.20984589 -0.03158519 0.1450625 -0.1473934
0.11321535 0.004604398 0.022138387 -0.12922616 0.13796292 -0.22348025 -0.10417939 0.021942016
-0.18510441 0.10036735 -0.12093333 -0.0037796898 -0.053453524 0.020819593 0.31492496 0.0011469112
-0.23925062 -0.08710495 -0.03972658 0.21790308 0.3398395 0.081747815 -0.14961104 0.03780711
0.082690686 0.39944467 -0.11182191 0.011633444 0.15129577 0.0036662128 -0.18951556 0.06606885
0.029869262 -0.07641644 0.042401437 -0.06463588 -0.32812005 0.25134158 -0.34712008 0.20493756
-0.05322121 0.17231734 -0.0022983772 0.23070362 0.18320371 -0.1883555 0.0014121445 -0.12568563
-0.14919375 -0.3395879 -0.24944325 -0.1696664 0.05878412 0.058527455 0.13855205 0.19083971
0.11261964 -0.1977056 0.19461696 -0.42445284 0.12851503 0.00022854202 -0.089546815 -0.06442455
0.18791881 0.047733027 -0.029948624 0.3957086 -0.17171755 0.12046106 -0.053984437 0.11227855
-0.1288324 -0.06123357 -0.3499072 0.3718925 -0.034765236 0.22301233 0.28306946 -0.094848886
-0.30312216 0.0041442583 0.1203711 0.011783704 -0.03677822 0.1404911 -0.13908614 -0.12845872
0.14287162 -0.275286 -0.00044841942 0.024145262 0.088342726 0.047512602 0.19331548 0.044967756
-0.013179376 0.039660543 0.09613344 -0.19321792 -0.13281302 0.028247539 0.06798412 0.19261754
0.17435999 -0.014499718 0.070573926 -0.33517328 -0.13637696 0.067119084 0.2805118 0.17427436
-0.050352998 0.23902087 0.056833968 0.06706966 -0.067533195 0.02226967 -0.23590894 0.11516104
0.12116663 -0.06292077 0.4068086 -0.122979 -0.05266406 -0.21392561 0.10000306 -0.37914574
0.12975626 0.016991077 0.20029141 0.2969583 -0.086290136 0.14377695 -0.004852952 -0.19563232
0.08093461 -0.40732104 0.11606234 0.08443023 0.051066205 0.0052825618 0.08464402 0.14363536
00000000: 0072 22bd 1c9c a0bd 50e2 b7bd 5725 323d
00000010: af0c e63d 69c4 853e ab64 883e 663c d83d
00000020: a75b 423e 4101 9dbe b06e 973e 71f3 7f3e
00000030: fe56 1bbe eabb 91bb 7a85 c43d 7c12 1abd
00000040: 4065 193e bd22 133e ba22 74be d73e d13d
00000050: fe57 4e3d 4fb9 2bbe 11d5 943e 862a 703d
00000060: 5656 493e eacd 083d d81a 11bc 68e9 0a3f
00000070: df47 e33c d08b 313e 2d0e 233d 4058 1d3e
00000080: e91e 7abd ab27 1cbe 41c9 83be c1a0 5bbe
00000090: 9eca 0e3d 5fef 6a3d 352d 883e 6478 993d
000000a0: 90a1 d2bd fe85 e0bc d39a 203d e718 89bd
000000b0: e8a2 39be 0c54 9dbd a6cd 0e3f 07b3 c23d
000000c0: 468a c73d 7a88 663d c625 9f3d c6e7 383e
000000d0: 12bd af3c 219a 953d 4a04 ac3d 125a 0d3e
000000e0: 7170 453d d4c2 df3e adf2 8a3e 4356 1ebf
000000f0: 0d0b e0be 79fd 88be 1e69 0bbe 85f2 243e
00000100: 02c6 743e 215b 083e a131 1abe 9b12 893d
00000110: 027c 003e 1439 4a3d f15e bd3d 78b3 603e
00000120: 58bc 98bc 99e2 a53e cafe 08bd 3d01 be3c
00000130: 499e 70be 3363 143d 9e84 b23e 1582 543e
00000140: 0021 5f3e 3b2d 083e 46be d53d cb6b e13d
00000150: 153a a83a 03a2 9a3a 16f8 3b3d 644c 893c
00000160: dd9e 3ebe 6987 843e 4c78 94bd f17c 44be
00000170: 6e41 043e d5ff 1dbe a2da 9b3d 48f4 a93d
00000180: 9d07 8fbe 4200 1c3e 5b88 323e 38cc b2be
00000190: f740 33bd 7de3 efbc 9bdd 1dbe 72b6 43bd
000001a0: e9f9 1b3e 65ef c3bd 625e 6a3e 925e b2bd
000001b0: d7e1 56be 795f 01bd 448b 143e 4cee 16be
000001c0: 73dd e73d 7de0 963b 905b b53c dd53 04be
000001d0: 2746 0d3e 02d8 64be 015c d5bd bebf b33c
000001e0: 038c 3dbe 668d cd3d e5ab f7bd acb4 77bb
000001f0: 15f2 5abd da8d aa3c d83d a13e f453 963a
00000200: 1dfe 74be 1464 b2bd 57b8 22bd fc21 5f3e
00000210: 71ff ad3e 666b a73d a333 19be a1db 1a3d
00000220: bc59 a93d 0384 cc3e e302 e5bd 339a 3e3c
00000230: 47ed 1a3e d844 703b 5e10 42be 1b4f 873d
00000240: 62b0 f43c 3980 9cbd 21ad 2d3d d15f 84bd
00000250: 5aff a7be d8af 803e b9b9 b1be 27db 513e
00000260: 7cfe 59bd f573 303e 5fa0 16bb 923d 6c3e
00000270: c199 3b3e 44e0 40be b517 b93a bcb3 00be
00000280: 3fc6 18be 77de adbe 0d6e 7fbe 07bd 2dbe
00000290: 9ec7 703d 7cba 6f3d 97e0 0d3e 7c6b 433e
000002a0: 20a5 e63d 5673 4abe ab49 473e e251 d9be
000002b0: 7299 033e c8a4 6f39 5264 b7bd 05f1 83bd
000002c0: ca6d 403e b583 433d d156 f5bc 519a ca3e
000002d0: bad6 2fbe 4ab4 f63d c91e 5dbd 4cf2 e53d
000002e0: a4ec 03be 0dd0 7abd 0927 b3be b268 be3e
000002f0: fe65 0ebd 585d 643e 7bee 903e 2240 c2bd
00000300: d432 9bbe 8fcc 873b 2085 f63d 7010 413c
00000310: c2a4 16bd e6dc 0f3e 996c 0ebe af8a 03be
00000320: f04c 123e 49f2 8cbe d619 ebb9 49cc c53c
00000330: 08ed b43d 939c 423d 7ef4 453e 1c30 383d
00000340: 4fee 57bc 1873 223d 9ce1 c43d ebda 45be
00000350: 2300 08be 6267 e73c 423b 8b3d 883d 453e
00000360: 6d8b 323e 3a90 6dbc 1089 903d d59b abbe
00000370: 67a6 0bbe bb75 893d 3e9f 8f3e fa74 323e
00000380: f23e 4ebd e3c1 743e bcca 683d d15b 893d
00000390: d84e 8abd e26e b63c 1d92 71be 8dd9 eb3d
000003a0: 3626 f83d 9bdc 80bd 3849 d03e 6adc fbbd
000003b0: 45b6 57bd 510f 5bbe 68ce cc3d 641f c2be
000003c0: d3de 043e df30 8b3c 3119 4d3e eb0a 983e
000003d0: e2b8 b0bd 443a 133e 8305 9fbb d753 48be
000003e0: 0bc1 a53d 628c d0be 18b2 ed3d c2e9 ac3d
000003f0: cc2a 513d 5719 ad3b d859 ad3d 2615 133e

bias f4 [64]
-0.11700731 -0.095634714 -0.103086196 0.022909958 0.36556977 -0.13592146 -0.10958789 0.1276567
-0.033036217 0.27544603 0.2845522 0.16774037 0.052296158 0.038168937 0.109998636 0.105640456
0.24753751 0.06453019 0.30317652 0.10048835 0.18540557 -0.06787997 0.11430932 0.0021404056
-0.12258142 -0.055168953 -0.16780864 -0.04060045 0.18511304 -0.07079139 -0.118494526 -0.0555268
-0.10964489 -0.017053874 -0.13048396 -0.12638249 0.043786068 -0.02076764 -0.11795409 -0.118710734
-0.11829109 0.105351746 -0.010770068 -0.043667577 -0.08576332 -0.05300907 0.06570883 -0.11751828
0.16758831 -0.14172138 0.16470334 0.197988 0.08144338 -0.053616006 0.19404885 -0.13767496
0.030209854 -0.031916935 0.04243237 -0.093768165 -0.18940607 0.107875206 0.10028195 -0.24080054
00000000: 87a1 efbd 22dc c3bd db1e d3bd aaad bb3c
00000010: f62b bb3e ff2e 0bbe 9e6f e0bd 70b8 023e
00000020: fc50 07bd 4307 8d3e d3b0 913e 22c4 2b3e
00000030: 7f34 563d 0857 1c3d f746 e13d 065a d83d
00000040: 797a 7d3e 6728 843d f439 9b3e d6cc cd3d
00000050: f5da 3d3e a704 8bbd 011b ea3d 0c46 0c3b
00000060: f80b fbbd d7f8 61bd 07d6 2bbe a84c 26bd
00000070: 468e 3d3e 14fb 90bd 42ad f2bd 1270 63bd
00000080: 808d e0bd 91b4 8bbc 969d 05be 696a 01be
00000090: 0559 333d e620 aabc ea91 f1bd 9d1e f3bd
000000a0: 9942 f2bd a8c2 d73d f074 30bc c6dc 32bd
000000b0: aea4 afbd 0a20 59bd 5a92 863d 6dad f0bd
000000c0: 459c 2b3e 691f 11be fea7 283e 5ebd 4a3e
000000d0: c9cb a63d 759c 5bbd beb4 463e aafa 0cbe
000000e0: a87a f73c 55bb 02bd 91cd 2d3d 8609 c0bd
000000f0: aaf3 41be aded dc3d 9f60 cd3d 6b94 76be

weight f4 [6, 64]
-0.2903615 0.22181477 -0.12661664 0.103005424 -0.15081637 0.07375992 -0.2082655 0.09405041
0.010190311 0.17682745 -0.11212613 0.09422086 -0.3573123 -0.43039557 0.28574374 -0.066313036
-0.29865572 -0.14864619 0.104210384 0.03949121 -0.38409513 -0.47130358 -0.33765388 0.32069844
0.16313577 0.08257955 -0.23659074 0.1843675 -0.3497128 -0.07119935 0.119844496 -0.06595499
0.04766172 0.17488796 -0.123494126 0.17871296 -0.025647318 0.20966433 -0.10378615 -0.050919663
0.19551602 -0.35700366 0.26058033 0.01667792 -0.29960066 0.4408904 0.16452578 -0.3241412
0.16031285 -0.48352328 0.24572419 0.010789755 0.11654645 -0.48286906 -0.12156564 -0.23232797
-0.29739234 -0.06493172 0.1803974 -0.23461176 0.19001786 0.029573008 0.11364422 -0.15466133
0.26904085 0.19847268 0.16836262 -0.019874258 -0.62639356 0.36601678 0.16459852 0.03294072
-0.038482927 -0.42905942 -0.45760268 -0.23432848 0.04441445 -0.0042365356 -0.20604081 0.041757077
-0.08190911 -0.17355058 -0.12659858 -0.015383243 0.048585832 0.1691814 -0.13480185 -0.14690134
0.19721559 0.12743564 0.21020383 0.096216895 -0.4724715 0.08719673 0.13266326 0.2314458
0.17062356 0.09327296 -0.057496313 -0.08171044 -0.037154112 -0.029077582 -0.047569554 0.08093689
0.18988185 0.024292521 -0.032363884 0.037503228 0.18560109 -0.21883458 -0.006698084 0.26538277
-0.00425522 0.23751435 -0.43789598 -0.23194392 -0.040144555 0.16320753 -0.14296557 0.17543863
-0.7433143 0.19015919 -0.39058208 -0.10367441 0.2607683 0.062327005 0.08384391 0.19672482
-0.0854617 -0.25795147 -0.25805154 -0.19268604 0.06324152 -0.5371636 0.14618844 0.060941923
0.17163998 0.16419202 0.29541108 -0.2859826 0.09443563 0.23397584 -0.24171442 0.12619893
0.21741731 -0.0013186965 0.09208717 0.12392695 -0.11275008 -0.106646545 0.35652068 -0.16599235
0.23473047 -0.047095515 0.17766939 -0.21465588 0.09367679 -0.055091947 -0.02368464 -0.44428536
0.07278297 -0.42429435 0.006584104 -0.071547166 0.027519425 -0.3521983 -0.084658705 0.6144524
-0.15588571 -0.045567166 -0.25824007 0.1537699 -0.14908153 -0.24523844 -0.09053836 0.009973506
0.20605159 -0.2887083 0.07136012 0.17912355 -0.049203232 0.07130725 0.48018938 -0.41008568
-0.08135361 0.27747566 0.12386501 0.03101025 -0.50804836 -0.3759759 0.08856967 -0.50094074
0.14859188 -0.10923502 0.21609315 0.2592743 0.15340596 0.16893959 -0.18170398 0.2534741
-0.47347805 0.102996215 0.0063881795 0.2182307 0.071529165 0.097158074 -0.29562685 0.12930952
0.0645169 0.27539754 0.07487271 0.004755503 0.21011865 -0.14361256 -0.2881253 -0.16024704
-0.23293144 0.0024043527 -0.12634309 0.021714643 0.19118978 -0.1099666 -0.3276818 -0.35857794
-0.0014456587 -0.08744259 -0.12021927 -0.32942724 -0.5120494 0.12780528 0.06257494 -0.16999152
-0.2088787 0.19188033 -0.09019877 -0.53444284 0.18448953 -0.37187952 0.14433995 -0.5394154
0.04126257 0.15005143 -0.14732975 0.07440028 0.11520388 -0.10545523 -0.42114422 -0.41863015
0.35923135 0.041019183 -0.1628662 -0.25699446 -0.012899645 0.19398972 0.08294576 -0.12960619
00000000: 43aa 94be 6923 633e cba7 01be 82f4 d23d
00000010: 9b6f 1abe 710f 973d 8d43 55be 809d c03d
00000020: 43f5 263c 4112 353e 62a2 e5bd def6 c03d
00000030: a3f1 b6be cf5c dcbe 014d 923e 21cf 87bd
00000040: 67e9 98be b536 18be 416c d53d 89c1 213d
00000050: 1ea8 c4be b44e f1be f8e0 acbe 9632 a43e
00000060: 100d 273e 781f a93d d844 72be d5ca 3c3e
00000070: 8e0d b3be f7d0 91bd 0871 f53d 6913 87bd
00000080: f038 433d d415 333e 7dea fcbd 8800 373e
00000090: 531a d2bc 3fb2 563e d58d d4bd 2391 50bd
000000a0: 5a35 483e 2fc9 b6be c96a 853e 22a0 883c
000000b0: 4265 99be 63bc e13e 7279 283e d6f5 a5be
000000c0: 0d29 243e 5d90 f7be 1f9f 7b3e 83c7 303c
000000d0: e8af ee3d 9d3a f7be 68f7 f8bd 62e7 6dbe
000000e0: cf43 98be ecfa 84bd 19ba 383e 113e 70be
000000f0: 0b94 423e 1843 f23c 4dbe e83d 8a5f 1ebe
00000100: b9bf 893e 6c3c 4b3e 4067 2c3e 57cf a2bc
00000110: 545b 20bf 8d66 bb3e 848c 283e d9ec 063d
00000120: 46a0 1dbd adad dbbe e64a eabe cef3 6fbe
00000130: edeb 353d a3d2 8abb 5dfc 52be 7809 2b3d
00000140: f7bf a7bd 3eb7 31be 0fa3 01be ff09 7cbc
00000150: f001 473d e43d 2d3e 7f09 0abe 4e6d 16be
00000160: e2f2 493e 7d7e 023e ac3f 573e 5d0d c53d
00000170: c9e7 f1be 3394 b23d e1d8 073e 2100 6d3e
00000180: f1b7 2e3e e505 bf3d 4181 6bbd ce57 a7bd
00000190: e92e 18bd 1c34 eebc 4bd8 42bd 3dc2 a53d
000001a0: 6370 423e 1c01 c73c fe8f 04bd fc9c 193d
000001b0: 360e 3e3e 2c16 60be 9a7b dbbb 40e0 873e
000001c0: 5f6f 8bbb f636 733e e733 e0be b582 6dbe
000001d0: 9e6e 24bd e01f 273e 9165 12be 2fa6 333e
000001e0: d949 3ebf 17b9 423e 60fa c7be 4053 d4bd
000001f0: 6c83 853e 9a4a 7f3d 5bb6 ab3d 3b72 493e
00000200: 8b06 afbd 3712 84be 551f 84be 7d4f 45be
00000210: c584 813d 8e83 09bf 6cb2 153e 3d9e 793d
00000220: 64c2 2f3e f421 283e 1f40 973e 506c 92be
00000230: 7867 c13d 5d97 6f3e fc83 77be 4b3a 013e
00000240: a5a2 5e3e 1dd8 acba 3398 bc3d 6acd fd3d
00000250: 84e9 e6bd 8169 dabd e189 b63e e6f9 29be
00000260: 2f5d 703e 3ae7 40bd f7ee 353e c0ce 5bbe
00000270: 9ed9 bf3d 18a8 61bd 4a06 c2bc 5f79 e3be
00000280: 3d0f 953d 1c3d d9be 78bf d73b 5287 92bd
00000290: 6b70 e13c 5653 b4be 8b61 adbd c14c 1d3f
000002a0: 81a0 1fbe a3a4 3abd 0b38 84be db75 1d3e
000002b0: d4a8 18be c91f 7bbe 2d6c b9bd eb67 233c
000002c0: 30ff 523e 93d1 93be 4125 923d 2a6c 373e
000002d0: 5489 49bd 8909 923d 62db f53e c0f6 d1be
000002e0: b99c a6bd 4a11 8e3e f0ac fd3d 3509 fe3c
000002f0: 750f 02bf ea7f c0be 0464 b53d a73d 00bf
00000300: 7828 183e 9cb6 dfbd 8647 5d3e 9abf 843e
00000310: 7416 1d3e 80fe 2c3e 9c10 3abe 5bc7 813e
00000320: b76b f2be aeef d23d ef53 d13b de77 5f3e
00000330: e27d 923d d0fa c63d 675c 97be b769 043e
00000340: 7021 843d e800 8d3e dd56 993d 0dd4 9b3b
00000350: 5829 573e 2c0f 13be 2985 93be cd17 24be
00000360: 9485 6ebe 5892 1d3b 1560 01be e8e2 b13c
00000370: 41c7 433e 2b36 e1bd e9c5 a7be 8797 b7be
00000380: 427c bdba 1a15 b3bd 8535 f6bd b0aa a8be
00000390: ab15 03bf 63df 023e 4a27 803d 4212 2ebe
000003a0: 4ce4 55be 477c 443e 22ba b8bd 3fd1 08bf
000003b0: d3ea 3c3e fe66 bebe dacd 133e 2117 0abf
000003c0: f102 293d 15a7 193e 9cdd 16be 2d5f 983d
000003d0: 03f0 eb3d e9f8 d7bd 37a0 d7be b156 d6be
000003e0: 2ced b73e bb03 283d 66c6 26be c794 83be
000003f0: 0859 53bc 3ea5 463e 77df a93d 7cb7 04be

bias f4 [6]
-0.06954935 -0.26233166 0.096349575 0.15823993 0.053206813 -0.012332095
00000000: e46f 8ebd 5650 86be ed52 c53d a609 223e
00000010: 63ef 593d 8e0c 4abc
