MLP/MLP_network_bs_16_epoch_300_lr_small.pkl (torch_old, 211408 bytes, 8 tensors)

weight f4 [256, 38]
0	0xbe176101	-0.14783098
1	0xbdd5ddda	-0.104427055
2	0x3d8c633a	0.068548635
3	0xbe0b8086	-0.13623247
4	0x3db2cdba	0.087306455
5	0x3c3bb1c1	0.011455954
6	0x3d0bb952	0.034112282
7	0x3c99c190	0.018769056
8	0xbde2f620	-0.11082101
9	0x3d8d23e6	0.06891613
10	0xbda402b2	-0.080083266
11	0x3d3b1817	0.04567727
12	0xbda1c37a	-0.07898612
13	0xbd5676e7	-0.052359488
14	0x3cc74e13	0.02432922
15	0xbbafe129	-0.0053674174
16	0xbdf7b5f8	-0.12095255
17	0x3e0e2c1d	0.13884015
18	0x3d3561e4	0.04428281
19	0xbbf41afd	-0.0074495063
20	0x3d27072b	0.04077832
21	0xbdf16cc7	-0.11788326
22	0x3e28cb56	0.16483817
23	0x3e2940c6	0.16528615
24	0x3e2a3130	0.16620326
25	0xbd764e01	-0.060132984
26	0x3e116f9a	0.14202729
27	0xbe31b763	-0.17355113
28	0x3dbc243e	0.091866
29	0xbe119b66	-0.14219436
30	0x3c06e870	0.008234128
31	0xbdedf693	-0.11619296
32	0x3daffdb6	0.085933134
33	0x3cea016e	0.028565135
34	0xbe303666	-0.17208251
35	0xbce24b56	-0.027623814
36	0xbb68cba4	-0.003552177
37	0xbe234e12	-0.1594775
38	0xbcfad9e9	-0.030621486
39	0xbd6d72b4	-0.057970718
40	0xbd792802	-0.06082917
41	0x3ddddf6b	0.10833629
42	0x3c928b41	0.017888667
43	0x3e0368b1	0.12832905
44	0x3e2f8018	0.17138708
45	0xbda10c8f	-0.078637235
46	0x3e3ed94c	0.1863758
47	0x3dcb4663	0.099255346
48	0x3e157f3b	0.14599316
49	0xbde62073	-0.11236658
50	0xbd0e1279	-0.034685586
51	0xbd3516a4	-0.044211045
52	0x3e350c77	0.17680536
53	0x3dc96717	0.09834116
54	0x3cafdd6f	0.021467892
55	0x3c723d8a	0.01478518
56	0xbc40a2dc	-0.011757579
57	0x3d6076c6	0.05480077
58	0xbde672e2	-0.11252381
59	0x3c945f68	0.0181119
60	0xbe18aa2f	-0.1490867
61	0x3ccb5ee4	0.02482552
62	0xbdb096f1	-0.0862254
63	0xbd8b091a	-0.06788845
64	0x3dc79a4f	0.09746229
65	0xbd795fea	-0.060882486
66	0xbe2b5792	-0.16732624
67	0x3d222b40	0.039592028
68	0x3d039e90	0.03213364
69	0x3dd0f04a	0.102020815
70	0xbdc587df	-0.09645056
71	0xbd71b19b	-0.05900727
72	0x3e041402	0.12898257
73	0xbdbbd97c	-0.09172341
74	0xbe10b591	-0.14131762
75	0xbc9987da	-0.018741537
76	0xbe434cd5	-0.19072278
77	0x3e09352e	0.13399193
78	0xbdbc3823	-0.09190395
79	0xbdd15bfe	-0.10222624
80	0x3d3799e0	0.04482448
81	0xbd1b04fd	-0.037846554
82	0xbdfc91e5	-0.12332515
83	0x3c12d07b	0.008960838
84	0xbde28d0e	-0.1106206
85	0xbda6362c	-0.08115801
86	0x3da765db	0.08173724
87	0x3d0e647e	0.034763806
88	0xbdd1bb3a	-0.10240789
89	0xbe236dc2	-0.15959838
90	0xbca51a58	-0.020154163
91	0xbe08a7f7	-0.13345324
92	0x3c42b53d	0.011884031
93	0x3bc0582e	0.005869887
94	0x3da256fe	0.07926749
95	0xbd86e114	-0.06585899
96	0xbca766d9	-0.020434784
97	0xbb4d4aa6	-0.0031325012
98	0x3dd56bee	0.104209766
99	0xbdf926b7	-0.121655874
100	0x3e2754ff	0.16341017
101	0x3e139e59	0.14415874
102	0xbe0c297c	-0.136877
103	0xbe3ab142	-0.18231681
104	0xbe27b70a	-0.16378418
105	0x3e04bc23	0.12962393
106	0xbd7d75f0	-0.061880052
107	0x3e0512ec	0.129955
108	0x3e0325a0	0.12807322
109	0x3dcbe7a1	0.09956289
110	0x3d01dfed	0.031707693
111	0xbcb349d5	-0.021885792
112	0xbdf5f53d	-0.12009666
113	0xbdb21809	-0.086959906
114	0xbdae56a4	-0.08512619
115	0xbe16bbda	-0.14720097
116	0xbc4b1e4a	-0.012397358
117	0xbdc081f7	-0.09399789
118	0x3b91c7db	0.0044488735
119	0xbd8bae33	-0.06820335
120	0xbc99927a	-0.018746603
121	0x3d3e5186	0.046464466
122	0xbcc4864e	-0.023989823
123	0x3e266a4f	0.16251491
124	0x3c6ffd87	0.014647848
125	0x3e1e17c2	0.1543875
126	0x3c7cd6e4	0.015432093
127	0xbe06dc15	-0.13169892
128	0xbd006257	-0.031343784
129	0xbda9e821	-0.08296228
130	0x3de42f72	0.11141862
131	0x3d0f47a2	0.034980424
132	0x3cb0710d	0.021538282
133	0xbd321082	-0.043472774
134	0x3d7fcb51	0.062449757
135	0xbdedc50c	-0.11609849
136	0xbe1d7dea	-0.15380064
137	0xbe068295	-0.1313575
138	0x3d27147b	0.040791016
139	0x3e039490	0.12849641
140	0x3d5b125f	0.053484317
141	0xbe159cd4	-0.14610606
142	0xbe2fa296	-0.17151865
143	0xbcc346d9	-0.023837494
144	0x3e1f88f0	0.15579581
145	0x3dcc4d61	0.09975696
146	0x3cb12fce	0.02162924
147	0x3dc1bc59	0.094597526
148	0x3da17df6	0.07885353
149	0xbda10f9e	-0.07864307
150	0xbd62d39f	-0.0553776
151	0xbe01caac	-0.1267497
152	0xbd12a9fa	-0.035806634
153	0x3da6fe7d	0.081540085
154	0xbdb8dd43	-0.09026577
155	0x3e1def82	0.15423396
156	0xbe1c16d0	-0.15243077
157	0x3e10ee69	0.14153446
158	0xbe15d1e9	-0.14630856
159	0x3e17919e	0.14801642
160	0x3cd95bc5	0.026533017
161	0xbdd49d46	-0.1038156
162	0x3e25390e	0.16135046
163	0x3d5e1ffe	0.05422973
164	0x3dd1dc0a	0.10247047
165	0x3da0b0a6	0.07846193
166	0xbe0b14cd	-0.13582154
167	0x3d831098	0.063996494
168	0x3d8b986d	0.06816182
169	0x3d845747	0.06461959
170	0x3d40906f	0.047012743
171	0x3d015670	0.031576574
172	0xbd4b43a2	-0.049625047
173	0x3ce10d9c	0.02747231
174	0xbc2425ed	-0.010018808
175	0xbd3c4471	-0.04596371
176	0xbe157d14	-0.14598495
177	0xbddc4217	-0.10754793
178	0xbe0d48c5	-0.1379729
179	0x3defc9dc	0.117084235
180	0xbe209ece	-0.15685579
181	0xbc9a5aa9	-0.018842058
182	0xbd0cce39	-0.034376357
183	0xbb8f6a13	-0.0043766587
184	0x3de0b498	0.109719455
185	0x3c108ae4	0.008822177
186	0xbe01407f	-0.1262226
187	0xbe053f45	-0.13012417
188	0xbe1598f5	-0.1460913
189	0xbd04f404	-0.032459274
190	0x3da1e3f9	0.079048105
191	0xbdafec7a	-0.08590026
192	0x3e26bc96	0.16282877
193	0x3e15b940	0.14621449
194	0xbdc86a88	-0.09785944
195	0x3e280ec8	0.16411889
196	0x3e3078ce	0.17233583
197	0x3db9622f	0.0905193
198	0xbdfe9227	-0.1243022
199	0x3d6591fa	0.056047417
200	0x3bc93b72	0.0061411196
201	0xbe0da452	-0.13832214
202	0x3e05a8ee	0.13052723
203	0x3e1810fe	0.14850232
204	0x3dd38cc0	0.1032958
205	0x3e13a5a1	0.14418651
206	0xbe2b5433	-0.16731338
207	0xbce1b9bd	-0.027554387
208	0x3e0cd7ba	0.13754168
209	0xbb3c2840	-0.0028710514
210	0xbd626eb0	-0.05528134
211	0xbe32fc1a	-0.17478982
212	0x3e1c7791	0.15279986
213	0x3c33b503	0.0109684495
214	0x3c9fcede	0.019507822
215	0x3c50618d	0.01271857
216	0xb98dc163	-0.000270377
217	0x3dc670e0	0.09689498
218	0xbdd0599f	-0.10173344
219	0xbd81985a	-0.06327887
220	0xbda436f9	-0.08018298
221	0x3e1f48c6	0.15555105
222	0x3d0f5ceb	0.035000723
223	0xbd05826d	-0.032595087
224	0xbcb1ae5b	-0.021689584
225	0xbddc514f	-0.10757696
226	0xbd2b2f6c	-0.041793272
227	0x3d131752	0.03591091
228	0xbc9414de	-0.018076357
229	0xbdf7c0b1	-0.120973
230	0xbcdd25aa	-0.026995499
231	0xbde6faa0	-0.11278272
232	0x3d77fa02	0.06054116
233	0xbe26477c	-0.16238207
234	0xbc91daff	-0.01780462
235	0xbd084946	-0.033273004
236	0x3dd02f4f	0.101652734
237	0xbd76d63b	-0.0602629
238	0xbe30f2b4	-0.17280084
239	0xbd5188d1	-0.05115587
240	0xbcd4edd3	-0.02599231
241	0xbe2d810f	-0.16943763
242	0x3d2a6b62	0.041606314
243	0xbcbd1e2d	-0.023085678
244	0xbd11b64c	-0.035574242
245	0x3c11820b	0.008881102
246	0x3d7d33dc	0.061817035
247	0x3d15201b	0.03640757
248	0xbd718e87	-0.058973815
249	0x3d749d32	0.059720226
250	0x3cec7060	0.028862178
251	0x3d28bcc1	0.041195635
252	0xbd61a7a4	-0.055091515
253	0xbe39a310	-0.1812861
254	0x3d6af0a6	0.057358406
255	0x3d5f8eb3	0.054579448

bias f4 [256]
0	0xbd410e6c	-0.047132894
1	0x3c184b6a	0.009295324
2	0x3d9a57c2	0.0753627
3	0xbc326665	-0.010888671
4	0xbd0d58da	-0.034508564
5	0xbd6e42bd	-0.058169115
6	0xbca664f1	-0.020311804
7	0xbd433bf2	-0.04766459
8	0x3dc5f31a	0.096655086
9	0xbd58b5de	-0.052907817
10	0xbd91ab7c	-0.07112786
11	0x3e2287ed	0.15872164
12	0xbc173494	-0.009228844
13	0x3e3b9c10	0.18321252
14	0x3bafd326	0.005365747
15	0x3e209bf1	0.15684487
16	0x3ba3cd5f	0.0049988474
17	0x3dc4aa37	0.096027784
18	0xbdb5c4cd	-0.088754274
19	0x3e3534b8	0.17695892
20	0x3d067958	0.032830566
21	0xbcbdf11f	-0.023186265
22	0xbbe367c3	-0.0069398596
23	0x3db5dee1	0.088804014
24	0x3e3e0587	0.18556796
25	0xbdf4fc5c	-0.11962196
26	0x3d20ce24	0.03925909
27	0x3d2435c2	0.04009033
28	0x3ceff4f9	0.029291617
29	0x3e13ceac	0.14434308
30	0x3dc8a2fb	0.09796711
31	0xbdc172ad	-0.09445701
32	0x3d1564ff	0.03647327
33	0xbd6afe4a	-0.057371415
34	0x3c2002ea	0.00976632
35	0x3e2f58d4	0.17123729
36	0x3dfde15d	0.123965
37	0xbcf8b28f	-0.03035858
38	0x3da73a45	0.08165411
39	0xbae933eb	-0.0017791962
40	0x3d92a7e1	0.071609266
41	0xbc6cce36	-0.014453461
42	0xbd9e0d20	-0.07717347
43	0xbd84e22a	-0.0648845
44	0xbd6df566	-0.05809536
45	0x3e07c64b	0.13259237
46	0xbd371619	-0.04469881
47	0xbe2a84df	-0.16652249
48	0xbd18604a	-0.037201203
49	0x3d4790e8	0.048722178
50	0x3e191324	0.14948708
51	0xbd858e5f	-0.06521296
52	0x3db73f90	0.089476705
53	0x3dbabd20	0.09118104
54	0x3c1c91b5	0.009556224
55	0x3e0c638e	0.13709852
56	0xbe000093	-0.12500219
57	0x3e2450bb	0.16046421
58	0xbe09b76c	-0.13448876
59	0xbbb3a403	-0.005482198
60	0xbca3830c	-0.019959949
61	0xbd5c293c	-0.05375026
62	0x3b4ac3c8	0.0030939449
63	0x3dba54fd	0.090982415
64	0x3e1bcd69	0.15215077
65	0x3df6795d	0.12034867
66	0x3e252066	0.1612564
67	0xbde63a31	-0.11241568
68	0x3d89c144	0.067263156
69	0x3dbfcb17	0.09364908
70	0xbd67fd3d	-0.05663799
71	0x3d53fbd2	0.051753826
72	0xbe02dd16	-0.1277965
73	0x3da1c7a7	0.07899409
74	0x3d035206	0.032060646
75	0xbd714a37	-0.058908667
76	0xbd0f22ea	-0.034945406
77	0x3e1e6eb2	0.15471914
78	0xbc105f24	-0.008811746
79	0x3e1db8cf	0.1540253
80	0xbd5126aa	-0.051062264
81	0xbd50cd75	-0.05097719
82	0xbde55651	-0.11198104
83	0x3ddbb958	0.10728711
84	0xbde83d92	-0.113398686
85	0x3da72dad	0.08163009
86	0xbad56f26	-0.0016283735
87	0x3c7dd9ad	0.0154937925
88	0x3e21954c	0.15779608
89	0x3e11a9b5	0.14224894
90	0xbda82a16	-0.08211152
91	0xbd0d30c0	-0.03447032
92	0x3e200754	0.15627795
93	0xbd86a7e7	-0.065749936
94	0xbd1ea1b0	-0.038728416
95	0xbdf2bee7	-0.11852818
96	0xbc25cd3d	-0.010119733
97	0xbd8a9ab8	-0.067677915
98	0xbdc8f864	-0.09813002
99	0x3e072560	0.13197851
100	0x3e2f49f7	0.17118059
101	0xbd67a11e	-0.056550138
102	0xbda7e101	-0.08197213
103	0xbda90fd6	-0.082549736
104	0x3d8c6088	0.068543494
105	0x3da2ebec	0.07955155
106	0x3d86075c	0.065443724
107	0x3e0c3f9d	0.13696142
108	0xbd77960e	-0.060445838
109	0x3d054dc3	0.032544862
110	0xbdd23b06	-0.10265164
111	0xbde6fb2d	-0.11278377
112	0xbe04404c	-0.12915152
113	0x3d67540a	0.05647663
114	0x3b413d09	0.0029485843
115	0x3e196498	0.1497978
116	0xbc93e154	-0.01805178
117	0xbda9ca91	-0.082905896
118	0x3df56b7d	0.119833924
119	0x3e42efd6	0.19036803
120	0xbd921f48	-0.07134873
121	0x3e11a7f1	0.14224221
122	0x3d301bdb	0.042995315
123	0xbd503140	-0.05082822
124	0xbdc97b65	-0.09837989
125	0x3e23d6b6	0.15999874
126	0xbdd07aef	-0.10179698
127	0x3db5d3a2	0.088782564
128	0x3e05ffb4	0.13085824
129	0xbd15083e	-0.036384813
130	0xbc8e7734	-0.017390825
131	0xbe010ea8	-0.12603247
132	0x3d459f1e	0.04824745
133	0xbe088451	-0.13331725
134	0xbd3bec6c	-0.045879766
135	0x3df9dab3	0.12199917
136	0x3dbc9046	0.092072055
137	0x3b0cb843	0.0021472133
138	0xbd216695	-0.03940447
139	0x3d2c4943	0.042062055
140	0xbc3a0c71	-0.011355505
141	0xbcdf57f7	-0.027263625
142	0x3c031a09	0.008001813
143	0x3d37ed78	0.044904202
144	0x3dd6eb56	0.104941055
145	0xbe07cb6d	-0.13261195
146	0xbd92c42e	-0.071663246
147	0x3cc6d7cc	0.024272822
148	0x3d84cbb1	0.064841636
149	0x3e042bb8	0.12907302
150	0x3dc6dc46	0.097099826
151	0x3e3d0e1e	0.18462417
152	0x3cd2ec7e	0.025747534
153	0x3e1abddb	0.15111487
154	0x3d418523	0.04724611
155	0xbc141d34	-0.009040166
156	0x3df384ce	0.11890565
157	0xbc85fcef	-0.01635596
158	0xbcf5d86c	-0.030010425
159	0xbc542948	-0.012949295
160	0x3e274913	0.1633647
161	0xbd061307	-0.03273299
162	0x3dd87900	0.10569954
163	0x3b7605ad	0.0037540004
164	0x3e13d94a	0.14438358
165	0xbd857ab0	-0.065175414
166	0xbda0b321	-0.07846666
167	0x3cf7bb19	0.030240582
168	0xbddccf0e	-0.1078168
169	0x3b3e6939	0.0029054417
170	0x3d3794c7	0.04481962
171	0x3d069254	0.032854393
172	0xbd9532e0	-0.07285094
173	0xbdd429f0	-0.103595614
174	0xbca85ee4	-0.02055306
175	0x3e1138d8	0.1418184
176	0x3e36fdcc	0.17870253
177	0x3dcc542d	0.09976993
178	0x3e2ff1cb	0.1718208
179	0xbda80111	-0.082033284
180	0x3dd51c6e	0.10405813
181	0x3e13275d	0.14370485
182	0x3c813fd7	0.015777512
183	0x3d1d5333	0.038409423
184	0x3da91b1e	0.08257125
185	0xbdf7c0cc	-0.1209732
186	0x3dfc03df	0.12305426
187	0xbe0986cd	-0.13430329
188	0x3e02be35	0.1276787
189	0x3d0cdf30	0.034392536
190	0x3dc0d871	0.09416283
191	0x3c2c3f6b	0.010513167
192	0xbcafb15d	-0.021446878
193	0x3aba7cca	0.0014227864
194	0x3d0748b0	0.033028305
195	0x3ddf019b	0.10888978
196	0x3addff40	0.0016937032
197	0xbe108aa4	-0.14115387
198	0xb9925062	-0.0002790718
199	0xbdb39689	-0.08768947
200	0x3d56b360	0.05241716
201	0x3e2164e7	0.15761147
202	0x3e14f804	0.14547735
203	0xbcafefd4	-0.021476664
204	0xbde4c602	-0.111705795
205	0x3c38e176	0.011284223
206	0x3cfddb66	0.030988406
207	0xbd52f943	-0.051507246
208	0xbe0ccff4	-0.13751203
209	0x3d9e71b8	0.07736534
210	0x3dc9741f	0.098366015
211	0xbd4b41a2	-0.04962314
212	0x3e0bbb06	0.13645563
213	0x3e2357c2	0.15951446
214	0xbdc875d2	-0.097880974
215	0xbd3ebdaa	-0.046567596
216	0x3e2eab59	0.17057551
217	0xbda61308	-0.08109099
218	0xbd9624a1	-0.07331205
219	0x3d87447c	0.06604859
220	0x3d8ab8c9	0.06773526
221	0x3d2b8889	0.041878257
222	0xbd1a481c	-0.037666425
223	0xbcff8b27	-0.031194283
224	0x39fdd320	0.0004841322
225	0x3cba1629	0.022715645
226	0x3ab771a7	0.0013995663
227	0x3dc67015	0.09689347
228	0x3e030d4a	0.12798038
229	0x3d62999a	0.055322267
230	0xbd9cc1d5	-0.07654158
231	0xbccd20a6	-0.025039982
232	0x3d776338	0.060397357
233	0xbb7601f5	-0.0037537788
234	0xbdde2cfc	-0.10848424
235	0xbdb7f703	-0.089826606
236	0x3e1ca6bb	0.15297978
237	0x3d8a7d30	0.06762159
238	0xbbab0eec	-0.0052202847
239	0x3dd3f624	0.10349682
240	0x3e249318	0.16071737
241	0x3decc33f	0.11560678
242	0x3d383dfe	0.044980995
243	0xbc8b7e6e	-0.01702806
244	0xbb210975	-0.0024572287
245	0x3cce31e5	0.025170276
246	0x3c3e3a25	0.011610542
247	0xbdfda4bc	-0.12384936
248	0xbe06be75	-0.13158591
249	0x3ab379d9	0.001369293
250	0x3dbaa683	0.09113791
251	0xbc0671b8	-0.008205824
252	0xbdfd4492	-0.123665944
253	0x3e1f7c1a	0.15574685
254	0x3db03b3e	0.086050496
255	0x3e2738fa	0.16330329

weight f4 [128, 256]
0	0xbd34f5f2	-0.044179864
1	0xbc6a1b25	-0.014288698
2	0x3cc5f3cb	0.024164101
3	0x3c7d42a4	0.015457783
4	0xbd4e0cc4	-0.050305143
5	0xbd0f82e8	-0.03503695
6	0x3ce5a47e	0.028032538
7	0xbd6a31a6	-0.057176255
8	0x3d170aab	0.03687541
9	0xbcd70496	-0.026247304
10	0xbccc0865	-0.024906347
11	0x3d703d48	0.058652192
12	0xbcd3d960	-0.025860488
13	0x3cfd2bf6	0.030904751
14	0xbd3e3de3	-0.04644574
15	0x3d556f70	0.05210823
16	0x3d7c1fb2	0.061553665
17	0xbd3133d1	-0.043262307
18	0xbcc1accf	-0.023641972
19	0xbcdb27ea	-0.026752431
20	0x3cc205fe	0.023684498
21	0xbd342b62	-0.043986686
22	0x3c298fb3	0.010349202
23	0xbb5e3a26	-0.003390917
24	0xbd93852b	-0.07203134
25	0xbcdfb8a0	-0.027309716
26	0x3d32a47c	0.043613896
27	0x3d21c80d	0.039497424
28	0x3d6f24e7	0.058384802
29	0xbbc94065	-0.0061417096
30	0x3c8c5ddd	0.017134601
31	0xbb8ae49d	-0.0042386786
32	0xbd0a5f59	-0.033782337
33	0x3d05e65d	0.032690395
34	0xbd5d4bba	-0.054027297
35	0xbca76c29	-0.020437317
36	0x3d4ec18b	0.050477546
37	0xbd7a8e61	-0.06117094
38	0xbd24d920	-0.04024613
39	0x3ba58ec8	0.0050524212
40	0xbbc79d84	-0.0060917754
41	0x3b2ec16c	0.0026665581
42	0x3cf00385	0.029298553
43	0x3ca6a82d	0.020343864
44	0x3da3b8e4	0.079942495
45	0x3d7e5161	0.062089328
46	0x3bd26d70	0.0064217374
47	0x3c4c7389	0.012478718
48	0xbbbfa4cf	-0.005848504
49	0xb9cf5635	-0.00039546346
50	0x3d178ca5	0.036999363
51	0xbc70db3f	-0.01470071
52	0x3cd6a109	0.026199834
53	0x3d90be97	0.07067602
54	0xbcf2c8d6	-0.029636782
55	0xbc4bb3d2	-0.012433009
56	0x3d6e840a	0.05823139
57	0x3d70bf0e	0.058775954
58	0x3c920eba	0.017829288
59	0xbca583cd	-0.02020445
60	0xbb8d4720	-0.0043114573
61	0xbd57003e	-0.052490465
62	0xbd141b8c	-0.036159083
63	0x3c8eccb6	0.017431598
64	0x3ba3d1f8	0.0049993955
65	0x3d5cfb6e	0.05395072
66	0x3c93107c	0.017952196
67	0x3d537626	0.051626347
68	0x3cb0b3dd	0.02157014
69	0x3d21e91a	0.039528944
70	0xbd219c06	-0.039455436
71	0x3d3cd213	0.04609878
72	0xbce02e8e	-0.027365949
73	0x3d170387	0.0368686
74	0xbc21b3f9	-0.009869569
75	0x3d8e5f39	0.06951756
76	0xbd19ab95	-0.03751715
77	0xbca60c04	-0.020269401
78	0x3d598520	0.053105474
79	0x3d76e86a	0.06028024
80	0x3ccdd4a4	0.025125809
81	0xbd5e1a0b	-0.054224055
82	0xbc869e1c	-0.016432814
83	0xbc92f0ac	-0.017937027
84	0x3d51d53a	0.05122874
85	0xbae3ada5	-0.0017370476
86	0x3cf66f6a	0.030082423
87	0xbd167c7a	-0.036739804
88	0x3c61b63f	0.013776361
89	0xbd3a6f9f	-0.045516606
90	0x3c9f499b	0.019444278
91	0x3c9c2395	0.019059936
92	0x3ca68245	0.02032579
93	0xbbef3489	-0.007299964
94	0xbcd30264	-0.025757976
95	0x3cdffa23	0.027340954
96	0x3c9f065c	0.019412212
97	0x3b9f1713	0.0048550456
98	0x3cd26016	0.025680583
99	0x3d8a7948	0.06761414
100	0x3d6dd6b4	0.058066085
101	0x3c9127f0	0.017719239
102	0xbb5686f0	-0.0032734238
103	0xbce72073	-0.028213715
104	0x3d643a7f	0.05571985
105	0xbd33407c	-0.04376267
106	0x3c3bad09	0.011454829
107	0xbd846e1d	-0.06466315
108	0xbd388366	-0.045047186
109	0xbb880fb1	-0.004152261
110	0xbc255889	-0.010091909
111	0x3ac09bb0	0.0014694836
112	0x3d64d030	0.055862606
113	0xbaad5a0c	-0.0013225689
114	0xbbd6cdcb	-0.006555294
115	0xbd019b4d	-0.031642247
116	0xbd417222	-0.047227986
117	0xbd24c9d6	-0.04023155
118	0xbcf2b51a	-0.029627372
119	0x3d067927	0.032830384
120	0x3d284c60	0.041088462
121	0x3c9fae61	0.01949233
122	0xbd1fd4a7	-0.03902116
123	0x3d806dd4	0.06270948
124	0xbc58674b	-0.013208221
125	0xbc31e7fb	-0.010858531
126	0xbd88e6a5	-0.06684617
127	0x3d570625	0.052496094
128	0xbd3dd67c	-0.046347126
129	0x3d36c45a	0.04462085
130	0x3bd3cc30	0.00646355
131	0x3d8d3d21	0.06896425
132	0x3d736ea0	0.059431672
133	0xbbd56a96	-0.00651295
134	0x3bdf2ab6	0.0068105115
135	0xb9ee2bb5	-0.00045427462
136	0x3d332a22	0.043741353
137	0xbbc1c511	-0.0059133847
138	0x3cdc9761	0.026927652
139	0x3c6e954d	0.014561963
140	0xbd15246a	-0.03641168
141	0x3c999760	0.018748939
142	0x3b52b76a	0.003215278
143	0xbba2f454	-0.004972974
144	0xbc267b7a	-0.010161275
145	0x3d91fc8e	0.07128249
146	0xbd122b8b	-0.035686057
147	0x3d8c03f2	0.0683669
148	0x3cc89bb6	0.024488311
149	0x3d7de097	0.061981764
150	0xbd08bc41	-0.033382658
151	0xbc88206f	-0.016617028
152	0x3d44f742	0.048087366
153	0x3d29fee8	0.041502863
154	0x3c48d3d6	0.012257537
155	0xbd310a24	-0.04322256
156	0x3cd15dfb	0.025557509
157	0x3d38ca48	0.045114785
158	0x3d26d0e5	0.04072656
159	0x3c04caaa	0.0081049595
160	0x3d034464	0.032047644
161	0x3c711f18	0.014716886
162	0xbd66bce1	-0.056332473
163	0x3d9e23f9	0.07721705
164	0xbca23b4d	-0.019803667
165	0xbc084da0	-0.0083192885
166	0xba88d8ce	-0.0010440589
167	0x3cd129a5	0.025532553
168	0x3d5ec4ad	0.054386783
169	0xbce603c1	-0.028077962
170	0x3d766b5f	0.06016099
171	0x3b91a43b	0.0044446266
172	0x3cd0d3cc	0.025491618
173	0x3d7cd88c	0.061729953
174	0xbd7bebf0	-0.061504304
175	0xbd6aef32	-0.05735702
176	0xbc7b2967	-0.015329695
177	0x3d718b93	0.058971
178	0x3bd66ce1	0.006543741
179	0x3d7501fc	0.059816346
180	0xbca3b28e	-0.019982602
181	0x3c631c75	0.013861765
182	0x3a47ce88	0.0007622023
183	0xbcdcf25f	-0.02697104
184	0xbb1b2c1f	-0.0023677421
185	0xbb7b26fe	-0.0038322802
186	0x3c578288	0.01315368
187	0x3d39150f	0.0451861
188	0xbd2624b9	-0.040562365
189	0x3d219fdb	0.03945909
190	0x3d035613	0.03206451
191	0xba33bdf7	-0.0006856615
192	0xbd21f23a	-0.039537646
193	0xbd89b31e	-0.06723617
194	0x3d2c3e91	0.042051855
195	0xbc5c780d	-0.013456357
196	0xbd270b75	-0.04078241
197	0x3c8405b4	0.016116
198	0x3d5a4172	0.05328507
199	0x3c4d885d	0.012544719
200	0xbccdfbeb	-0.025144538
201	0xbc9802ca	-0.018556017
202	0xbcd261a0	-0.025681317
203	0x3d88be27	0.06676894
204	0xbd6e8053	-0.05822785
205	0x3d97c8a3	0.07411315
206	0xbd0b1968	-0.033959776
207	0xbcd524e7	-0.026018573
208	0xbd609ec8	-0.054838926
209	0x3d78360a	0.06059841
210	0xbcf85f40	-0.030318856
211	0x3bd05b0e	0.006358511
212	0x3d1c842b	0.038211983
213	0x3c6b1276	0.014347663
214	0x3b4564d7	0.003011992
215	0x3cc64bb8	0.024206027
216	0xbd8c100b	-0.068389975
217	0x3c12280e	0.008920683
218	0xbcc114b1	-0.023569437
219	0xbd1fbd1f	-0.03899872
220	0x3d9bf74b	0.07615527
221	0x3d766664	0.06015624
222	0x3a0b404e	0.00053120113
223	0x3d8f3b29	0.06993706
224	0x3d34381c	0.043998823
225	0x3d3feff5	0.0468597
226	0x3d142d44	0.03617598
227	0xbd3cf27c	-0.04612969
228	0x3d22468a	0.039618053
229	0x3d8cb3a6	0.06870203
230	0xbc634ce3	-0.013873312
231	0xbda6a514	-0.08136955
232	0x3d5edc7c	0.05440949
233	0xbd27133c	-0.040789828
234	0xbd31ad06	-0.0433779
235	0x3d6cc429	0.05780426
236	0x3c94a69a	0.018145848
237	0xbcd52e5a	-0.026023079
238	0xbd286a88	-0.04111722
239	0xbc399a71	-0.011328326
240	0x3d5a0d3a	0.05323527
241	0x3d650a49	0.05591801
242	0x3d398784	0.045295253
243	0xbd463e38	-0.04839918
244	0x3ce67122	0.028130118
245	0x3d485de9	0.048917685
246	0x3d3ff010	0.0468598
247	0xbc1fc30c	-0.009751093
248	0xbd24f650	-0.040273964
249	0x3d086c5f	0.033306476
250	0xbd595dca	-0.05306796
251	0x3d8e75f3	0.06956091
252	0xbd80a9c7	-0.062823825
253	0xbc4c8a97	-0.012484214
254	0x3d055d08	0.032559425
255	0xbcd44416	-0.025911372

bias f4 [128]
0	0x3d1cd86e	0.03829234
1	0xbd261d76	-0.04055544
2	0x3d45fe43	0.048338186
3	0x3cbc7f6a	0.023009975
4	0x3d86beb2	0.06579341
5	0x3cbf7fa9	0.023376303
6	0xbc9fca06	-0.019505512
7	0x3db16a83	0.086628936
8	0xbd051216	-0.03248795
9	0xbca4074c	-0.02002301
10	0x3ccca755	0.024982134
11	0x3d43c27a	0.04779289
12	0x3d301894	0.04299219
13	0x3d3dc46d	0.046329904
14	0xbcbaed9d	-0.022818381
15	0xbd022253	-0.031771015
16	0x3cf6f3f9	0.030145632
17	0xbcd048ef	-0.025425402
18	0x3d11af36	0.035567485
19	0x3d2d411c	0.04229842
20	0xbd16a226	-0.03677573
21	0x3d8c4b55	0.06850306
22	0xbcef8474	-0.029237963
23	0x3c5abf9e	0.013351349
24	0x3d44ed73	0.04807801
25	0x3d44104a	0.047867097
26	0x3c53fd54	0.012938816
27	0xbd0ed7fb	-0.034873944
28	0x3b195408	0.0023396034
29	0xbc4bc30b	-0.012436639
30	0x3d742827	0.059608605
31	0xbc90beb5	-0.017669061
32	0x3cffeb0c	0.031240009
33	0xbc912ac1	-0.017720582
34	0x3b468cf1	0.003029641
35	0xbd0c2ada	-0.034220554
36	0x3d9a92b8	0.07547516
37	0x3cf97229	0.030449944
38	0x3d91930d	0.07108126
39	0xbd65cb3a	-0.056102015
40	0xbd52c7cd	-0.051460076
41	0x3c544df9	0.012958043
42	0xbd530ac4	-0.05152394
43	0x3d694c7d	0.05695771
44	0xbd489d28	-0.048978
45	0x3d467ea9	0.048460636
46	0xbc3ae862	-0.011407943
47	0xbd14f833	-0.036369514
48	0x3caa0e64	0.020758815
49	0xbd27b80e	-0.040947013
50	0x3d3b0a45	0.04566409
51	0x3baa5eaa	0.005199273
52	0x3d6e1329	0.05812374
53	0x3d9062d6	0.070501015
54	0x3d87d815	0.06633011
55	0xbd031a1f	-0.032007333
56	0x3cf879f8	0.030331597
57	0xbd472a6b	-0.048624437
58	0xbd0f1389	-0.03493074
59	0xbcfc0fd6	-0.03076927
60	0xbcc93bd0	-0.024564654
61	0x3cb94b2a	0.022618849
62	0xbc8fee1c	-0.017569594
63	0xbc7c44c7	-0.015397257
64	0x3d2f9929	0.042870674
65	0x3d3fad84	0.046796337
66	0x3d61724f	0.055040654
67	0x3dac30c5	0.084077395
68	0x3c4d6cbc	0.012538131
69	0xbc680480	-0.014161229
70	0x3d666abc	0.056254134
71	0xbcdd375d	-0.027003938
72	0x3d61cdc1	0.055127863
73	0x3d756389	0.059909377
74	0xbd0ffa67	-0.03515091
75	0x3aec1f7b	0.0018014753
76	0xbb8875e1	-0.004164443
77	0x3d46e0c4	0.048554197
78	0xbb938057	-0.0045013833
79	0xbcfbd8c5	-0.030743012
80	0xbd1f6caa	-0.03892199
81	0x3d5aae89	0.053389106
82	0xbd47e616	-0.04880341
83	0x3d3fcb10	0.046824515
84	0x3d0780f2	0.033081956
85	0x3d0e99db	0.034814697
86	0x3c8a131c	0.016854815
87	0xbca5f759	-0.020259546
88	0x3d1ef096	0.03880366
89	0x3a7e7c1f	0.00097078265
90	0xbd1829b0	-0.03714913
91	0x3c2dab3d	0.010599908
92	0xbd0406d3	-0.03223307
93	0xbd2acc71	-0.041698877
94	0x3d78b81a	0.060722448
95	0x3c7ff063	0.0156212775
96	0xbd4e61ea	-0.050386347
97	0xbc84dd8f	-0.016218929
98	0xbd26e882	-0.04074908
99	0x3c57c2b3	0.0131689785
100	0x3d48af44	0.04899527
101	0xbb602300	-0.003420055
102	0x3d702eb4	0.05863829
103	0xbbe0794b	-0.0068503967
104	0x3cb51c33	0.022108173
105	0xbb9ea104	-0.004840972
106	0x3d416c60	0.047222495
107	0xbccc0135	-0.02490292
108	0xbd3307b2	-0.04370851
109	0x3cdd742b	0.027032932
110	0x3d8729da	0.065997794
111	0xbd727d94	-0.059201792
112	0x3cd06799	0.025440024
113	0x3c9060b3	0.017624235
114	0xbbd10e8c	-0.006379908
115	0xbd56a52b	-0.05240361
116	0xbc0428d7	-0.008066378
117	0xbd21a429	-0.039463196
118	0xbc4e004c	-0.012573313
119	0x3b8f7b85	0.0043787383
120	0x3d854fcf	0.06509363
121	0xbcc37535	-0.0238596
122	0x3d3ac7b1	0.045600597
123	0x3cadb642	0.021205071
124	0xbbe9a73a	-0.0071305307
125	0x3d82b479	0.06382079
126	0x3c13af92	0.009014027
127	0x3d820775	0.063490786

weight f4 [64, 128]
0	0x3c86a483	0.016435867
1	0xbd9473b0	-0.07248628
2	0x3db477ba	0.088118985
3	0xbbab89b2	-0.0052349204
4	0x3c7a46de	0.015275685
5	0x3c94a43f	0.018144725
6	0xbdc487ac	-0.0959619
7	0xbd8a98a9	-0.06767399
8	0xbd33ae4c	-0.043867394
9	0x3d787a78	0.06066367
10	0x3c422494	0.011849541
11	0x3da8e578	0.08246893
12	0xbbccee26	-0.0062539754
13	0x3968c69a	0.00022199229
14	0x3d8d2bc6	0.06893115
15	0x3c9ccd6d	0.019140923
16	0xbce21af2	-0.02760074
17	0x3bc8d64c	0.006129062
18	0xbcd134fd	-0.025537962
19	0xbd3a7f8a	-0.045531787
20	0xbc6d76a9	-0.014493623
21	0xbd810558	-0.06299847
22	0xbde59d13	-0.112116
23	0x3a1ed733	0.0006059289
24	0xbd30ff19	-0.04321203
25	0xbdbb2f9a	-0.09139939
26	0xbdac520e	-0.08414088
27	0x3da2e47a	0.07953735
28	0xbd3802e3	-0.044924628
29	0xbd4b2a0c	-0.049600646
30	0x3d596eed	0.053084303
31	0x3d051431	0.03248996
32	0xbd07707c	-0.033066258
33	0xbd679a17	-0.056543436
34	0xbd886e79	-0.06661696
35	0x3d850682	0.06495382
36	0xbcf60acc	-0.030034445
37	0xbdb5557a	-0.08854194
38	0xbd896133	-0.067079924
39	0xbc20a9d3	-0.009806114
40	0xbd6e089e	-0.058113687
41	0x3c8fa52c	0.017534815
42	0xbd9c1124	-0.07620457
43	0x3c9af133	0.01891384
44	0xb988c079	-0.00026083345
45	0x3b2c068d	0.0026249022
46	0xbd28c0a7	-0.041199353
47	0x399fb51a	0.00030461774
48	0x3d36cfe8	0.04463187
49	0x3d64a06a	0.055817045
50	0x3dcf3fc6	0.10119586
51	0x3d5884cc	0.05286102
52	0x3da03949	0.07823426
53	0xbd3f6e90	-0.0467363
54	0xbd3f4230	-0.04669398
55	0xbdc0188f	-0.09379684
56	0xbdb87ad2	-0.09007801
57	0xbd47071d	-0.048590768
58	0x3d71163e	0.058859102
59	0xbd80632b	-0.06268915
60	0xbd408902	-0.04700566
61	0x3b3349dd	0.0027357258
62	0xbcb34784	-0.021884687
63	0xbcee3f4b	-0.029082915
64	0x3db79ffe	0.08966063
65	0x3b4b1c8d	0.003099236
66	0xbbb0c6de	-0.0053948006
67	0xbd4b9bf1	-0.049709264
68	0x3d722c8f	0.059124526
69	0xbd95ea28	-0.073200524
70	0xbd84c571	-0.064829715
71	0xbbce77ac	-0.006300887
72	0x3dc66b4f	0.09688436
73	0x3d97f5b9	0.07419915
74	0x3c16b791	0.009199039
75	0x3d935e72	0.071957484
76	0x3d197ce5	0.037472624
77	0xbb965f61	-0.004589007
78	0x3d8f8391	0.07007516
79	0xbcc4c465	-0.02401943
80	0x3c666eed	0.014064533
81	0xbd47ef58	-0.04881224
82	0xbda65d07	-0.08123212
83	0xbccb5116	-0.024818938
84	0x3d5544c1	0.052067522
85	0xbca72c59	-0.020406889
86	0xbd8ac214	-0.06775299
87	0x3d2c6e1b	0.042097192
88	0xbcaddb76	-0.021222811
89	0x3daca26a	0.084294155
90	0x3c3e5945	0.011617963
91	0x3d39ccc3	0.04536129
92	0x3d8b1529	0.06791145
93	0x3d8a47e3	0.067519926
94	0x3dd657cb	0.10465964
95	0x3d0d5df8	0.034513444
96	0x3c3d5cd8	0.01155778
97	0xbb268fd4	-0.0025415318
98	0xbc87d8a6	-0.016582798
99	0xbc348a4f	-0.011019303
100	0xbd388f94	-0.0450588
101	0x3d9a096a	0.07521327
102	0xbd9aac7c	-0.0755243
103	0x3da361ac	0.07977614
104	0xbca754fa	-0.020426262
105	0x3d3c2f22	0.045943387
106	0x3cba1aa8	0.022717789
107	0xbb99ab1c	-0.0046895873
108	0x3d00af30	0.03141707
109	0xbdb10c8c	-0.08644971
110	0x3d696886	0.056984447
111	0xbd231a91	-0.039820258
112	0x3d176b42	0.036967523
113	0xbd662356	-0.056186043
114	0x3d24914a	0.04017762
115	0xbcda4382	-0.026643518
116	0xbcb8b870	-0.022548884
117	0xbb3c13f3	-0.0028698414
118	0xbd8be34f	-0.06830465
119	0xbd97ed54	-0.074183136
120	0xbda12982	-0.07869245
121	0xbd73c2bc	-0.059511885
122	0xbcec797d	-0.028866524
123	0x3a20a308	0.0006127809
124	0x3db8ff46	0.090330645
125	0x3c4226cb	0.011850069
126	0x3cc86471	0.024461957
127	0xbd1573ae	-0.036487274
128	0xbd200a6a	-0.03907243
129	0x3d3656ed	0.044516493
130	0x3d730ced	0.0593385
131	0x3cfbca74	0.030736186
132	0xbd18184d	-0.03713255
133	0x3d1bc3f3	0.03802867
134	0x3d7e0852	0.062019654
135	0x3d80794e	0.06273137
136	0xbd2e51cc	-0.042558476
137	0x3dbaa58b	0.09113606
138	0xbdc7fc7b	-0.09764954
139	0x3aab498a	0.0013068181
140	0x3cdb43ee	0.02676579
141	0x3d250adf	0.04029357
142	0xbc70d40d	-0.014698994
143	0x3d7a03ee	0.061038904
144	0xbd6a4ecb	-0.05720405
145	0xbb3f04e0	-0.0029147193
146	0xbc9bfc47	-0.019041194
147	0x3d0a98b9	0.033837054
148	0x3d2bf782	0.04198409
149	0xbba75625	-0.005106705
150	0x3d354b3d	0.044261206
151	0x3d779c72	0.060451932
152	0xbcf656be	-0.030070659
153	0x3d947e72	0.0725068
154	0xbd11ea3e	-0.03562378
155	0xbd2169f5	-0.03940769
156	0xbd744e1c	-0.059644803
157	0xbbc99aeb	-0.006152501
158	0xbc6a2c3a	-0.014292771
159	0x3dd2b2c0	0.10288
160	0x3b9fa714	0.004872212
161	0x3d453152	0.04814274
162	0x3db32372	0.08746995
163	0xbd8e4bc5	-0.06948046
164	0x3dbcc23d	0.092167355
165	0xbd608e04	-0.054822937
166	0xbd64f542	-0.05589796
167	0x3da653ca	0.0812145
168	0xbdd3e913	-0.1034719
169	0x3d3283f2	0.043582864
170	0xbdd20d4e	-0.10256444
171	0xbd6c8550	-0.057744324
172	0x3cc08cbd	0.02350461
173	0xbd5bba9c	-0.05364476
174	0x3d49f8a3	0.049309384
175	0x3d5a2945	0.053262014
176	0xbd047d28	-0.03234592
177	0x3d9d3db8	0.076777875
178	0xbd98a20c	-0.07452783
179	0x3daab17e	0.08334635
180	0xbba2c992	-0.0049678767
181	0xbd80d5e7	-0.06290799
182	0xbc30f228	-0.010799922
183	0x3db027fb	0.08601376
184	0xbd522fa7	-0.051314976
185	0x3da9315d	0.082613684
186	0xbd96026e	-0.07324682
187	0x3ce3cb24	0.027806826
188	0x3ca10164	0.019653983
189	0x3d88b3b7	0.06674903
190	0x3c919192	0.017769609
191	0xbd471919	-0.04860792
192	0x3d2bbc95	0.041927893
193	0x3da6c7b9	0.08143563
194	0x3d0da69a	0.03458271
195	0x3cdc0c59	0.026861357
196	0xbd27eba0	-0.040996194
197	0xbddf450b	-0.10901841
198	0x3da36670	0.07978523
199	0xbbeb3a1a	-0.007178557
200	0x3c71bd8d	0.014754665
201	0x3d9fe484	0.07807258
202	0x3d52cccb	0.051464837
203	0xbcd9a7d2	-0.02656928
204	0xbd6f3023	-0.058395516
205	0x3b3bbcca	0.0028646463
206	0x3d12847f	0.03577089
207	0x3b89b3ed	0.004202357
208	0x3d80775c	0.06272766
209	0x3cff5bc2	0.031171683
210	0xbc44302a	-0.011974374
211	0xbcba88be	-0.022770282
212	0xbd94f212	-0.07272734
213	0x3d858181	0.065188415
214	0xbd4fe96b	-0.050759714
215	0xbdb669a4	-0.08906868
216	0xbc91aad0	-0.017781645
217	0xbd916778	-0.07099813
218	0xbd8dbda0	-0.06920934
219	0xbd571aeb	-0.052515905
220	0x3da20c92	0.07912554
221	0x3d90d8a4	0.07072571
222	0xbcb03fbb	-0.021514764
223	0x3d1b5541	0.0379231
224	0xbdad11b4	-0.08450642
225	0x3cdeb02c	0.027183615
226	0xbcea7fcc	-0.028625391
227	0x3de0f2e6	0.10983829
228	0x3c42293c	0.011850651
229	0x3be4695b	0.006970567
230	0xbd1c7409	-0.038196597
231	0x3daea8c3	0.085282825
232	0x3ceefc51	0.029173048
233	0x3cc66943	0.024220115
234	0xbd7f837e	-0.06238126
235	0xbd59c3b8	-0.053165168
236	0xbc387a59	-0.011259639
237	0x3d08d55f	0.03340661
238	0x3db04e45	0.08608679
239	0xbd8acf93	-0.06777873
240	0x3de7d55c	0.11319992
241	0xbc62d7f3	-0.013845432
242	0xbb14cce5	-0.0022705134
243	0x3d4e3c70	0.050350606
244	0xbce8e72e	-0.028430548
245	0x3d2e6bb6	0.04258319
246	0xbc02353b	-0.007947261
247	0x3d90d2ba	0.07071443
248	0x3cb963b5	0.022630552
249	0x3c372408	0.011178024
250	0xbd950534	-0.07276383
251	0xbd3f6e70	-0.04673618
252	0x3d6e6cb5	0.05820914
253	0x3c604896	0.013689181
254	0x3cc2284c	0.023700856
255	0x3db26050	0.087097764

bias f4 [64]
0	0x3dafdf5f	0.085875265
1	0xbbe2e77e	-0.0069245687
2	0x3c94a028	0.018142775
3	0x3d21c913	0.0394984
4	0x3dc872b0	0.097875
5	0x3ccb6b46	0.024831425
6	0xbcff79c3	-0.03118599
7	0x3c19861c	0.009370353
8	0x3c8c4de8	0.017126992
9	0x3c7c3e25	0.015395676
10	0xbcce2d8a	-0.0251682
11	0x3d742053	0.05960114
12	0xbd9fe068	-0.07806474
13	0xbcc31421	-0.02381331
14	0x3d26ada9	0.04069296
15	0x3db67e89	0.089108534
16	0x3c6f7c9c	0.0146171115
17	0x3dabd89b	0.083909236
18	0x3d6a6f1e	0.057234876
19	0xbd36fb9f	-0.04467356
20	0xbd0eb9c2	-0.03484512
21	0x3c5b5f08	0.013389356
22	0xbd48fe6f	-0.04907077
23	0x3da623c8	0.081122935
24	0x3cb96a0e	0.022633579
25	0x3d5e8faf	0.054336246
26	0xbd954003	-0.072876
27	0x3c8f109c	0.017463975
28	0x3c488bba	0.012240345
29	0x3d55743b	0.0521128
30	0xbd701da1	-0.058622006
31	0xbc657663	-0.014005276
32	0x3d26f02c	0.04075639
33	0xbd8cdead	-0.068784095
34	0x3d37fa20	0.044916272
35	0x3d8572eb	0.065160595
36	0x3ba959af	0.005168162
37	0x3d298b94	0.041392878
38	0xbd0be3fe	-0.034152977
39	0x3db5fc03	0.08885958
40	0x3da109aa	0.078631714
41	0xbd9d08a2	-0.07667662
42	0xbda26f4f	-0.07931387
43	0xbc4ac64c	-0.012376379
44	0x3d3df72a	0.046378292
45	0xbd9a1fcd	-0.07525597
46	0xbcad079b	-0.02112179
47	0x3cf5f52e	0.030024137
48	0x3c975fda	0.018478323
49	0x3dc4ce09	0.096096106
50	0x3b0d1955	0.0021529992
51	0x3da1e362	0.07904698
52	0x3b76e5cb	0.0037673588
53	0xbd117785	-0.035514373
54	0x3d9faa0a	0.07796104
55	0x3cc19afd	0.023633474
56	0xbc345d98	-0.011008643
57	0x3c11cc29	0.008898773
58	0xbba4dda2	-0.0050313035
59	0xbd47f354	-0.04881604
60	0x3d87c297	0.06628912
61	0xbbe43ec0	-0.006965488
62	0x3b142cf9	0.0022609814
63	0x3d698a20	0.057016492

weight f4 [6, 64]
0	0x3a8d3288	0.0010772506
1	0xbdd5d196	-0.10440366
2	0xbdf386d8	-0.11890954
3	0xbe09dc57	-0.13462959
4	0xbe085738	-0.13314521
5	0xbdd82129	-0.105532
6	0x3dd2ef78	0.10299581
7	0xbdd66492	-0.10468401
8	0xbda6918d	-0.0813323
9	0x3cee87ff	0.029117582
10	0xbdf2edc5	-0.11861757
11	0x3cf671d5	0.030083576
12	0xbd85dcf5	-0.06536285
13	0xbdfd6d7b	-0.12374397
14	0x3d25b532	0.040456004
15	0xbde0ce24	-0.10976818
16	0xbc1787b1	-0.00924866
17	0xbddd9751	-0.10819877
18	0x3d8ff335	0.0702881
19	0x3d92c267	0.071659856
20	0xbe1498e8	-0.14511454
21	0xbd173c82	-0.03692294
22	0x3ce8e9b2	0.028431747
23	0xbdd81cf6	-0.10552399
24	0x3dd3a861	0.1033485
25	0xbd52122d	-0.051286865
26	0xbd14549a	-0.036213495
27	0x3dcb5ad6	0.09929435
28	0x3cada7d7	0.021198196
29	0xbd9a679c	-0.07539293
30	0xbadc0e53	-0.0016788937
31	0xbc965276	-0.018349867
32	0x3c52a9cd	0.0128578665
33	0x3cf540b7	0.029938085
34	0xbd480b74	-0.048839048
35	0x3ca715b6	0.020396095
36	0x3db1b5f8	0.08677286
37	0x3d252883	0.040321838
38	0xbd842d7b	-0.06453987
39	0xbdb63160	-0.08896136
40	0xbbbef99d	-0.005828096
41	0x3dd0f7c2	0.10203506
42	0x3db92428	0.090400994
43	0xbd4aa74b	-0.04947595
44	0xbcb59f8e	-0.022170808
45	0xbd8f354e	-0.06992589
46	0xbd65eea3	-0.056135785
47	0x3dd2080f	0.10255443
48	0x3d0b7d7b	0.034055214
49	0xbd558538	-0.052129
50	0x3dde26f0	0.108472705
51	0xbe0cfbbb	-0.13767903
52	0xbd2cfa7a	-0.04223106
53	0xbe1f28b2	-0.15542868
54	0xbe1f440a	-0.15553299
55	0xbcb17864	-0.021663852
56	0xbe0d2217	-0.13782535
57	0x3d18bc7a	0.03728912
58	0x3cf06db0	0.029349178
59	0x3de1baf2	0.11021985
60	0xbdc74967	-0.09730797
61	0xbddf67eb	-0.10908493
62	0x3dcd2a63	0.1001785
63	0xbde342da	-0.11096735
64	0x3d6463c8	0.05575922
65	0x3de441ec	0.11145386
66	0xbe055502	-0.13020709
67	0xbdb5f053	-0.08883729
68	0xbd804d6d	-0.06264768
69	0x3da07411	0.07834638
70	0x3d9099c5	0.07060579
71	0xbd2b916b	-0.04188673
72	0x3def77ff	0.11692809
73	0x3dd2cdd5	0.102931656
74	0xbd81e955	-0.06343333
75	0x3db864a8	0.09003574
76	0xbd8817f2	-0.06645192
77	0x3e012bfe	0.12614438
78	0x3dce2d08	0.10067183
79	0xbe0f12fb	-0.13972084
80	0xbd2de5af	-0.04245537
81	0xbde7e77b	-0.11323448
82	0x3d982d11	0.07430471
83	0x3c96b212	0.018395457
84	0x3d8b40f0	0.06799495
85	0xbd14c72c	-0.036322758
86	0x3d6828fd	0.056679714
87	0xbdb6195e	-0.08891557
88	0xbdece935	-0.11567918
89	0xbdcb0a62	-0.0991409
90	0x3d715839	0.058922026
91	0x3d97a2d2	0.074041024
92	0x3cf3fb97	0.029783053
93	0x3dae7f93	0.085204266
94	0x3db7bae2	0.08971192
95	0xbd6b2817	-0.05741128
96	0xbcdb44ef	-0.026766269
97	0xbd714bae	-0.058910064
98	0x3e169253	0.14704256
99	0xbe1185ba	-0.14211169
100	0x3d49aff1	0.049240056
101	0xbd8c1a0d	-0.06840906
102	0xbdc7553e	-0.097330555
103	0xbd2614f2	-0.04054732
104	0x3d9a483c	0.07533309
105	0xbdccc3f6	-0.09998314
106	0xbc135b54	-0.008993942
107	0x3e16b0bd	0.14715858
108	0xbd731c9c	-0.059353456
109	0x3c901acc	0.017590903
110	0xbbf22d31	-0.007390641
111	0xbcad3c51	-0.021146925
112	0x3df196a5	0.11796311
113	0xbdc2240a	-0.0947953
114	0x3d978620	0.07398629
115	0xbbeb2c4e	-0.0071769124
116	0xbe1b618c	-0.1517393
117	0x3d4bd66f	0.049765047
118	0xbccff94e	-0.025387432
119	0x3c92d0e3	0.01792187
120	0x3d2963b7	0.04135486
121	0xbde000ff	-0.1093769
122	0x3c9c4434	0.01907549
123	0xbd7fc35f	-0.06244218
124	0x3dc8affe	0.09799193
125	0xbe0a3088	-0.13495076
126	0xbd2e443f	-0.042545553
127	0x3dd68c62	0.10475995
128	0xbd8e6ac0	-0.06953955
129	0x3d6f860b	0.058477443
130	0x3dde78d2	0.108628884
131	0x3daca03e	0.08429001
132	0xbd523677	-0.051321473
133	0xbdee58f5	-0.11638061
134	0x3df82ab8	0.12117523
135	0x3daaa4b2	0.083321944
136	0x3d8487b0	0.06471193
137	0x3c1e0506	0.009644752
138	0x3d90b5dd	0.07065938
139	0xbe216e87	-0.15764819
140	0x3deaa5d3	0.1145741
141	0xbdf11495	-0.11771504
142	0x3dc0347c	0.093850106
143	0xbd3a41f0	-0.04547304
144	0xbd11889a	-0.035530664
145	0x3dac595f	0.08415484
146	0x3daa7419	0.08322925
147	0xbe0f53b7	-0.13996778
148	0xbb7488bc	-0.0037312945
149	0xbd87366d	-0.06602178
150	0xbdedc495	-0.11609761
151	0xbdbbe9f4	-0.091754824
152	0xbde2fcae	-0.11083351
153	0xbcaedb9e	-0.021344956
154	0x3daf028e	0.08545409
155	0xbdcf2e28	-0.101162255
156	0x3de583f7	0.11206811
157	0x3d064646	0.03278186
158	0xbdaf08b5	-0.085465826
159	0xbdd1f576	-0.10251896
160	0x3df9bab9	0.12193818
161	0xbb7868a4	-0.0037904168
162	0xbe268612	-0.16262081
163	0x3df52f08	0.11971861
164	0x3df62900	0.12019539
165	0x3da3ab13	0.07991614
166	0xbdbb9892	-0.0915996
167	0x3df74eb5	0.12075559
168	0x3dd678e4	0.10472277
169	0xbd074ad8	-0.03303036
170	0xbb329f3d	-0.0027255558
171	0xbdce4329	-0.100714035
172	0x3d2cf605	0.04222681
173	0xbd165856	-0.036705337
174	0x3d64602a	0.05575577
175	0xbdac3906	-0.08409314
176	0xbd896f6c	-0.06710705
177	0xbd13fcd2	-0.03612978
178	0xbbb44b36	-0.00550213
179	0x3dc40ceb	0.095727764
180	0xbd3763db	-0.044772964
181	0xbc64d0da	-0.01396581
182	0xbd56b331	-0.052416984
183	0xbd88d0ad	-0.06680427
184	0x3da98f59	0.082792945
185	0x3d29dc16	0.041469656
186	0x3d01da02	0.03170205
187	0xbdd9cc8d	-0.10634718
188	0x3e1af821	0.15133716
189	0xbd0b7cdc	-0.034054622
190	0x3dedfad0	0.11620104
191	0xbdb6d818	-0.08927935
192	0xbdb3aaf0	-0.08772838
193	0x3d7caba2	0.06168712
194	0xbc7e79bc	-0.015531953
195	0xbe08c9d9	-0.13358249
196	0xbd53a287	-0.05166867
197	0x3d4302cb	0.047610085
198	0x3d7feb71	0.062480394
199	0x3e0a41ae	0.13501617
200	0xbcb0f656	-0.021601837
201	0x3c3c7b9c	0.01150408
202	0xbd8c7ef3	-0.06860151
203	0x3c0e66a4	0.008691464
204	0x3dfc183c	0.1230931
205	0x3d440571	0.04785675
206	0x3decf1dd	0.11569569
207	0x3b4a1ca3	0.0030839823
208	0x3e0795aa	0.13240686
209	0x3dd00707	0.1015759
210	0x3d067ed1	0.032835785
211	0xbdffae77	-0.124844484
212	0xbe21e182	-0.1580868
213	0x3dbff9e2	0.09373833
214	0x3cb51f82	0.02210975
215	0x3d9f2a57	0.077717476
216	0xbd649fa9	-0.055816326
217	0xbd92ea07	-0.071735434
218	0x3e1c2cc9	0.15251459
219	0x3d9405f7	0.072277
220	0x3d5f485d	0.05451237
221	0x3db35af0	0.08757579
222	0xbd56eb52	-0.052470513
223	0xbdd79616	-0.105266735
224	0x3d8a202a	0.06744416
225	0x3dc322b6	0.09528105
226	0xbe06b9f0	-0.13156867
227	0xbde750a1	-0.112946756
228	0x3d27f3e1	0.041004065
229	0xbd811a05	-0.06303791
230	0xbd2ece52	-0.04267723
231	0xbdbd346f	-0.092385165
232	0x3d2f9910	0.04287058
233	0xbe181afb	-0.14854042
234	0x3e134ad4	0.14384013
235	0xbd53461e	-0.05158054
236	0xbdd5ab71	-0.104330905
237	0x3d85192e	0.06498943
238	0x3d6f4788	0.058417827
239	0x3b8527a0	0.0040635616
240	0x3d966ff8	0.07345575
241	0x3caa27e7	0.02077098
242	0xbdd06dd0	-0.10177195
243	0xbe12886d	-0.14309855
244	0x3d1b6016	0.03793343
245	0x3d9c2642	0.076244846
246	0xbca23d6d	-0.01980468
247	0x3df6b01a	0.120453075
248	0xbe228e27	-0.1587454
249	0x3e130320	0.14356661
250	0xbcb56f75	-0.022147873
251	0x3daefcb8	0.08544296
252	0xbde95154	-0.11392465
253	0x3e024bf6	0.1272429
254	0x3d8befb2	0.06832828
255	0x3d78f2b8	0.06077835

bias f4 [6]
0	0x3db78302	0.08960535
1	0x3de496be	0.11161564
2	0xbbd7173d	-0.0065640495
3	0x3dd5d65e	0.10441278
4	0x3d8a39aa	0.0674928
5	0xbcd9189f	-0.026500998
