MLP/MLP_network_bs_16_epoch_300.pkl (torch_old, 211408 bytes, 8 tensors)

weight f4 [256, 38]
00000000: 7752 3ebd 9a1e 8abd 2bfb f3bb 09ce 2dbe
00000010: 6c3a 863d 4d8c b03c 092b b73a ba8d 17be
00000020: d591 c3bd ccea 4d3d 1292 5ebe a367 303e
00000030: 146b 873c 752f 27be 9f78 363d e5ef 1cbd
00000040: dc7d 3bbe 01ba 553d e337 9abe bf6c 253e
00000050: f2b3 0bbe ac85 41be 98b3 42be b240 03be
00000060: 5ef0 69be af53 20be a234 01be 714b 19be
00000070: ac07 2fbc 705e 7a3c da7f 5cbe 826e 0abe
00000080: ad3c 9a3d 2534 6b3c 9cc4 b53d 9f7c 62be
00000090: 65e8 9dbd f2a3 f23c 07d9 41be be8a 21bd
000000a0: 033f 083e a246 59be 8754 33bd b988 9c3d
000000b0: 2303 da3d 24f9 eabd 349b 0a3e eff7 313e
000000c0: 2037 c3bd 0813 e1ba 1ae7 7e3d e948 813d
000000d0: 07b1 12be e3e1 3dbd 8a52 0cbd 4f85 393d
000000e0: ba8b 193c fbc9 bcbd 9811 283e 0039 5ebe
000000f0: 4b63 45bd 3b18 72be 4d1b 21be 69f3 823c
00000100: 5f3c f73d 243d 06bc 6363 123c 1ba8 36bd
00000110: eb01 05be 0beb a33d 2171 82bd 0a93 8e3d
00000120: 8ff5 8f3c bc4e ab3d 457e b5bd 1bf7 313e
00000130: 299f 5d3d dfa5 4f3e 7ef8 223d 9ef2 253e
00000140: 28b9 41be f8de 1c3d db87 4f3e 7a36 f13c
00000150: 9fc8 093e 6f24 debd a713 a3bd 4e78 c63d
00000160: 07e2 13be 13e0 143e b1a0 39be e5f1 093e
00000170: a2ff c4bd d833 7e3e f621 a73d d1b1 91be
00000180: d4c6 3cbe d126 db3d a96b 483d 7f5a dc3d
00000190: 0107 2f3e bf49 253e 9ac2 e8bd 4cc3 a3bd
000001a0: 044e d33c a753 8abd f18f 23be bc93 53bb
000001b0: 9205 2dbe fcee fb3d 7c77 30be 3fcb dc3d
000001c0: 836b 153e 881a cabc 20c3 ae3c 3b3e 04bd
000001d0: a3b3 16be 6053 0e3e 4bc5 f7bc 3402 34bd
000001e0: 1775 073d 1249 173e f465 283e 4344 2f3e
000001f0: f292 26be 5156 4cbd edc8 3e3d a993 923d
00000200: b223 80be ba62 1d3e 98fe 1cbe aed5 213c
00000210: c9da b23d ad72 c53d 5974 ce3d bc56 b5bc
00000220: 3bf2 843d 0f8b 8bbd 316b 04be 4546 31be
00000230: e8b8 03be 7226 863e 6a1d 143d 7858 17be
00000240: 2238 2a3d bd83 82be dee9 413d 0ff1 76bc
00000250: 5f41 c7bd ea38 bc3c c86b 393e eebb 913c
00000260: 694e a03c 1883 043e e036 88bd 3e7a 093e
00000270: 3a7d 853d 486a 88bd 3a09 7a3e 0318 563e
00000280: 1f14 16be 7324 73be c6cf 0a3e 1a88 1f3e
00000290: 7688 1bbe fac3 b43d 5c8e c3be c7f1 2c3d
000002a0: d483 c43d be21 4dbe a125 55be 5b77 93bd
000002b0: 8fae c73d 7bc8 53be 60f0 823e c112 a13c
000002c0: 3d19 b1bc 5ba2 81be 3ed8 0dbe 27e9 203e
000002d0: b8ee 403e bf74 2b3d 5c47 043e e470 7c3d
000002e0: 6a93 0d3d b5b7 123e 0ec5 95bc af74 36be
000002f0: a8aa e7bc b2c3 10be 2755 663e b710 36be
00000300: 6260 8abd aa38 ed3d 056a aebd e0fa e1bd
00000310: 76c2 943e ee81 a6bd 9e14 2cbe 5e18 1c3c
00000320: e49b 32bd b4c1 a7bd cd5e 39be 5a3a bd3d
00000330: a6dd f3bd 342a 483d b0b1 7f3e 7642 83bd
00000340: 5862 c9bd a82a 5c3e 857b 28be 8f6e 60bd
00000350: 62da 8abe 5d85 6d3b 6a05 a63d e7d3 b03d
00000360: 63ea 363e bf03 e2bd fc94 45be 943e 0cbe
00000370: c2a5 423e 28aa b6bd c561 afbd 827e 813e
00000380: 636f 19bd 63bf c6bd bc8a 35be 9233 39bd
00000390: 8bd0 f6bd 39f9 fbbd ceae 04be 060f 893d
000003a0: d43f 4d3c 1840 6abe 55ec a6bd f365 7b3d
000003b0: 765f 2c3e 679a 5dbe f25b 033e 25fd 47be
000003c0: 61f4 143c a3d4 043d e075 b7bd c611 003e
000003d0: 0555 383c 2de4 953c 2e1f 48be 5532 a23e
000003e0: 42f3 2c3e 107b 933e f704 03be ffed 033e
000003f0: 24e5 f03b 7cc0 2a3d 6d88 903e d330 033d
-0.046465363 -0.06744118 -0.007445713 -0.16973127 0.06554112 0.021551276 0.0013974617 -0.14800158
-0.095493 0.050272748 -0.21735409 0.17227034 0.016530551 -0.16326697 0.044548627 -0.03831472
-0.1830973 0.05217934 -0.30120763 0.16154765 -0.13642862 -0.18898648 -0.19013822 -0.12817648
-0.22845599 -0.15656923 -0.12617734 -0.14970185 -0.010682981 0.015281305 -0.21533147 -0.13518718
0.07531104 0.014355694 0.08875391 -0.22117852 -0.07710341 0.02961919 -0.18930446 -0.039438955
0.13305287 -0.2121835 -0.043781783 0.07643265 0.106451295 -0.11473301 0.13535768 0.17379735
-0.09531999 -0.001717181 0.062232114 0.06312735 -0.14325343 -0.046358 -0.034258403 0.04529315
0.009371692 -0.09218212 0.16412961 -0.21701431 -0.048190396 -0.23642056 -0.1573307 0.015985208
0.12072062 -0.008193288 0.008934828 -0.04459391 -0.12989013 0.08003815 -0.06369234 0.06961639
0.017573146 0.08364627 -0.088619746 0.1737942 0.054106865 0.20278119 0.039787762 0.16205832
-0.18918288 0.038298577 0.20266668 0.029444922 0.13455437 -0.10846793 -0.07962733 0.09690915
-0.14441691 0.14538603 -0.18127705 0.13471182 -0.096190706 0.24824464 0.081607744 -0.28455976
-0.18435222 0.10700763 0.048930798 0.10759448 0.17092516 0.16141413 -0.11365242 -0.07996234
0.025794037 -0.06754237 -0.15972878 -0.0032284101 -0.16896656 0.12301442 -0.1723308 0.107809536
0.14591794 -0.024670854 0.021333277 -0.03228591 -0.14716963 0.13898993 -0.030245444 -0.043947414
0.03307065 0.14773968 0.16445142 0.17115884 -0.16266993 -0.049887005 0.046578337 0.0715707
-0.25027233 0.15369692 -0.15331495 0.009877605 0.08733136 0.09641013 0.10080785 -0.022136085
0.06491514 -0.06813633 -0.12931515 -0.17311962 -0.12863505 0.26201206 0.036160864 -0.14779842
0.04155744 -0.25491133 0.047342174 -0.015072121 -0.097292654 0.022976357 0.18107522 0.017789807
0.019568639 0.12940633 -0.066510916 0.13425538 0.06518026 -0.066608965 0.24417582 0.20907597
-0.14656113 -0.23744373 0.13555822 0.15579262 -0.15188774 0.08826442 -0.3819455 0.042222764
0.09595457 -0.20032403 -0.20815136 -0.072004996 0.09750091 -0.20681946 0.25574017 0.019662263
-0.02161848 -0.2531918 -0.13852021 0.1571394 0.18841064 0.041859385 0.12917846 0.0616311
0.034564413 0.14327891 -0.01828244 -0.17817949 -0.028279617 -0.14137152 0.2249342 -0.17779814
-0.06756665 0.115830734 -0.08516315 -0.11034179 0.29054612 -0.08130251 -0.1680474 0.009527294
-0.0436057 -0.08191243 -0.1810257 0.09239645 -0.119075105 0.048868373 0.24970126 -0.06409161
-0.09833211 0.21500647 -0.16453369 -0.054792937 -0.27119738 0.003624282 0.081065014 0.08634167
0.17862849 -0.11035871 -0.19295114 -0.13695747 0.19008544 -0.089191735 -0.0856357 0.2529183
-0.037459742 -0.09704473 -0.17728704 -0.045215197 -0.12051495 -0.12303395 -0.12957308 0.066923186
0.012527425 -0.22876012 -0.081505455 0.061376523 0.1683329 -0.21640931 0.12828043 -0.1953016
0.009091468 0.03242935 -0.0895803 0.1250678 0.011250739 0.01829728 -0.19543144 0.31679025
0.1688967 0.28804827 -0.12794863 0.12883757 0.0073515344 0.041687474 0.28229085 0.032028984

bias f4 [256]
00000000: a299 62be e5bc 78be d753 74be 3fb2 03be
00000010: 98d6 6d3b 1430 5d3c 6f58 15be d259 22be
00000020: 7659 f5bd eb42 22bd 00ff 98bd a367 31bd
00000030: 2f6a adbd f95a 21be 9eab 183d a57f b9bd
00000040: 7b4b dc3d 76a6 0bbd 35f4 6cbd 8725 233e
00000050: bd75 8dbc 5af7 c93d 88d6 89be 1c5d 103c
00000060: bfe8 54be cb79 13be e6d6 ccbd f9c4 0fbe
00000070: 70bc 0ebc 03e3 31be 54a4 fbbd 0761 7b3d
00000080: 5605 5bbe 1204 f93d 9fbf 0e3e 3083 b4bd
00000090: 8eab f43c b0d5 d7bd c941 18be 6f6e e5bd
000000a0: d49e 09be 3bca 5cbe 7299 81be d242 6fbe
000000b0: be53 18be 5d99 813d 1977 22bd 1daf 27be
000000c0: 8355 85bd b4d4 28be 07af 21be 78ac 15be
000000d0: cdcf 16be e557 16be 41ec 5ebd fa7e 45be
000000e0: e088 c5bd c648 0fbe 9ace 11bd bc68 3abb
000000f0: 67c8 2b3d 2596 bbbd 1fd0 afbd adc9 84be
00000100: ff8b a13d 0e4b bfbd ba3b 28bd 4cff 49be
00000110: e496 383d 39fe bfbb 5b7c ccbd 7bfc 843d
00000120: b11e 523d 9e6b 2abd b4a5 64bd 4229 0fbe
00000130: 0715 f53b b6b5 10bd 5c0f e7bd 439c 243d
00000140: 862f 7b3d 0b5b 053d c062 87be 5e64 23be
00000150: 1d32 18be 3271 84be d969 6b3d afad 14be
00000160: 3317 32be d114 f4bc 6991 05bd 803e acbd
00000170: 23ee b63d 5cb3 c5bd 738e 83be da7f 90bc
00000180: b202 2c3d 3b51 6fbe 6c78 62bd 2359 1abe
00000190: 8835 173d 2eb2 ad3d 73ee cdbd 8bc9 cebd
000001a0: 5520 3dbd 188c 843a 2c2c 45be 3ae3 94bd
000001b0: 1a94 edbd eb6b 6d3d f2ec 0dbe 0330 3fbe
000001c0: 0a2c 62bd 1927 24bd 7e98 79bd 3175 1dbe
000001d0: ac5c 8bbe 774f 1cbd 5d5e 15be 87ae f1bd
000001e0: 8fdb 1cbc 7575 213e 90d8 d83c be80 e73c
000001f0: 2dc3 2abe 6d81 f83d a611 9ebd c483 ae3c
00000200: 8a00 793d bfcd 4cbe 24a4 273e 97e2 f83d
00000210: 022e 2fbc c2bd 1cbc 0d42 88be f36a 473c
00000220: 4335 b63d 46cc 783c ad39 7fbe 8844 c9bb
00000230: 5a91 29be 1f73 7bbd ca58 493b b94b e33c
00000240: 90a0 0ebe 2041 a7bd 4a5a c7bd f5fb 43bd
00000250: 683c c0bd 3257 17bd 2de7 44bd 1228 67be
00000260: 415d dbbd 79f4 15be 27ba 40be 866e f6bc
00000270: 4ef6 e9bd 0b88 2dbe 6c75 9fbd 7c07 81bd
00000280: a6e9 dbbc 472e 57be fc70 103d fbd6 1a3c
00000290: 13b1 b1bd ef7d a53d 3a03 f9bc 8bb3 84bd
000002a0: 490c e23d aec5 1dbe 75f4 0e3d 42e0 c83c
000002b0: 0899 043e f78a 70bd 461c f2bd fc79 6bbc
000002c0: 6836 0dbe 6072 2cbe 41a2 30bd f71a 58be
000002d0: 0d44 11be cc15 39be 9af6 9b3d 7e58 32be
000002e0: c3bd 203d 03d7 85be a623 11be c8ac 93bd
000002f0: f803 c7bd 8c9a adbd 6dcf d6bc ec6e 7abe
00000300: 3168 153e f00e ddbd 7b38 c2bd db1f 73be
00000310: f485 3bb9 a893 0fbd 4625 d9bd 8d3a 503c
00000320: 43b5 aabd 5a39 573e 75b8 923b 9a2c 2bbe
00000330: abc1 5e3d 65f8 0abe fd8a 8a3d 6127 cbbd
00000340: 214a 8b3d 0952 a93d d9c2 e8bd c5c8 36bd
00000350: 7339 003d 3b29 dfbc fab7 16be f2f0 b0bd
00000360: 9f26 bf3d f0de 27be fb6c 203e 6f60 19be
00000370: 2328 1dbe 2e25 3abd 5f23 c4bd d4f6 09be
00000380: 7a6a ddbb b80f 003e 69ab 8fbd 7aed 3f3c
00000390: 985f b4bd bbbc 1ebe 93b8 55be d9b2 49be
000003a0: 881d cc3c 0220 c6bd 21f2 afbd 4641 2c3e
000003b0: 5dc0 b53d 81ca 0a3d a2f7 01be 9dce 64bd
000003c0: 9056 343d 17f2 483e 6769 3bbd b1d8 193e
000003d0: 94b3 2abd 1781 2bbe 814a f6bd 71df 04bc
000003e0: 20ff bfbd 6af1 49bd 3d6f 953c b93d 48be
000003f0: 090a 56be ef6e 00be 9a91 7dbc 29b4 d13d
-0.22128919 -0.24290808 -0.23860107 -0.12860964 0.0036291238 0.013500232 -0.14584516 -0.15854576
-0.11979954 -0.0396146 -0.074705124 -0.043311726 -0.084675185 -0.1575736 0.037273042 -0.090575494
0.10756584 -0.034094296 -0.05785008 0.15932284 -0.017268056 0.09861632 -0.26921487 0.0088112615
-0.2079191 -0.14401929 -0.10001926 -0.14039983 -0.008711919 -0.17371754 -0.122872025 0.06137183
-0.21388754 0.121589795 0.13940285 -0.088140845 0.02986696 -0.105388045 -0.14868845 -0.11202704
-0.13439494 -0.2156152 -0.25312382 -0.23365334 -0.14875695 0.0632808 -0.03966436 -0.16375394
-0.06510451 -0.1648739 -0.15789424 -0.14616573 -0.14727707 -0.14681967 -0.054424528 -0.19286719
-0.096452475 -0.13992605 -0.03559742 -0.0028443774 0.041939165 -0.09159497 -0.08584618 -0.25935116
0.0788803 -0.093404874 -0.041072585 -0.19726294 0.045065776 -0.005859163 -0.099846564 0.06493469
0.0512988 -0.041606538 -0.05582209 -0.13980582 0.0074793133 -0.035329543 -0.112822264 0.040188085
0.06132462 0.03255753 -0.26442528 -0.15956256 -0.14862867 -0.2586761 0.05747399 -0.1451938
-0.17391662 -0.029795082 -0.032609377 -0.084103584 0.0893214 -0.09653351 -0.25694618 -0.01763909
0.041994758 -0.2337083 -0.055290624 -0.15073065 0.036916286 0.08481251 -0.10055246 -0.10097035
-0.046173412 0.0010112552 -0.19255131 -0.072699025 -0.11600514 0.057964247 -0.13859919 -0.18670659
-0.05521778 -0.04007635 -0.060936444 -0.15376736 -0.2721914 -0.03816172 -0.14586778 -0.118008666
-0.009573831 0.15767463 0.026470453 0.028259631 -0.16676016 0.12134061 -0.0771821 0.021303065
0.06079153 -0.20000361 0.16371208 0.121525936 -0.010692121 -0.009566726 -0.26612893 0.012171495
0.088968776 0.015185421 -0.24924345 -0.0061422028 -0.16559353 -0.061389085 0.0030723088 0.027746068
-0.13928437 -0.081667185 -0.09734018 -0.047847707 -0.093865216 -0.03694839 -0.04807203 -0.2257388
-0.10711146 -0.1464404 -0.18821011 -0.030081999 -0.11423932 -0.16946428 -0.07786068 -0.06300256
-0.02684481 -0.21013747 0.035264 0.009450669 -0.08676352 0.080806606 -0.030397046 -0.064795576
0.110374995 -0.1540744 0.0349011 0.024520997 0.12949002 -0.058726277 -0.11821799 -0.014372345
-0.13790286 -0.16840506 -0.043123487 -0.21104036 -0.14186116 -0.18074721 0.07615395 -0.1741657
0.03924347 -0.26140603 -0.14173755 -0.0721069 -0.09717554 -0.08476743 -0.026221955 -0.24456376
0.14590527 -0.10793865 -0.09483429 -0.2374262 -0.00017883611 -0.035052925 -0.106028125 0.012709272
-0.08335354 0.21017972 0.0044775554 -0.16716233 0.054383915 -0.13571317 0.06764791 -0.0991962
0.06801248 0.082676 -0.11365289 -0.044625062 0.031304788 -0.02724134 -0.14718619 -0.08639707
0.09333538 -0.16393638 0.15666573 -0.14978193 -0.15347342 -0.045445614 -0.09577059 -0.13473064
-0.0067570778 0.12505996 -0.07015116 0.011714334 -0.088072956 -0.15501682 -0.2087119 -0.19697131
0.024916425 -0.09674074 -0.08591104 0.16821775 0.08874581 0.03388453 -0.1269212 -0.055861104
0.044027865 0.196236 -0.045754816 0.15024067 -0.041675165 -0.16748463 -0.12025929 -0.008109913
-0.09374833 -0.049302496 0.01824152 -0.19554795 -0.20902266 -0.12542318 -0.015476609 0.10239441

weight f4 [128, 256]
00000000: 7c26 48bc f102 39bc 3ab5 f4bd 6c53 5f3d
00000010: ba4b 83bd 3028 fb3b 5d8f 963c 533b 073e
00000020: 4058 f73d 853e 5bbd 5b7e 5d3b 74d9 913b
00000030: b316 de3d b40c 3a3d bbaf 91bd 1fd4 363d
00000040: a4ac 0a3d f671 1dbd 08a0 cebd 5bcf 9d3d
00000050: f50a a6bd 7dce e1bb 5b16 493d c146 683c
00000060: cc89 b13d 3bda 203d 6ed9 8b3d 96ea 7bbd
00000070: 0bdf b6bc e2a3 80bc fe5f 03be 0dd5 9d3d
00000080: 4629 c23d d142 023e bbfd 11bd c5a6 28bd
00000090: 6d1a 9abd 6870 b53d 4f0a fdbc 9ca8 3b3d
000000a0: 2312 7b3d 1210 1bbd a0b9 44bc 1de4 21bd
000000b0: df01 42be f308 1d3c 43df 953d b33f 4e3c
000000c0: 2c7c ef3d 0854 89bd a4a4 17be 23e8 b2bc
000000d0: 4142 49bd 17ec a4bc 0aad 2c3d 8146 acbd
000000e0: 1e16 e4ba 029f e93d 462a e3bd 53ef 30bd
000000f0: bae6 00be bf56 d4bb 25aa 863d cbb3 183e
00000100: 5576 573d fd92 05be ccd0 59bd 859b 503d
00000110: 7508 983c 13cc 553d e0bf 27bd 5dad eebb
00000120: 911a fabc 78ad f83d 8158 eebc 99c1 abb9
00000130: a280 583d d861 50bd 15d3 813c cdfb debd
00000140: 39bf d93d 4823 213d c5d2 bdbc 60d8 ce3c
00000150: b23e 90bc 8ca3 073e a249 283d 63f1 5abe
00000160: 1e6c 533d ad19 0abe 646c 7c3b 4b4e 493d
00000170: ed79 7e3d fbe9 56bd 64a1 3c3d e123 3abd
00000180: 75fd f23c 98ad 38bd ea61 b5bc b9fe 41bc
00000190: 98bf 123d bc0a f8bd 6efb 283d 6054 ddbc
000001a0: fcf7 6ebd 34c5 cd3d 28ae 053d 21db e73c
000001b0: f13c 0fbd 009c 01bc a2c8 51bb 39e4 c13d
000001c0: ef8d c23d d896 9bba 87d4 4f3e b8b8 a33d
000001d0: 16f3 b53c 475d 213d 6cd8 a73c 6eca 20be
000001e0: 13c1 7e3c 1be7 81bd 5ed7 a43c 264f 133e
000001f0: d6fb efbd a9ee b63d 81c3 f33c 8012 bfbc
00000200: e9bb 1ebc 91a9 4fbe 7497 57bc 698f f1bd
00000210: 776e d63d 8a35 51bd add1 13be fa77 8b3d
00000220: e731 da3c 2268 143d 7d79 43bc 11f5 aabc
00000230: 4031 27be 3c73 353c 46b7 473d 3574 3a3d
00000240: c1a5 1b3e 663d 0abe f799 0fbd 7e30 c73d
00000250: d8f6 a8bd a02d 873d 29c4 843d 01d7 e23d
00000260: 8e9d 093e 31b7 89bd d884 2dbd f40c 003c
00000270: 8a57 a9bd 54c0 09be e242 a7bd 0865 4ebb
00000280: ee34 d13d acea ddbc bd3f 6abd 9c37 06be
00000290: ec96 2cbe 6048 293e ba8d 70bd 00f2 b23d
000002a0: afe4 553e ad8d adbd 803e b03d 4982 f0bc
000002b0: b8c0 b13c 66ae 9cbb a138 873d 448e b23d
000002c0: f18d 0b3d 88ed bebd d62f afbd 958c 8b3c
000002d0: c59b e9bd 0e27 d03d 99f4 68bd bb09 f83d
000002e0: 4e7b 623c 48ac 013e 1252 e0bc ca07 413d
000002f0: 8da2 2d3d ab8c 823c 96df 973c dda1 f23d
00000300: 57a0 aabb 34f6 0d3e 52ab 1c3d 1d3d 89bd
00000310: f8d3 2a3d dc23 353d d02d c23d de5f c93c
00000320: fa7a febd e711 23be 5102 b7bb a214 09bd
00000330: d834 983d c49d 5e3d ce63 0ebd a4cc 20bd
00000340: dd4a 9b3d 3ec2 303b 71ac f63d 271c 013e
00000350: 6d55 98bd 85f7 c03d 3c03 dabd 636b d6bc
00000360: 2c6e b3ba 9c21 06be 9e5f 19be 4856 913d
00000370: 525b 1a3d d1b1 e43d df6a 163d 445d 2abd
00000380: 8c26 023d 7ff3 91bc e1a2 a53d fd9b 8bbd
00000390: c2be 283d 2846 6a3d 8105 97bd 8322 993d
000003a0: c96b 01bd 67bb df3d 6453 e7bd d2b3 2ebc
000003b0: fb5b cfbd 977f 67bd e99b 8b3c 016c 753d
000003c0: 41c6 c8bd 5dae a6bd a21f 903e 2793 cebd
000003d0: 8add 823d b276 dcbd d6da 77bd 0606 47bb
000003e0: f10b dd3c c751 eb3d 8429 8b3d a30b 8f3c
000003f0: 100f 823d 57ec ad3d b5e8 683c 1711 7bbd
-0.012216207 -0.011292205 -0.11948629 0.054522917 -0.06410928 0.007664703 0.018378908 0.13206224
0.12077379 -0.05352642 0.0033797238 0.0044509713 0.10844173 0.04542227 -0.07113596 0.04463589
0.03385605 -0.03843876 -0.10089117 0.077055655 -0.08107559 -0.0068910704 0.049093585 0.014177025
0.08668861 0.03927062 0.06828581 -0.061503015 -0.022323152 -0.015703145 -0.12829587 0.07706652
0.094805285 0.12720801 -0.035642367 -0.04117467 -0.075245716 0.088593304 -0.030888705 0.045815095
0.061296593 -0.037857123 -0.012007147 -0.039524186 -0.18946026 0.009584653 0.073179744 0.012588429
0.11693606 -0.06705481 -0.14808899 -0.021839207 -0.04913545 -0.020132108 0.04215721 -0.08411885
-0.0017401611 0.114072815 -0.110920474 -0.043196987 -0.12588015 -0.0064800675 0.06575421 0.14912336
0.052603085 -0.13044353 -0.05317764 0.050929565 0.01855872 0.052196573 -0.04095447 -0.00728385
-0.030530246 0.121424615 -0.029094936 -0.00032759903 0.05285705 -0.05087456 0.015847722 -0.10887871
0.10632176 0.039340287 -0.023171792 0.02524966 -0.01760802 0.13245982 0.041085847 -0.21381144
0.05161678 -0.13486357 0.0038516754 0.04914693 0.062127996 -0.052469235 0.04605235 -0.045444373
0.029661873 -0.045087427 -0.022141416 -0.011840516 0.03582725 -0.121114224 0.041255407 -0.027017772
-0.058341965 0.10047379 0.03263679 0.028302731 -0.034970228 -0.007910728 -0.0032010456 0.09467358
0.09499728 -0.0011870516 0.20295916 0.07994217 0.022210639 0.039395597 0.02048894 -0.15702221
0.015548962 -0.06342908 0.020122226 0.14385661 -0.11717956 0.089322396 0.02975631 -0.023324251
-0.009688356 -0.20279528 -0.013158668 -0.117949314 0.10470288 -0.05107645 -0.14435454 0.06809993
0.026635123 0.03623212 -0.0119308205 -0.02086881 -0.16327381 0.011074837 0.048758768 0.04552098
0.15199949 -0.13499984 -0.03505894 0.09726046 -0.08250207 0.06600499 0.06482727 0.11076165
0.13439009 -0.06724394 -0.042363018 0.007815588 -0.0826865 -0.13452274 -0.08167054 -0.0031493325
0.10215174 -0.02708944 -0.05718969 -0.13107151 -0.16854447 0.16531515 -0.05872891 0.08737564
0.20888017 -0.08474288 0.08605671 -0.029359 0.02169834 -0.004781532 0.06602598 0.08718541
0.034070913 -0.09322649 -0.08554046 0.017034808 -0.11406664 0.10163699 -0.05687389 0.12111231
0.013823343 0.12663376 -0.027382884 0.04712657 0.04239135 0.015936216 0.018539231 0.11847279
-0.0052071023 0.1386345 0.03824932 -0.067011096 0.041706055 0.04422365 0.09481394 0.024581846
-0.124258 -0.15924798 -0.005584993 -0.033466943 0.07431954 0.054349676 -0.03476315 -0.03925766
0.075826384 0.0026971246 0.12044609 0.12608396 -0.07438169 0.094222106 -0.10645148 -0.026174253
-0.001368945 -0.13098758 -0.14977881 0.07096535 0.037684746 0.11166728 0.036723014 -0.04159285
0.031775042 -0.017816303 0.08087707 -0.06816862 0.041197546 0.057195812 -0.07374097 0.07477286
-0.031596933 0.10924416 -0.112952024 -0.01066299 -0.10124966 -0.056518164 0.017042117 0.059917454
-0.09803439 -0.08138726 0.28149134 -0.10086661 0.063899115 -0.10764827 -0.060511433 -0.003036858
0.026983233 0.11490207 0.06795028 0.017461604 0.06350529 0.08492344 0.014215638 -0.061295595

bias f4 [128]
00000000: b022 7b3d 140f b53d a86b fdbc 9fb6 b7bc
00000010: 3b42 a53c 6d12 8abd 8ee2 fd3c 3309 f63d
00000020: 1a6b 313d a2b9 5e3c 635f 23bd a971 fc3c
00000030: 632a fd3b 7137 ce3b 3791 a1bd 4cd3 023d
00000040: 5c15 0bbc 1532 f93c 1271 adbd f9d3 a13d
00000050: 487e 8d3d 6d01 503d 573f a83b 4c8e a6bc
00000060: 99db 753d 1a5b 86bc 51bb 0f3d 8738 6cbd
00000070: 2bcf 943d 5584 0d3e fd0f 1f3d d377 033d
00000080: 96c0 f8bc 3cc1 c93d d7dc 813d 4898 1e3b
00000090: c3ef 8f3c 7afb 9a3c 89af 1bbd 169e 003e
000000a0: f70c b5bd 1c9b 1fbd ba33 9bbd 820f 9cbc
000000b0: 782e 78bd 2fb5 4bbd 895a 6f3d 96fe 89bd
000000c0: b963 76bb 46bf f23c c54d ec3c 2522 83bc
000000d0: 5612 033c b1a1 34bd c126 ae3d 885b 25bd
000000e0: f8d7 773d 379a ad3d e668 84bd 0309 d73d
000000f0: 0757 a3bb cf4c 383d 4462 243d 3e2b 9d3c
00000100: 8490 b0bc 1a9e a5bd 9091 bebc 1ada 6cbd
00000110: cd0e 16bc 42c1 9d3c e160 3bbd e839 af3c
00000120: 7e51 91bd 42aa 7b3d cd43 8b3d 63e3 fc3c
00000130: 443a 6d3c 91ed b7bd 295f 19bd 573a 62bd
00000140: 1b1d 383a 0b5f f33d 9ee7 653d 5634 87bd
00000150: e946 7bbd 1872 04bd ed8f dd3d c080 003d
00000160: 999c 86bd 13d6 b13d 4e06 933d abd6 a53c
00000170: 206f b63d a187 59bc 7b73 9bbd 808b ba3c
00000180: e80e 9d3d eb28 9e3d d230 b6bb d845 193e
00000190: dd96 2a3a 31f1 6dbd c0bf 16bc 7aad 89bd
000001a0: 5c68 463a 2f80 b43c 602a 543d 95ad af3b
000001b0: c391 d63d 1825 6bbd 9039 0abd 56e1 b13d
000001c0: 1326 773d 882c be3c 8044 7a3d a10b 2b3d
000001d0: 7a0e be3d 1741 5c3c 94c9 8c3d 7a23 3abd
000001e0: 5a45 a9bb 82bd 813d 9453 d03d 3960 bb3d
000001f0: 24ff c43d 8bbf 6d39 d1ab b5bd 79e0 1dbc
0.061312377 0.088407665 -0.030935124 -0.022425948 0.020173183 -0.06741796 0.030991819 0.12013473
0.04331503 0.013594063 -0.03988589 0.030815916 0.007726 0.00629323 -0.07889026 0.03193979
-0.008488979 0.030419389 -0.08468832 0.07901759 0.06908852 0.05078261 0.005134504 -0.020331524
0.060023878 -0.016400862 0.03509075 -0.057671096 0.07266077 0.13820012 0.038833607 0.032096695
-0.03036527 0.0985131 0.0634095 0.0024199653 0.017570382 0.018918741 -0.0380092 0.12560305
-0.088403635 -0.038966283 -0.075782254 -0.019050363 -0.06059119 -0.049733337 0.05843595 -0.067380115
-0.003759606 0.029632222 0.028845677 -0.016007492 0.007999977 -0.044099513 0.085034855 -0.040370494
0.0605087 0.0847668 -0.0646532 0.10499766 -0.0049847397 0.044995125 0.040132776 0.019185659
-0.021553285 -0.08086796 -0.023262769 -0.057825185 -0.009158802 0.019257192 -0.045746688 0.021389917
-0.070956215 0.061441667 0.06800041 0.030870145 0.014479224 -0.08980859 -0.037444267 -0.05523142
0.000702338 0.118833624 0.05612909 -0.06601779 -0.061346922 -0.03233537 0.10818467 0.031372786
-0.065728374 0.086834095 0.07178937 0.020243963 0.08907914 -0.013276965 -0.075903855 0.022771597
0.07668859 0.07722648 -0.005560019 0.1496805 0.0006507466 -0.058091346 -0.00920099 -0.06722541
0.00075686513 0.022033779 0.051798224 0.0053612688 0.104770206 -0.057408422 -0.033746302 0.086855575
0.060339045 0.023214594 0.061100483 0.041759137 0.09280105 0.013443253 0.068743855 -0.04544399
-0.005165738 0.06334974 0.10172191 0.091492124 0.09618977 0.00022673437 -0.08870662 -0.009636038

weight f4 [64, 128]
00000000: 6694 89bc a7a2 eb3c aea6 213e 6e66 8e3d
00000010: 41b1 183d 8ca0 d83c b008 d13d acfe 96bc
00000020: 8d75 a6bd 1feb f7bb c663 c63b 5c8b 803e
00000030: 403e dabb 9408 59be 2895 80bc 5567 a5bd
00000040: 8372 17be 64a9 aebc ab04 7a3c dbd7 963a
00000050: 433e b53d 4df5 043e ac13 14bc 63cd f7bd
00000060: ecf4 0abd 64af 903d 4b37 06bd 7421 eabd
00000070: 7ff1 313c f58a 0c3d 4e05 ae3d 6602 82bb
00000080: d82b 8cbd 30b6 8ebc 78c6 fb3d 57a3 473e
00000090: 7c15 7c3e cf6c 9d3c 6ff2 1e3e bdb9 893d
000000a0: e239 ac3d afbe df3d fb19 ed3c e4b0 143e
000000b0: fca7 233e 048a 7bbd 4ab0 1b3e ca65 203e
000000c0: 02bd 053e 309c 253d 984e 28be 4cae a43d
000000d0: 9483 bb3c 013f 593d 7f9a 2bbe 521a cebb
000000e0: 81ad 083e 3d43 36be 7de2 a03d 07f0 3b3d
000000f0: 5754 bcbd 50f9 6b3c 1fb5 15be 72e1 a4be
00000100: 3a39 b53e 226d b83c 902e d23d b92c 353c
00000110: 7a8f 073e 1725 323d a37d c23d fcd0 6dbd
00000120: 4177 923e b687 00be 80fd 0f3e e199 893c
00000130: 7ae0 ccbd b8d0 043e f3ca 283c e550 ae3d
00000140: 48eb 173e 75b9 a3bd 8b62 e0bd 636b 94bd
00000150: a3a9 8cbd ce3c 5a3e 436c 31be a16d f9bc
00000160: 9126 283e 5fce bd3d aac4 91bd b87c 7fbd
00000170: 3aec 0bbe 6150 083e db8e 123e 4499 c6bc
00000180: 95eb 2abd ae54 d2bc b6f3 a5bc 5906 f43e
00000190: d2d3 053c b6a1 a13d 6316 63be 12e1 313e
000001a0: 9977 ffbb 2074 083e 3cf2 f43d a9c6 983d
000001b0: f598 813c ff59 0f3e 10a6 573e 1e29 763c
000001c0: 106c b83d 6c85 48be c4c1 5f3e ccf7 19be
000001d0: 034f 313d d40f 5c3e 2c1e 2abd a2c8 0c3e
000001e0: 89a3 773e 8525 ba3c 2ac2 783d f355 c1bd
000001f0: 326c 94be 202c 203d f1a6 a83d d4b6 a73d
00000200: f8ff d83d 0712 263c 3c95 dfbd 3479 0a3e
00000210: ce19 acbd 509a e3bc 13e0 74be 8d20 d03d
00000220: aa01 e23d 2ede 0b3c 3e1d a1bb 8c40 3cbc
00000230: 7df9 803d ace1 09be 4393 ccbc 6b89 92bc
00000240: 8968 a33d fe1b 813d 6927 5c3d 9748 fc3c
00000250: 8cd9 b83d 0838 a13d b86e 0d3d c13d f13d
00000260: 9dcf c33e 9067 ffbc a000 06bb ae2b 4aba
00000270: 6d40 603d b744 8c3d e92d b43d 2d54 52bd
00000280: c4fa 20bc a81d cf3d f283 c93d 2395 80bc
00000290: ffe7 5b3e d411 8c3d f7f6 46be 564b ccbc
000002a0: a6c8 11be aa6b 6f3c 8561 803d cbac dfbc
000002b0: b672 df3d 297d df39 e019 113e 47bc b6bd
000002c0: bbff aebd 6815 bd3d 791c 833c 1549 f3bd
000002d0: 13cb 9d3d 4647 893d 51bb a33d 5af9 b13d
000002e0: 4c78 cc3b 9136 0abe e5f1 85bb 61b3 93bd
000002f0: d5d0 0a3d ed8e 133e 1ce8 843d 22e4 303d
00000300: c717 d8ba a627 0f3e 40ec 683e 8786 a2b7
00000310: c8f8 1fbe 7fef 003e 56cd 86be 112e 26bd
00000320: fcdb 123d b666 713e b448 62bc 32a8 a23d
00000330: 804c 993c 88e7 3bbd c78c 5e3d 85f6 e13b
00000340: 5ebc 83bc 75f8 873d 1c8a a13d 438b 29bd
00000350: 5e94 2ebc bcef e4bc 67c1 1c3e 28ce 363e
00000360: c546 3f3e c943 1cbd 8f43 01bc 5745 5f3d
00000370: 1a65 853c 9cf8 cbbd 2e28 8ebd 5ed3 253e
00000380: 5abb 443d 7d54 a33d 7060 023e 634b 05be
00000390: 00bb 9e38 7509 663b c33a 883d 415a c2bd
000003a0: a57e 683d 366e febd ae0e 37be 8cfc 273d
000003b0: ddf2 043e 1fbc 8e3d 5b22 87bb 12ed 093e
000003c0: b574 35bc bea3 683e f96a 12be 04fd 3e3d
000003d0: 8b85 18be 8ab4 9abb c22a 69bd e818 6f3d
000003e0: 60ba 19be c9b4 e33d e111 7ebd 2660 7d3d
000003f0: f062 013e 4a18 f23d 25e2 8b3c 27d7 0abd
-0.016794395 0.028764082 0.1578624 0.06953131 0.037278417 0.026443742 0.10206735 -0.018431984
-0.0812789 -0.0075658704 0.0060543744 0.25106323 -0.006660253 -0.21194679 -0.015696123 -0.0807635
-0.14789777 -0.021321006 0.015259902 0.0011508422 0.08849766 0.129842 -0.009037893 -0.12099721
-0.033924982 0.07064703 -0.032767575 -0.11432162 0.0108608 0.034312207 0.084971055 -0.003967571
-0.068443 -0.017420858 0.12293714 0.19495903 0.2461757 0.019216923 0.15522169 0.0672488
0.08409478 0.10925042 0.028943053 0.14520603 0.1598205 -0.06141092 0.15203968 0.1566383
0.13060382 0.040432155 -0.16436231 0.08041057 0.02288989 0.0530386 -0.16758154 -0.0062897587
0.13347436 -0.17799087 0.07855699 0.045883205 -0.09195774 0.014402702 -0.14619873 -0.3220325
0.35395223 0.022512976 0.10262787 0.011058026 0.13238326 0.043492403 0.094966196 -0.05806063
0.2860661 -0.1255177 0.14061546 0.016797008 -0.10003753 0.12970245 0.010302293 0.08511523
0.14835846 -0.079943575 -0.109562956 -0.07247045 -0.06868293 0.21312258 -0.17326455 -0.030447783
0.16420962 0.09267878 -0.07117589 -0.0623748 -0.13664332 0.13311912 0.14312308 -0.024243005
-0.041728575 -0.025675144 -0.020257812 0.47661093 0.008168178 0.07892172 -0.22176509 0.17371014
-0.0077962396 0.13325548 0.11960265 0.074597664 0.015820006 0.13999175 0.21059442 0.015024452
0.09004986 -0.19582146 0.2185126 -0.15035933 0.043288242 0.21490413 -0.04153268 0.1374841
0.24183477 0.022722969 0.060732044 -0.09440222 -0.28988796 0.03910458 0.082349665 0.081891686
0.10595697 0.010136134 -0.10917136 0.13522798 -0.08403359 -0.027783543 -0.23913603 0.101624586
0.11035474 0.0085368585 -0.004916816 -0.011489999 0.06297586 -0.13464993 -0.024972564 -0.017887792
0.07978923 0.06304167 0.053748522 0.030796332 0.09025869 0.07872015 0.034529418 0.11779357
0.38244334 -0.031177312 -0.002044715 -0.0007712197 0.05474894 0.06849044 0.08797819 -0.051349808
-0.009825412 0.10113078 0.0983962 -0.015696114 0.21475218 0.06839338 -0.19430147 -0.024938267
-0.14236698 0.014613071 0.062686004 -0.027304074 0.10910551 0.00042627126 0.14170027 -0.0892263
-0.085448705 0.092325985 0.016004788 -0.11879174 0.07704749 0.067030475 0.07994712 0.08690138
0.0062399264 -0.13497378 -0.004087674 -0.07211948 0.033890564 0.1440999 0.06489584 0.043186314
-0.0016486578 0.13979968 0.22746372 -1.9374549e-05 -0.15622246 0.1259136 -0.26328534 -0.040571276
0.035854325 0.23574337 -0.013811279 0.07942237 0.018713236 -0.045875102 0.054333474 0.0068958425
-0.016081031 0.06639186 0.078876704 -0.041392576 -0.010655491 -0.027946346 0.15308152 0.1785208
0.1867934 -0.038150582 -0.007889642 0.054509487 0.01628356 -0.09959528 -0.069412574 0.16193911
0.048030235 0.07975099 0.127321 -0.13017039 7.5688586e-05 0.0035100852 0.06651833 -0.09489871
0.056761403 -0.12423365 -0.17876694 0.04101233 0.1298327 0.06969475 -0.0041239685 0.13469341
-0.011075188 0.22718713 -0.1429862 0.046628013 -0.14894693 -0.004721229 -0.056925543 0.05837336
-0.15012503 0.111184664 -0.06202877 0.061859272 0.12635398 0.11821039 0.017075608 -0.03389659

bias f4 [64]
00000000: ecbd 2a3c 695f 043c 1f4a 263e 7f1d 1e3d
00000010: 1af1 a8bd c11a 6a3d 5e87 adbd a259 9f3c
00000020: 4abf 61bd e392 a33c c715 fabc f6f2 a03d
00000030: aeec f83d 93bb 96bc cd93 f23c 65b5 1cbd
00000040: 2b44 733d 1399 c43d 9ea2 f0bb ac9a ac3d
00000050: 78d0 203d e3b6 18bc b78d a0bd 6985 69bd
00000060: dac9 3e3d e295 4c3d 45cb 203d 5172 dc3d
00000070: 8774 743d 0b31 f43d ff31 82bd 6209 1e3e
00000080: 9c63 6d3c f85e d1bd c3d6 92bc 48c0 d63c
00000090: 365a 153e eeb3 22bb fab5 c73d af85 d43d
000000a0: 4e18 6fbd df0b 843d bbbc b13d 4de8 203e
000000b0: 412e c23c 219d b2bc c823 25bd cc6d 60bc
000000c0: 2c9b dd3b 8d2f c63b cdfb 00bd 5df7 4c3d
000000d0: 3242 be3d 8596 eabd 56f4 a03d cce2 dbb9
000000e0: 38e3 763d 95d5 e13d fc81 c93d c906 de3d
000000f0: bce7 333d a1f3 53bd dc24 ed3b f892 8c3d
0.0104212575 0.008079388 0.16239212 0.03860235 -0.082491115 0.05715442 -0.08473085 0.01945192
-0.055114068 0.019967502 -0.030527962 0.07858841 0.12154518 -0.01839999 0.029611493 -0.03825893
0.059391182 0.09599509 -0.007343604 0.08427939 0.03926131 -0.009320947 -0.0783953 -0.057011995
0.04657922 0.049947627 0.039256353 0.107639916 0.05968144 0.11923417 -0.06357192 0.15433267
0.014489081 -0.10223192 -0.017924672 0.026214734 0.14585194 -0.0024826485 0.09751506 0.103770606
-0.058372788 0.06447577 0.086785756 0.15713616 0.023703696 -0.02180344 -0.040317327 -0.013698053
0.0067628827 0.006048149 -0.031490136 0.05004059 0.092899695 -0.114544906 0.078591034 -0.00041939912
0.060275286 0.11027066 0.09839246 0.10841138 0.04392217 -0.051746015 0.00723706 0.068639696

weight f4 [6, 64]
00000000: 762e 033e 4571 87bd 32a3 82be afab 05be
00000010: 5481 54be b042 aabe d73f 3abd decc bebe
00000020: 2bd1 163e 3453 873c 23c8 8f3d 69c7 dbbd
00000030: b6fd eabb 8526 72be bf18 d33d 9fbb 573d
00000040: 1906 aebe 0093 64be b3bb 39be 9d4a 81be
00000050: fc89 29be cb0e e63d 574e 183d 7699 a8be
00000060: 6db5 06be dc77 a4bd affe ea3d 9565 88be
00000070: a19b 55be d67f 003d 4000 113d 7379 983d
00000080: c963 61be 3283 383d 6fa5 aabe 2069 c1bd
00000090: 0355 a3bd db83 a3bd 9940 6c3e c125 46bd
000000a0: 2c3e 133e d463 383e 58ef 90be f1de 283e
000000b0: dbf4 6f3e b692 eb3c 99f6 043c 57b9 403e
000000c0: 3049 a73d f645 643e 6328 7abe 26fd 5d3e
000000d0: 20ac 50be 146d 8d3d 5447 0c3d f565 f8b8
000000e0: 41e9 333e 146c 91be 08e9 4fbe 2886 193e
000000f0: 8e46 91be 7d46 983c 5fe8 47bd fe0f b4be
00000100: 9972 1fbc a139 433c 448b b1be 2318 b4bd
00000110: 0f74 9f3e 637a cb3d 631d b2bd e815 2dbe
00000120: 804f 163e 4b09 a63e 0071 28bd e95b 823e
00000130: 6936 1ebe 785a 6b3d dd76 98be d76f f6b9
00000140: bb0d 413d 99d9 0bbe fb68 833d 4cc3 9c3d
00000150: 781a acbe 9c2b 463d e4a4 09bd 6314 e4bd
00000160: 39ee fc3d 7435 cdbd 4946 89be f0b5 3fbc
00000170: ae83 453e e0cf 54be 661f c9bd c457 4bbe
00000180: dc3a 083e abdc c0bc a335 59be 6d6b f9bd
00000190: 5581 293e 6e0e 343d e4eb 113e 7f37 013e
000001a0: b0ed 05be 09a1 613e 348b 25be 39dc b7be
000001b0: 5708 38be 8335 72be 8d4b 0bbe 27a6 923c
000001c0: 9f1e 53be d98d bbbc 30d3 61bd 8da8 92bd
000001d0: 87fe 85be b42c 7b3d f618 623e f4fa 8938
000001e0: fbc0 193e 00d9 053e 0236 50bd 3d22 43bd
000001f0: 131e 08be 8bf9 ab3d a1fe 7bbb 7e30 bf3d
00000200: 5f23 66be 92c1 6e3d b56f 473e 3f71 1bbe
00000210: 607c b7bd 2049 05bc aab6 503d 7d37 083e
00000220: e520 b8be 7fd8 44be e925 b1bd 330e 433e
00000230: 409c c13d 1a78 89be aa92 a33e b522 153d
00000240: e15c 4f3e 2b92 463e 6333 2cbe 65e8 6e3d
00000250: 3e39 c33e 036e f4bd 5998 c43c 6862 54be
00000260: 335a 2b3e dd2a 4fbd 6fb7 8bbe 9265 0ebe
00000270: 1545 0a3e 20f9 14be 0561 293b 2c42 313e
00000280: 8f08 e2bd af14 193d 9c43 1c3d 477c 2c3e
00000290: 444f 073e a48a 43b9 2f61 c23d 38f7 c83d
000002a0: 599c 2e3c 935c f3bd 3d44 513e b05f c63d
000002b0: 84e2 133e 2556 35be 66f2 a2be 95b6 fb3d
000002c0: 984b a2be 200c e63d a5c9 9bbc ec5d 3bbe
000002d0: 2ace 0bbd da8e 8d3c 7c85 003e 5441 223a
000002e0: c22b 013e 4d5b 693c c43a 053e b1d4 a2bd
000002f0: 962f 623e f9db c0bc 5383 02be 09a8 eebd
00000300: 8bf0 1ebe 0bbc 52be 53ce 6c3e cb3c ae3e
00000310: 84c0 3ebe 1366 7c3e fdf8 b7bd 5b94 033e
00000320: f9cd d93d b8f3 11bc 307c 72bd df43 a33d
00000330: dab3 c6bc 3faf ebbd 056d b4bd 13a2 70bd
00000340: 0158 89be 332c ebbd f878 6fbe 2ae0 aabe
00000350: 6e47 84be 3de3 3ebd 27ba 1fbd 36a6 4a3e
00000360: 4691 833d f3fa 6d3d 154c 90bc 4d91 173e
00000370: 2426 37be 9445 1e3e 3703 5f3d 7f7c 95be
00000380: 0708 9cbd 4713 223d e7b6 ca3d 5b21 9fbe
00000390: 238c 80be 4d5e b5be 8e9e 57be e803 3e3e
000003a0: e889 acbc 704c 0d3e 0f9d 5cbe d203 f33d
000003b0: 126c e03d 9039 113e 372d d43d cb95 4bbe
000003c0: bd29 2c3d 2dfa 09be dba9 9e3e 28ac 303d
000003d0: d63e 683e a947 93bd e129 36bd c172 e239
000003e0: 59a9 e43d dd91 103e 252b cbbe 78d1 05bd
000003f0: 4e6e c33d dd79 03bd 5ac2 a3be d672 5b3d
0.12810692 -0.06613401 -0.25515133 -0.13053773 -0.2075246 -0.33254004 -0.04547104 -0.37265676
0.14728229 0.016519167 0.07020595 -0.10731394 -0.007171358 -0.23647507 0.10307454 0.052669164
-0.33989027 -0.22321701 -0.18138008 -0.25252238 -0.16556543 0.1123329 0.037184086 -0.3292958
-0.13155146 -0.08030674 0.11474358 -0.2664 -0.20860149 0.031371914 0.03540063 0.074450396
-0.22010721 0.045046993 -0.3332934 -0.09443879 -0.07975199 -0.07984134 0.23071517 -0.04837585
0.14379185 0.18006831 -0.28307605 0.16491295 0.23433249 0.02875648 0.008115434 0.18820702
0.08168256 0.22292313 -0.24429469 0.216786 -0.2037816 0.069055706 0.03424771 -0.000118445525
0.17569448 -0.2840277 -0.20303738 0.14992583 -0.2837414 0.018588299 -0.04880559 -0.3516845
-0.009731912 0.011915595 -0.34676564 -0.08793666 0.31143233 0.09935453 -0.08697011 -0.16902888
0.14678764 0.32428965 -0.04112339 0.25460747 -0.15450443 0.057459325 -0.29778185 -0.00047004104
0.047132235 -0.13657226 0.06416508 0.076544374 -0.33613944 0.048381433 -0.033604518 -0.11136701
0.12350125 -0.10019961 -0.26811436 -0.011701092 0.19288513 -0.20782423 -0.09820442 -0.19857699
0.13303703 -0.023542723 -0.21211867 -0.12178693 0.16553243 0.043959074 0.14250141 0.12618826
-0.13078952 0.22034086 -0.16166383 -0.35910204 -0.17971931 -0.23653226 -0.13603039 0.017901493
-0.2061715 -0.022894787 -0.055133045 -0.07161055 -0.2617075 0.06132193 0.22079834 6.579413e-05
0.15015022 0.1307106 -0.050832756 -0.047640074 -0.13292722 0.08397206 -0.0038451331 0.09335421
-0.2247443 0.05829007 0.19476207 -0.15179919 -0.089592695 -0.00813511 0.050955452 0.13302417
-0.35962597 -0.19223212 -0.08649809 0.19048385 0.094536304 -0.26849443 0.31947833 0.036410052
0.20250274 0.19391696 -0.16816477 0.058327097 0.3812961 -0.119350456 0.023998426 -0.20740664
0.16733627 -0.050577987 -0.27288386 -0.13905933 0.13502915 -0.14548159 0.0025845182 0.17310399
-0.11036789 0.03737324 0.038150415 0.16844283 0.13213831 -0.00018648297 0.094911925 0.09812778
0.010657393 -0.118828915 0.20436187 0.0968622 0.14441878 -0.17708643 -0.3182556 0.12290684
-0.31698298 0.112327814 -0.01901705 -0.18297547 -0.03413216 0.017280031 0.1255092 0.0006189544
0.12614349 0.014242959 0.13010699 -0.07950724 0.22088465 -0.023542391 -0.12745409 -0.11653144
-0.15521447 -0.20579545 0.23125581 0.34030756 -0.18628126 0.24648313 -0.089830376 0.12849562
0.10634989 -0.008908205 -0.059200466 0.0797193 -0.024255682 -0.11508035 -0.08809856 -0.058748316
-0.26824954 -0.1148304 -0.2338599 -0.3337415 -0.25835747 -0.04660343 -0.038995888 0.19789967
0.06424193 0.058100652 -0.017614404 0.14801522 -0.17885643 0.1545623 0.054446425 -0.29196545
-0.076187186 0.039569166 0.09898167 -0.31080136 -0.25106916 -0.35423508 -0.21056578 0.18556178
-0.021061853 0.1379869 -0.21544288 0.11865963 0.10958113 0.14182115 0.103601865 -0.1988136
0.042031992 -0.1347434 0.30988964 0.04313293 0.2268022 -0.071914025 -0.044473533 0.00043191577
0.11165113 0.14118142 -0.39681354 -0.032670468 0.09542523 -0.03209864 -0.31984216 0.053576313

bias f4 [6]
00000000: 09c1 b13d 4283 3c3d 3a9e c43c 8cd0 5e3c
00000010: aa10 033e fcc1 683d
0.08679397 0.046023615 0.02400123 0.013599526 0.12799326 0.056825623
