MLP/MLP_network_bs_32_epoch_300.pkl (torch_old, 211408 bytes, 8 tensors)

weight f4 [256, 38]
000000 04 4f b1 bd 04 c7 25 3e 48 e0 c2 3d bc d1 10 3e
       -0.08657649 0.161892 0.095154345 0.14142507
000010 49 7a 29 3d e1 b1 3b 3d f5 f0 ab 3d fa 85 ab 3e
       0.041376386 0.045823935 0.08395568 0.33500654
000020 f1 22 c4 3d ab 02 57 3d 80 b1 c8 bd f2 26 10 3d
       0.09576977 0.05249278 -0.097994804 0.03519339
000030 74 a1 30 3e 11 ee 94 be 31 65 2e 3d 98 40 9c 3d
       0.1724909 -0.2908788 0.042576972 0.07629508
000040 8e f2 76 3d 1a 28 1d be b7 b9 ce bd b8 81 8c be
       0.060289912 -0.15347329 -0.10094016 -0.27442718
000050 e8 a9 e8 bd 19 46 04 be 96 c3 0f be 48 e5 f5 bd
       -0.11360532 -0.12917365 -0.14039454 -0.120066226
000060 7d 6a 3d be e8 14 90 3d 1d 5e b4 bd 43 3f 27 bd
       -0.18497653 0.070352376 -0.08807013 -0.040831815
000070 bf 89 d5 bd 0a 65 f6 3d da 6d 9e 3d 12 6e 2c 3d
       -0.104266636 0.120309904 0.07735796 0.04209716
000080 43 ba 23 3e 6e 62 15 3e a0 47 37 3d bf da 3f bd
       0.15989022 0.14588329 0.04474604 -0.046839472
000090 1c 81 14 be e5 77 9e 3d 8b 3e b6 3d dc 4c 07 be
       -0.14502376 0.07737712 0.08898648 -0.13212913
0000a0 c8 28 8e bd 78 47 a8 bb b4 41 72 3d b3 81 ce 3d
       -0.06941372 -0.005135473 0.05914469 0.10083332
0000b0 71 5f 6f be 89 ea 49 be 76 ce 49 bd 10 fd da 3d
       -0.23376252 -0.19718374 -0.049269162 0.10692799
0000c0 e6 3e 02 be 66 50 15 be 0d fc f7 3c 99 79 19 be
       -0.12719306 -0.14581451 0.030271554 -0.14987792
0000d0 57 7e ca bc b2 ad bc bc 8a 8f 9c 3c dd 9b 11 be
       -0.024718447 -0.023032043 0.019111414 -0.14219613
0000e0 6a 28 87 be b0 ed 6a be a6 4e ae bd 64 50 0c 3e
       -0.2639802 -0.22942233 -0.08511095 0.13702542
0000f0 c3 8d 1a be 2c a1 0b bd 27 03 84 bd a9 a9 16 3c
       -0.1509314 -0.034089252 -0.06445914 0.009195724
000100 1e a1 d0 bd f9 fc 08 bd 28 b2 a1 bc c4 82 07 3d
       -0.10186981 -0.03344438 -0.019738272 0.033083692
000110 e2 51 0f be af 7e 29 bd 49 a3 c7 3d 0a c7 1f 3e
       -0.1399608 -0.04138058 0.09747941 0.15603271
000120 b5 08 17 3d 69 d8 3d 3e 2f 3f 4d be cc 2d 5a be
       0.036873538 0.18539585 -0.20043634 -0.21306533
000130 26 f5 9c 3d ce 2c ca 3d c8 28 08 3e 97 3d 66 bc
       0.07663946 0.09871827 0.13296807 -0.01405277
000140 4f f0 d2 3c 38 78 97 bd 13 4b 09 be 84 e2 53 3d
       0.025749354 -0.07395977 -0.13407545 0.051729694
000150 8b f3 06 3e 91 e8 19 3e 5a 16 26 3e 86 6b 68 be
       0.13178842 0.15030123 0.16219464 -0.22697267
000160 d6 33 18 3d 27 bb ac bc 49 52 e4 bd 24 02 99 3d
       0.03715881 -0.021085335 -0.11148507 0.074711114
000170 8c 50 1b be 28 e2 60 3c 97 52 79 3d 48 5e 3b be
       -0.15167445 0.013725795 0.06086978 -0.18297684
000180 72 e2 88 bd 16 37 04 be ab a5 79 3d 12 45 b0 3d
       -0.06683816 -0.12911639 0.06094901 0.08606924
000190 60 51 0e be 09 a8 73 bd 4f 71 c4 bd 85 fe e4 3c
       -0.1389823 -0.059486423 -0.095919244 0.027953396
0001a0 5b 76 99 bd 53 d7 26 be 64 50 8a 3d b8 5b 97 bd
       -0.07493278 -0.16293077 0.067536145 -0.07390541
0001b0 d1 da 17 3e 77 33 7e 3e d1 01 01 3e cb 41 07 be
       0.14829566 0.2482432 0.12598349 -0.13208692
0001c0 7e 65 02 be 82 bc 2c be 85 0a 33 3e 7c d2 38 be
       -0.12734029 -0.16868785 0.17484482 -0.18049043
0001d0 93 a6 18 be 83 e8 a2 bc bb 7a 1f 3e 34 13 0f 3e
       -0.14907293 -0.01988626 0.15574162 0.13972169
0001e0 0c 10 d4 bd 04 68 3b be d9 79 50 3e 30 5b e1 3d
       -0.10354623 -0.18301398 0.20358981 0.11003721
0001f0 d7 57 04 3c 44 b4 0e 3d 9c da 51 be 77 7f d6 3c
       0.008077583 0.034839883 -0.20493549 0.026183827
000200 36 b3 47 3e 22 86 8a 3c f9 23 34 bc 64 a0 03 3e
       0.19501957 0.016909663 -0.010994905 0.12854153
000210 1b 90 c1 bd 88 42 c8 3d 3a 5b e3 3d 6c 5d c0 3c
       -0.09451314 0.09778315 0.111013845 0.023482047
000220 f6 c6 84 3d e5 5c 76 3e 9a d1 4c bd d7 dd 64 bc
       0.06483261 0.24058874 -0.05000458 -0.013968906
000230 c5 f5 9d bd e2 2b 35 be 8b 9a 54 bd 66 ed e6 3c
       -0.077128924 -0.17692521 -0.051905196 0.028189372
000240 62 b7 e2 3d d8 e6 06 3e f6 18 c3 bd 68 d4 45 3b
       0.11070134 0.13173997 -0.09526245 0.0030186418
000250 f6 a7 8c bd d4 5e e9 3d 7c 91 92 3d e8 b9 aa bd
       -0.068679735 0.1139504 0.07156655 -0.0833624
000260 11 8c 82 be 49 9e 98 bd 67 d8 23 3e fd 12 d8 ba
       -0.25497487 -0.074520655 0.1600052 -0.0016485151
000270 db b9 0b bc 4b ef c2 bd 60 b2 3b bc 4d 54 34 be
       -0.008528198 -0.09518298 -0.011456102 -0.17610283
000280 f6 26 71 bd 32 83 39 3e f9 5b f7 3d 97 91 27 3e
       -0.058875047 0.18116453 0.12078089 0.16364132
000290 7f 77 c3 bd b8 fb 6f 3b 9c 8e c5 bc 59 41 79 3e
       -0.095442764 0.0036618542 -0.024115853 0.24341334
0002a0 ea 22 19 be 42 47 06 3a 6e ae b7 bc 45 74 41 be
       -0.14954725 0.00051223126 -0.022422042 -0.1889201
0002b0 84 e2 06 be de db 72 3c 16 94 6d 3e d0 8b 16 be
       -0.13172346 0.014822928 0.23201022 -0.14701772
0002c0 85 34 3c 3e de af a4 3d cb 27 d3 bd 11 d5 21 3e
       0.1837941 0.080413565 -0.10310324 0.15803935
0002d0 59 94 f2 bd 2b 36 93 bc f3 38 56 bc a8 a4 0b bd
       -0.11844701 -0.017970165 -0.013075101 -0.034092575
0002e0 2c 28 98 bd 83 3a fd bd e5 2f 84 be 40 72 6b be
       -0.07429537 -0.12364676 -0.2581779 -0.22992802
0002f0 62 45 cd bd a1 34 92 bd 6e 40 3f 3d 82 f3 33 3e
       -0.10022999 -0.071389444 0.046692304 0.1757336
000300 1e 59 16 3e 81 31 e9 bd f3 e7 10 be 4d 98 57 bd
       0.14682433 -0.11386395 -0.14150982 -0.05263548
000310 d1 c8 50 3d 99 05 8f 3d 93 25 30 bd cb 2e 7f bd
       0.050972763 0.069834895 -0.043004584 -0.062300485
000320 10 65 9e bd bf 58 3c 3d 88 57 2d bd 23 d8 ac 3c
       -0.0773412 0.045983072 -0.042319804 0.021099156
000330 ed 9b 99 3e 61 94 21 3d 10 a6 21 3d c7 4f 14 3e
       0.30001774 0.039448146 0.03946501 0.14483558
000340 83 61 08 be 6d dc 9f 3c 12 bd d6 bc 40 a2 17 3b
       -0.13318448 0.019514287 -0.026213203 0.002313748
000350 1f 0c af 3c a5 46 15 3e 82 65 81 bd fd 7a 59 be
       0.021368084 0.1457773 -0.06318189 -0.21238323
000360 77 85 98 3c ad 74 fb 3d c6 b7 d2 bd 05 e2 34 be
       0.018618328 0.122781135 -0.10288958 -0.17664345
000370 7c e3 d2 bd 97 38 ca 3c bf a7 3f bd b5 2a dd 3d
       -0.102972955 0.024685187 -0.046790835 0.10799161
000380 f5 d8 fd bd b8 6b 17 be 4b 17 03 3e 6b c7 80 3e
       -0.12394897 -0.14787185 0.12801854 0.25152144
000390 ec b0 37 be bb f5 85 3d 7c 53 e6 3c f6 06 9e bd
       -0.17938584 0.0654101 0.02811598 -0.077161714
0003a0 57 b1 ff bd bb b1 d3 bd 86 f8 77 3d 49 2a a7 bd
       -0.12484997 -0.10336634 0.060539745 -0.08162362
0003b0 f9 16 44 3e 71 91 01 be 3b 57 80 3e 45 5c a9 3d
       0.19149388 -0.12653138 0.25066552 0.08269552
0003c0 3c f8 bb 3d 8b 46 40 3e 00 52 d7 3d 21 60 2d be
       0.09178206 0.1877691 0.10513687 -0.16931202
0003d0 a1 74 41 bd 99 76 12 3e f9 0b 07 bd e8 e1 ba bb
       -0.047230367 0.14303054 -0.032970402 -0.0057031997
0003e0 fa 8e 5f bd ad 5a de bc fd 64 1b 3e d7 c7 32 be
       -0.054579712 -0.027142847 0.15175243 -0.17459045
0003f0 1a ee 67 bd 57 51 66 be 33 f5 f0 3d 38 93 84 bc
       -0.056623556 -0.22491966 0.11765518 -0.01618348

bias f4 [256]
000000 f2 97 c5 bd 67 2a 76 3c 5d 5a a7 3c 08 7a 97 3d
       -0.09648122 0.015024758 0.02042883 0.073963225
000010 03 69 17 be 56 50 99 3c 4a 83 2c be da 34 e1 bc
       -0.14786153 0.018715065 -0.16846958 -0.027491022
000020 e3 af 69 bc 35 2d de bd ca 2f af bd 29 26 f4 3d
       -0.014263126 -0.10848466 -0.08554037 0.11921341
000030 b1 26 b8 bc ae 66 c4 3c 2b d5 a8 bd c9 34 24 3d
       -0.022479387 0.023974743 -0.082437836 0.040089402
000040 3b e3 33 be 56 cb 8f bc 7e 33 44 bd 33 9d 00 3e
       -0.1756715 -0.017553013 -0.04790067 0.12559967
000050 dd 94 a9 3c f0 55 d9 3c f7 ef af 3c 5f 64 ac 3d
       0.020700866 0.026530236 0.021476729 0.08417582
000060 d5 b9 df 3d 4b d7 81 bd 26 f0 39 be fa 7d e0 bd
       0.109241165 -0.06339892 -0.18158016 -0.10961528
000070 2e 36 b4 3c 91 18 de 3d cc 0b 53 bd 01 84 c6 3b
       0.021998491 0.108445294 -0.051524922 0.0060582166
000080 0b 88 0b 3e fd d4 67 be 7e 16 7a be dd 16 6b bd
       0.13626115 -0.22639842 -0.24422643 -0.05739485
000090 d4 33 ab bd df 54 de bd 92 6a aa b9 05 4f 09 be
       -0.08359495 -0.108560316 -0.00032504328 -0.1340905
0000a0 ca f0 2a be 58 f9 62 3e d0 ea 36 be 64 af 04 bd
       -0.16693416 0.2216543 -0.17863011 -0.032393828
0000b0 10 c0 e5 3d 56 29 6b bd 6f 30 19 be 0b 5d 61 bc
       0.11218274 -0.057412468 -0.14959882 -0.013755093
0000c0 ec 68 cd 3c 26 66 cc bc 25 a5 5e 3e bc ee 04 3e
       0.025074445 -0.024951052 0.21742685 0.12981695
0000d0 33 45 fd bd cc ff 7a bd 3c 2e 0e be ea 4d 27 3d
       -0.12366714 -0.061279103 -0.13884825 0.04084579
0000e0 65 0d fe bd 9c da 91 3b 1c c4 11 be 8e db 61 bd
       -0.124048986 0.004451109 -0.14234966 -0.055141024
0000f0 4d 77 76 bc 45 a6 f9 3d 04 ac 9e bd 6d a2 ae bb
       -0.015043092 0.121899165 -0.07747653 -0.0053294213
000100 b3 5c 3b 3d ca c8 68 be 4d f9 99 bd 32 f7 80 bd
       0.0457427 -0.22732845 -0.075182535 -0.06297149
000110 56 af e1 3d 4e a2 3c be 07 c9 ec bd f0 10 60 be
       0.11019771 -0.1842129 -0.115617804 -0.21881461
000120 a3 40 7f bd 89 81 fa 3c be e9 78 be 56 42 08 bd
       -0.0623175 0.030579345 -0.24307916 -0.033266388
000130 3a 70 c3 3d 32 58 40 be d8 59 4c 3d 34 f8 3d bd
       0.0954289 -0.18783644 0.04989037 -0.046379283
000140 2e 28 1e be ea 75 e5 bd 09 de ce 3d a9 b2 f6 bc
       -0.15445015 -0.11204131 0.101009436 -0.030114489
000150 c5 ac d4 3c 17 f3 a9 3c 6d 21 1c 3d 07 39 ff bd
       0.02596129 0.020745797 0.038117815 -0.12462049
000160 fe a8 c8 bc 6a 4b 9e 3d 6c 73 8c bd 3d 38 84 bd
       -0.024494644 0.07729228 -0.068579525 -0.06456039
000170 32 da 2d bc 97 5c 08 3d 31 a7 9f 3d ab f4 1f 3e
       -0.010611104 0.033291426 0.07795561 0.15620677
000180 d9 4a 0e be 08 9c 88 bd f8 3b 04 be b2 e7 8a bd
       -0.1389574 -0.066703856 -0.12913501 -0.067824736
000190 7f 29 fc 3d e1 b1 b1 3d f3 e6 5d bc 78 03 b6 bd
       0.12312602 0.08676506 -0.013543832 -0.0888738
0001a0 8b 15 ea bd d1 2f 08 3e fc 87 cb bd e5 ac 5b be
       -0.1142989 0.1329949 -0.09938046 -0.21452673
0001b0 c9 b0 3d 3d e6 7a bb 3c 4a 61 82 3d db 73 59 3d
       0.046311174 0.022885751 0.06366213 0.053089004
0001c0 39 ac 06 be 5d fe 2d be 1d 6a 6d 3e be 8d 7d bd
       -0.13151635 -0.16991563 0.2318501 -0.061902754
0001d0 c5 ca b1 bd 2f f8 7c 3d 30 07 57 3d 10 d3 cb 3d
       -0.08681253 0.061760124 0.05249709 0.09952366
0001e0 d0 c4 42 3d 99 11 d8 3c 98 14 21 3d 1b 68 39 3e
       0.047550976 0.026375579 0.03932628 0.1810612
0001f0 46 a2 97 3d 54 65 1a 3e de 0e 9b 3d a5 a0 ea bc
       0.07403998 0.15077716 0.07571195 -0.028641054
000200 9d 93 10 3e 0e 2b 53 3e 3d 36 60 3d 61 95 9e bd
       0.1411881 0.20621893 0.054739226 -0.077433355
000210 11 35 3f 3e d1 4c d7 bd 66 3b 29 3d 4c e6 d9 3d
       0.18672587 -0.105126984 0.041316412 0.10639629
000220 5d 43 4c bd 4e 38 0a 3e be b0 3d 3b 48 8a 5a be
       -0.04986893 0.13498041 0.0028944458 -0.21341813
000230 61 06 63 3e d8 f2 1c 3e 50 90 da bd 68 92 bb b9
       0.22170402 0.15327013 -0.10672057 -0.000357765
000240 86 85 2e 3d 2e 66 8e bd 29 bf e6 bd 3b 88 2d 3e
       0.042607807 -0.06953083 -0.1126693 0.16946499
000250 f5 56 5a 3e 9b b8 73 3d ec 70 0e be a1 6b 72 3d
       0.21322234 0.059502225 -0.13910264 0.059184674
000260 a8 d3 9a bd 8f 44 18 3d ef e8 df bd 31 7a 43 be
       -0.075599015 0.037174758 -0.109331004 -0.19089581
000270 ec e1 e0 bd 61 30 bb bc 56 a6 98 bd 3b b4 e4 bd
       -0.10980591 -0.022850217 -0.07453601 -0.11167189
000280 7a 83 0f 3d e6 63 00 bd 96 07 f0 3c f8 a6 70 bd
       0.035037495 -0.03134527 0.029300492 -0.058752984
000290 11 e6 02 3e 8b 58 06 3e af d3 13 3d af f6 a2 3b
       0.12783076 0.13119714 0.03609055 0.0049732546
0002a0 97 95 12 be 92 b6 a9 3d 0f 48 4a 3b 81 a1 dd 3d
       -0.14314876 0.08286776 0.0030865704 0.1082182
0002b0 4a 26 0e bd 1e b9 bd bd 0d 11 b5 bd 29 8e 15 be
       -0.034704484 -0.09263824 -0.08841143 -0.14605011
0002c0 fd 35 77 bc ae 8d 15 bd f3 13 9f bd 82 fa 9d 3c
       -0.015088555 -0.03651207 -0.07767477 0.01928449
0002d0 15 3c c1 bd a5 3d 10 3b 32 2c 0d 3e 19 26 94 bd
       -0.09435288 0.00220094 0.1378639 -0.07233829
0002e0 e5 4a 6e 3d 41 a3 c2 3d 31 4e a5 bd c0 44 3a 3d
       0.058176894 0.095037945 -0.080715545 0.04547572
0002f0 81 0e 07 3e ed 4e b4 bc 2d 22 fa bd db bc b1 bd
       0.13189127 -0.022010291 -0.1221355 -0.086785994
000300 4c a9 92 3c e2 99 ee bd fd c3 22 be cb 0a 28 3e
       0.017902993 -0.116504446 -0.15895076 0.16410367
000310 95 0c c9 3d a0 0a 1f be 94 b0 e1 bd 84 cf dc bd
       0.09816853 -0.15531397 -0.11020008 -0.10781768
000320 5f c4 09 3e a3 68 09 be 8c 10 a7 bd 5c d2 4d be
       0.13453816 -0.13418822 -0.08157453 -0.20099777
000330 72 e6 0e 3b d5 52 84 bb 9e ac 96 3d a9 a1 07 bd
       0.0021804837 -0.0040381947 0.07357143 -0.033113156
000340 af 74 07 3e 4f fc 27 bc e1 dc f7 3d 28 dd e3 bd
       0.13228105 -0.010253026 0.12102676 -0.111261666
000350 d8 f6 fe bd 46 a3 66 be 5c 1b c0 bc 42 0f 1c bd
       -0.124494255 -0.22523221 -0.023450546 -0.03810049
000360 20 26 3b be 51 10 e8 3d 1a b9 5a 3d e0 56 25 be
       -0.18276262 0.11331237 0.053399183 -0.16146421
000370 35 bb 2c bd 6a 62 02 3e 6f 3f 2f 3d 9f 18 e4 3d
       -0.042170722 0.12732854 0.042785104 0.111375086
000380 2b 10 7e bd a0 59 31 b8 a0 9e e3 bd 3c dc 57 bd
       -0.062027138 -4.228356e-05 -0.1111424 -0.052700266
000390 6a 86 55 be fd 51 e4 3c 9d da 93 3d 94 86 9b bd
       -0.20852056 0.027871126 0.072194315 -0.07594028
0003a0 05 9e db bd 86 70 8e bc fe aa 5a bd 02 e0 f2 3d
       -0.10723499 -0.01738764 -0.053385727 0.11859132
0003b0 24 34 d5 39 58 8d c1 3d f9 fd fa bd a7 21 91 bb
       0.00040665374 0.09450787 -0.12255473 -0.0044290605
0003c0 b7 38 e6 bc 60 d2 19 3e 30 56 de 3d 9e 49 79 bd
       -0.028103216 0.15021658 0.10856283 -0.060861222
0003d0 b9 73 ac bd 10 01 89 bd 09 26 3f 3d a5 32 23 bd
       -0.0842051 -0.06689656 0.046667133 -0.03984322
0003e0 0b e2 43 bd 3c 79 9e 3d 2d 65 9a bd be 94 d4 3d
       -0.047822993 0.07737967 -0.07538829 0.10379933
0003f0 bc 0f 68 3d ac 27 03 bd 31 76 54 bd f2 1d 78 bd
       0.05665563 -0.032020256 -0.05187053 -0.060575433

weight f4 [128, 256]
000000 31 6b 78 3d 9f a7 02 bb b5 54 82 3c 86 8f f4 bd
       0.0606491 -0.0019936336 0.015909532 -0.119414374
000010 42 b5 ed 3c 94 7c 28 bd c6 6e c8 bd 50 d3 b1 bc
       0.029017095 -0.041134432 -0.09786753 -0.021707207
000020 8d 4c db 3d b1 b2 b7 3d 51 2b 1c bd 62 c0 06 be
       0.1070796 0.089696296 -0.038127247 -0.13159326
000030 88 de 21 be 49 2a 66 3c da f4 b7 bd 5a 79 17 3d
       -0.15807545 0.0140481675 -0.089822486 0.036980964
000040 1f 3b b9 bd b7 88 23 bd 93 bd 91 3d a0 61 44 bd
       -0.090444796 -0.039925303 0.071162365 -0.047944665
000050 25 6f 59 3d 40 09 79 3d ad 93 83 bc be 84 9d 3d
       0.05308451 0.060799837 -0.016061628 0.07691334
000060 5d a2 22 3d 74 27 ca 3d 8c 25 a7 bd 7c 3b 09 3d
       0.039705623 0.09870806 -0.081614584 0.033503994
000070 e4 1c 23 be 3a 77 1a be b1 31 83 bd dc 9b 3d 3d
       -0.1592899 -0.15084544 -0.06405962 0.046291217
000080 9a 67 33 3c fb 9b e2 3d 29 13 81 bc 91 a8 2f 3c
       0.0109499935 0.11064907 -0.015756207 0.010721342
000090 96 8c e2 3d 57 6a 0e 3c a3 c8 f7 bc 55 bb f1 3d
       0.11061971 0.008692346 -0.030247038 0.11803309
0000a0 ec d2 bb 3d 96 8c 3d bd 66 5c a0 bd bb 54 9b 3d
       0.091710895 -0.04627665 -0.078301236 0.075845204
0000b0 8e 15 d7 3c 20 3f 3b bd ff 69 04 3e b3 e3 c4 3d
       0.026255395 -0.045714498 0.1293106 0.09613743
0000c0 d9 d0 91 bd 4c 13 ee 3d 3b 09 96 3d 3b 17 b9 bd
       -0.07119913 0.11624774 0.07325979 -0.09037634
0000d0 35 da b5 bd 55 5e 56 be ca 32 d6 bd 24 de 06 3c
       -0.0887951 -0.20934422 -0.10458906 0.008231673
0000e0 73 af 82 bd 5c 58 84 3d d4 dc 86 3b 37 40 0a 3e
       -0.063811205 0.06462166 0.00411568 0.13501059
0000f0 f8 db 93 3c 2e 00 47 bc 3c f5 91 3d 79 f9 3f 3d
       0.018049225 -0.012146039 0.07126853 0.046868775
000100 ac bb 3c 3d b0 13 0f be b4 df b9 3c c4 0a 5d 3d
       0.046077415 -0.13972354 0.022689678 0.053965345
000110 86 42 28 be f8 9a ed bd 18 25 7a bc f3 f3 90 3d
       -0.16431627 -0.116018236 -0.015267633 0.070777796
000120 ba ca 4f 3d 11 11 4f 3d 7a 6d b6 bd 04 3b f8 3c
       0.050730444 0.050553385 -0.089076 0.030301578
000130 12 90 5f bd fa 70 18 3d c8 e2 5a bc d9 da 10 be
       -0.054580756 0.037217118 -0.013359733 -0.14145984
000140 a0 3f e8 3c 3f 8f fa ba d4 f9 f0 3d d8 77 ac 3d
       0.028350651 -0.0019116177 0.11766401 0.08421296
000150 e8 fc 9c bd 28 d9 53 bd 9c 14 c6 bc 3f 58 f9 bb
       -0.076654255 -0.05172077 -0.02417975 -0.0076093967
000160 79 02 e8 3d fb 8e 54 3d 85 42 d9 bb fe 05 33 bd
       0.113285966 0.05189417 -0.006630244 -0.043706886
000170 7b f1 cd bc 65 b4 4f 3c 9a 46 b9 3d ce d2 5e bc
       -0.02513956 0.012677287 0.09046669 -0.013600064
000180 90 98 aa 3c 42 e9 07 3d 10 4c 92 be da e3 02 3d
       0.0208247 0.033181436 -0.28573656 0.031955577
000190 b9 dd 51 be 18 73 cd bd ae ca 88 bd c4 d8 05 3e
       -0.20494737 -0.10031718 -0.06679283 0.13070971
0001a0 ba 49 6d bd 5c 6b 5a 3d 86 97 2a bd 36 d5 93 3d
       -0.05793164 0.053325042 -0.04164841 0.07218401
0001b0 7f 31 8c bd 1a b0 11 3e 6d 1b 8d 3c 20 ab 54 ba
       -0.06845378 0.14227334 0.017224992 -0.0008112658
0001c0 b7 bf 47 bd 37 65 8e 3c 79 bb 8b 3d 67 65 98 3d
       -0.048766818 0.017382247 0.06822867 0.07441216
0001d0 c7 ab bd 3d 54 39 73 3d 99 27 b5 bd d5 e9 40 bd
       0.092612796 0.059380844 -0.08845443 -0.047098
0001e0 2d 34 69 3c f3 df e5 bc a8 d6 5d 3c b1 fe 4a bb
       0.014233631 -0.028060889 0.013539948 -0.0030974562
0001f0 c3 a7 33 be 71 77 c8 bd 1a 62 18 3a 39 5a be 3c
       -0.17544465 -0.09788407 0.0005812958 0.02323638
000200 0a 53 7d 3d f4 b2 0c be 9d 77 1a bd c8 b4 7d bd
       0.06184677 -0.1374014 -0.03771173 -0.061939985
000210 db a8 39 3d 6b dd 9c 3c a2 d7 81 3d 60 e6 5f bd
       0.04532705 0.019148549 0.06339957 -0.054663062
000220 75 65 fa bc 3b 98 fc 3d 0c 1d 61 3d 24 94 5a bc
       -0.030565957 0.12333723 0.054959342 -0.013340984
000230 fd c1 80 3b 83 d3 13 3c 08 47 bb 3d 06 83 07 be
       0.003929375 0.009022596 0.091444075 -0.13233575
000240 ee bb db bc b3 5f d1 3d 0f 4c a0 3d 63 78 ef bd
       -0.02682301 0.10223331 0.07827007 -0.11692884
000250 c7 dd a5 bd 06 64 ab bd 42 7f 28 bd de a0 b2 bd
       -0.08098941 -0.08368687 -0.041136988 -0.08722089
000260 45 37 10 be 60 ee 02 3e ab 29 27 3e fe 2a 66 bd
       -0.14083584 0.12786245 0.16324489 -0.056193344
000270 9e bb 0b be 66 bf cb 3d be 33 92 3c cf d3 81 be
       -0.13645789 0.09948616 0.017846938 -0.2535691
000280 2d ac 0a 3d 51 b6 0b 3e 3e 64 b5 3b 29 ad 59 bd
       0.033855606 0.13643767 0.0055356314 -0.053143654
000290 dd 6f 17 be 33 92 12 3d b0 34 7b bd 6d ff 87 3d
       -0.14788766 0.035783958 -0.061329544 0.066405155
0002a0 c4 ca 45 bd 18 2a 37 3e a8 a0 4d bb b9 b3 ec bd
       -0.048289075 0.17887151 -0.0031376276 -0.11557717
0002b0 95 e0 03 be d1 14 03 3e 5b 69 b0 3d 55 35 00 bc
       -0.1287864 0.1280091 0.08613845 -0.007825215
0002c0 d2 9b bd 3d 10 67 99 3d c5 d1 9a 3c db 74 4b 3d
       0.09258236 0.07490361 0.018898854 0.04967199
0002d0 14 82 ab 3d 59 ed 9b bd 34 31 30 bd e1 17 b2 bc
       0.0837442 -0.0761363 -0.043015674 -0.021739902
0002e0 02 ed ef 3d 8b 4f d4 bb 1a 2d 73 bd 3d de 15 3e
       0.117151275 -0.006479209 -0.059369184 0.14635558
0002f0 35 1b 48 bd 81 4b a4 bd 43 a5 0e 3c f4 d5 85 bc
       -0.04885407 -0.08022214 0.008706394 -0.016337372
000300 73 ff f9 bc 34 a1 cc 3d 87 9f b0 3d 0e 19 86 3c
       -0.030517315 0.099916846 0.086241774 0.016369369
000310 13 aa b2 3d 36 c8 f3 bc 9c 8d 84 bd ea 51 dd 3c
       0.08723845 -0.029758554 -0.06472322 0.027016599
000320 5c 91 32 bd 75 7d e5 3c 46 df a1 3d 71 a1 01 3d
       -0.043595657 0.028013924 0.07903914 0.031648103
000330 7a 85 8f 3d 97 fe 60 3d b0 00 48 bd 54 4e d8 bc
       0.070078805 0.054930296 -0.04882878 -0.026404537
000340 57 75 9b 3b 52 8f 09 3d 0f f5 22 3d b1 db 86 be
       0.0047442126 0.033583947 0.039784487 -0.26339486
000350 2a 45 8b 3d e1 e4 2a 3d 4f a1 96 3d 28 8d 92 3d
       0.068003014 0.041722182 0.07354986 0.0715583
000360 6d cb ab 3d e3 08 ee 3c 53 16 78 3d 3c 7a 10 be
       0.0838841 0.029056972 0.060568165 -0.14109129
000370 fd 1d 95 bc ed 78 61 bd c6 44 e8 3d 83 06 07 bd
       -0.018202776 -0.055046964 0.113412425 -0.032965194
000380 b1 41 e1 bc d9 88 85 3d 04 5a 2d 3d ed 64 3f 3d
       -0.027497144 0.06520242 0.042322174 0.04672711
000390 bf 36 f6 bc 58 b3 a7 3d 35 92 e2 3c 76 a6 d3 bd
       -0.030055402 0.08188504 0.027657608 -0.10334484
0003a0 50 d8 51 3d 7e ce c2 3c e6 d5 19 bc a8 ba 08 3d
       0.051231682 0.023780104 -0.009389376 0.033381134
0003b0 57 e3 9a bd 08 7b f1 bc 2f ef ec 3d 84 2a 93 3d
       -0.07562893 -0.029477611 0.11569058 0.071858436
0003c0 0f c3 28 bb 34 48 c0 bc 72 6c 30 bd 81 e8 ca bb
       -0.002575103 -0.02347193 -0.04307217 -0.0061922674
0003d0 28 4a 99 3c a9 a2 65 bd 30 0e d7 3d 1c 8e 3f 3c
       0.018712118 -0.056063328 0.10500753 0.011691596
0003e0 6b f1 83 3d 66 bb a8 3c 59 af 8c 3d 7e 09 b3 bd
       0.06442531 0.020597171 0.068693824 -0.08742045
0003f0 25 3f 3b 3e 1b a2 87 3d 7a 3f a2 bd 93 53 4b bc
       0.18285806 0.06622716 -0.079222634 -0.012410062

bias f4 [128]
000000 85 62 8d 3c 88 7c 5c 3d fb 82 e0 3d bd 71 08 3d
       0.017258892 0.0538297 0.109624825 0.033311594
000010 cd f9 b7 bc 55 c1 d3 3c 07 92 79 bd cc 68 b7 3c
       -0.022457981 0.025849024 -0.06093028 0.022388838
000020 2d cc a3 bd ea 8a 7c bd 1f a6 06 bd cb aa 3a 3b
       -0.07997928 -0.061655916 -0.03287327 0.0028483148
000030 09 ac 53 bd 94 b1 08 bd f9 f9 b7 3d d0 f9 33 3d
       -0.051677737 -0.033372477 0.089832254 0.04393941
000040 31 8c a4 bd d6 5c 40 3c d1 69 9f 3d e5 23 81 3c
       -0.08034552 0.011740884 0.07783855 0.015764186
000050 30 ec 82 bd 03 ed 89 3d 32 81 87 3d ab 64 f0 bc
       -0.063927054 0.067346595 0.06616439 -0.029344877
000060 e3 f9 ac bc ab b2 94 3d 98 bd cf bd 2a ca 83 bd
       -0.021115249 0.07260641 -0.10143584 -0.06435044
000070 5f ab 1c 3d 60 69 26 3d 3d b5 a8 bd 9d ca a9 3b
       0.03824937 0.040627837 -0.082376935 0.005181624
000080 ac 23 32 3d 9f 81 08 3d 27 14 07 3d d1 19 7e bd
       0.04349105 0.03332674 0.032978203 -0.06203634
000090 88 2f 14 3a b6 6e 38 3c 5e 2f da bb b5 5a 8e 3d
       0.00056528347 0.011256864 -0.0066584786 0.06950895
0000a0 00 39 1d 3b bb 68 47 3d 53 b7 c4 bc 59 53 8e 3d
       0.0023990273 0.048683863 -0.024013197 0.06949491
0000b0 db b6 57 bc 15 d4 d7 3d e0 91 70 3d f8 e0 80 bd
       -0.013166155 0.10538498 0.058732867 -0.062929094
0000c0 82 3b 2a 3a 4c 7b 83 3c bd 72 0b 3d 54 ed 3c bb
       0.00064938527 0.016050003 0.03404497 -0.0028827982
0000d0 39 a0 ef 3c be 33 90 3c c0 13 36 bd 70 c6 de bb
       0.029251205 0.017602798 -0.04445243 -0.006798558
0000e0 b9 b2 e1 ba 4d 7b 12 bc d2 3b cc 3d 1e 06 6e bd
       -0.0017219401 -0.00894053 0.09972347 -0.058111303
0000f0 31 2d 24 3d 5b e8 db 3d d2 93 c3 3d ac fa 16 bd
       0.04008216 0.10737678 0.09549679 -0.036860153
000100 ec 0c 0f bd 9d 86 a0 bb a5 10 34 bd 17 23 94 3b
       -0.034924433 -0.0048988597 -0.043961186 0.0045207846
000110 1f ef 72 3d 0b 32 12 bd d9 7c ca bb 2d 2e ba bc
       0.059310075 -0.035692256 -0.006179434 -0.022727096
000120 48 d4 9d 3c c9 68 dc bc 62 d9 05 3c 27 72 97 3c
       0.019266263 -0.026905434 0.008169504 0.01848705
000130 fc 5d 42 3c 80 92 d6 bd 14 a4 95 3d 38 05 16 3b
       0.011863228 -0.104771614 0.07306686 0.0022891294
000140 2c d1 ab bc 9f a5 65 3d a6 ca b5 bc 3e 20 1a bd
       -0.020973764 0.05606615 -0.022191357 -0.037628405
000150 37 33 c3 3d 1d 8b 4d 3d 57 9e 4b 3c 05 67 5b 3b
       0.09531253 0.050181497 0.012427888 0.0033478152
000160 35 04 1d 3d d8 68 98 bc 49 b8 67 3d 63 e4 22 3d
       0.03833409 -0.01860468 0.056572232 0.039768588
000170 4b 69 3b bc 1a 89 1d 3c 00 84 f5 bb 03 02 58 3d
       -0.011438678 0.009615207 -0.0074925423 0.052736294
000180 9e 1c 9a 3c ab 3f 56 3d b0 3e 95 3d 1f 28 43 3d
       0.018812474 0.052306812 0.07287347 0.047645684
000190 fe 4b e5 bc cd c9 dc 3d f4 3e 14 bc ba 50 b6 bc
       -0.027990337 0.10780678 -0.009048212 -0.02225529
0001a0 37 99 95 3d 3f d2 b6 3d 39 f4 ee 3c 5c c6 a2 3d
       0.07304614 0.0892682 0.029169189 0.0794799
0001b0 13 12 6e 3d 0e 00 1a 3d 48 5c 8a bc a3 6c a6 3d
       0.058122706 0.03759771 -0.016889706 0.081261896
0001c0 7d 51 52 bd fa 23 c3 bc c9 0c 92 3d a4 a0 84 3d
       -0.051347245 -0.023820866 0.07131345 0.06475952
0001d0 49 74 47 3d 9a bd 16 bd 4b 6a 95 3d d1 21 e5 bc
       0.048694883 -0.036801912 0.072956644 -0.027970226
0001e0 e9 3c cf bc 6d 43 bd 3d 0f 1a 00 3d 2b e3 a9 bc
       -0.025297599 0.09241376 0.03127485 -0.020738205
0001f0 b0 9e 2d 3c bb d0 18 bb 14 9d ae 3a 57 fd 8c 3c
       0.010596916 -0.0023317772 0.0013321959 0.017210646

weight f4 [64, 128]
000000 f4 2b 20 bc 9b c8 4e 3d 7b 26 a1 3d 3c fb 00 3d
       -0.009776104 0.05048428 0.07868668 0.031489596
000010 58 ea 20 3e 00 c6 40 3e 32 d0 7a 3c 0c e0 8b bd
       0.15714395 0.18825531 0.015308427 -0.06829843
000020 54 70 05 3e c6 7b e5 3d ad 89 82 bd 9e 19 f7 3c
       0.13031131 0.112052485 -0.06373916 0.030163582
000030 00 44 0d bd dd cc 0e 3e 80 b3 93 3d 6b e7 0f 3e
       -0.034488678 0.13945337 0.07211971 0.14053123
000040 86 ad 68 3a 76 24 91 3d 2a 2b 31 bd b8 2f 5f be
       0.00088759547 0.070870325 -0.043254055 -0.21795547
000050 69 cb 49 bd a1 3f 08 be ad 5b 07 3e e7 c8 5c 3d
       -0.049266253 -0.13305523 0.13218565 0.053902533
000060 e3 25 13 3e 8a 32 81 3d 4a 3b 4a be 29 00 00 3e
       0.14369921 0.06308468 -0.1974918 0.12500061
000070 e7 16 39 be e0 70 08 3e cc d6 d0 3d 7b c7 84 3d
       -0.18075143 0.13324308 0.10197219 0.064833604
000080 33 6e 05 3e c3 5d 33 be 70 a7 2d 3e 63 ed f5 3d
       0.13030319 -0.17516236 0.16958404 0.120081685
000090 6c cb 94 bd 40 7a 7e bd 26 95 35 3d b9 ef 03 ba
       -0.07265362 -0.062128305 0.044331692 -0.0005032975
0000a0 b4 59 36 3c 83 fa c5 3d e7 f7 fa bc 3c ce 5c bd
       0.011129785 0.09666922 -0.030635787 -0.053907618
0000b0 02 66 d0 3d 8c 2b 41 bd bc 0a 69 be 96 d0 a8 bd
       0.101757064 -0.04716067 -0.22758001 -0.082429096
0000c0 be ce cc 3d 8a 03 23 3e 28 22 40 3c 5b a4 ab 3c
       0.100003704 0.15919319 0.0117268935 0.020952394
0000d0 6e 58 c2 bc 76 97 8d 3c 03 b9 21 3e f5 6f f3 3d
       -0.023723807 0.017284136 0.15793233 0.118865885
0000e0 1f 71 f7 3a 6f 26 2f 3d de 59 06 be 1f d8 8e 3c
       0.0018878317 0.042761263 -0.13120219 0.017437039
0000f0 9a c1 f3 3d 0c a5 58 bd cf 3d 1f be c1 1f 96 3d
       0.11902161 -0.052891776 -0.15550922 0.07330275
000100 7c bd ee 3d ab 25 2f 3d 66 5a 02 3d 50 4b e0 bd
       0.11657235 0.042760532 0.031824492 -0.10951865
000110 89 9b 02 be 65 b1 46 3d f0 58 0f 3d 94 77 ce 3d
       -0.12754644 0.04850902 0.034996927 0.100814015
000120 2b 62 47 3d b1 e2 14 3e 48 30 a7 bd d0 8d 7e bd
       0.048677605 0.14539601 -0.08163506 -0.06214696
000130 b2 c3 94 bd d8 10 10 3e 75 2c 45 bd c0 69 73 be
       -0.072638884 0.14068925 -0.0481381 -0.23770809
000140 5e d2 07 3d 9b a8 7e bd 93 3f 01 3e b0 b0 12 3d
       0.033159606 -0.062172513 0.12621908 0.035813034
000150 e5 cf 1b be db 4e 93 3d 4c 97 c2 3d 70 f6 b1 bd
       -0.15216024 0.07192775 0.09501514 -0.08689582
000160 1b f7 53 be 1e fc 27 3e b0 01 98 bd 40 9d aa 3d
       -0.20699732 0.16404769 -0.07422197 0.08330774
000170 e7 4a ec bc 3c 25 7b 3d ce a7 e3 3d 08 5e 61 bd
       -0.02884431 0.061314806 0.111159906 -0.055021316
000180 59 82 8b 3d 2e f3 ab 3c a9 87 11 be dc 0e 49 bd
       0.06811971 0.02098998 -0.14211906 -0.049086437
000190 a3 d6 30 3e e4 ca ae 3d f4 75 4d be 4b 08 1c be
       0.17269377 0.08534792 -0.20064527 -0.15237539
0001a0 0e 6f 40 be ab 55 37 3d 7c 5d 88 be af e1 35 3c
       -0.18792364 0.044759434 -0.26633823 0.01110117
0001b0 2b 7c 2d be ed f3 e4 3d 18 05 17 3d 88 07 dd bd
       -0.16941898 0.11179338 0.036870092 -0.10792452
0001c0 b7 26 81 bd 6f ea 7f be 9c cb 1b be 84 8d e7 bc
       -0.063062124 -0.24991773 -0.1521439 -0.028265722
0001d0 ea f0 9e 3d 1f b3 c0 bc da 90 b5 3d 4d aa 6c bd
       0.077607945 -0.023522912 0.08865519 -0.0577796
0001e0 e0 0f bd 3d dd bf 5a bd 1d 7a 5e bd 62 b9 53 be
       0.092315435 -0.05340563 -0.054315675 -0.20676187
0001f0 18 4a 8b be 25 0b 99 3d 4d 8b 7d bc 82 0a 0b 3e
       -0.27204967 0.07472829 -0.015475106 0.13578227
000200 e8 3f 89 3d 8c eb 93 bc 02 4b e1 3d 44 b1 e6 3d
       0.06701642 -0.018056653 0.11000635 0.112642795
000210 cc 4d 52 3d fa de 89 3d 6e ae ac 3d 72 4a 51 3d
       0.051343724 0.067319825 0.08431707 0.051096387
000220 65 e2 16 3d e9 81 ce 3c e8 71 b7 bb ea df e6 3a
       0.036837 0.02520843 -0.0055982955 0.0017614339
000230 7a 7e 46 be 8a 79 55 3e 74 b2 91 bc fd f4 1e 3d
       -0.19384184 0.20847145 -0.017785288 0.038807858
000240 ef 2c 22 3e 8c 1c 23 3e 30 27 48 3d c5 e8 0a 3c
       0.15837453 0.15928859 0.048865497 0.008478348
000250 ae e1 a1 3d ec c7 af bc b4 b5 29 bd 30 b2 57 bd
       0.07904373 -0.021457635 -0.04143305 -0.052660167
000260 50 d4 83 bd 14 74 72 bd 22 f0 17 3d 23 c1 78 3b
       -0.0643698 -0.059192732 0.037094243 0.0037956915
000270 5d 8c de bd 75 34 9b bc 4a 71 af 3d 1a f1 8f 3a
       -0.10866616 -0.018945912 0.0856653 0.0010981888
000280 fc 1f 54 3b ea be b6 bd 73 5e c4 bd f0 de 3d 3d
       0.0032367697 -0.08923133 -0.09588327 0.046355188
000290 1f 5a c4 bd 45 95 3e 3d 6e 3b 74 3d 1a 88 80 be
       -0.09587502 0.046529073 0.05962699 -0.25103837
0002a0 a4 33 f1 3c 87 50 a5 bd 10 f0 07 3d 2f 34 9f bc
       0.02944357 -0.08072 0.033187926 -0.019434063
0002b0 65 70 19 3e fc da 6b bd 8f b5 6a bd 77 90 3a 3d
       0.14984281 -0.057581887 -0.057302054 0.04554793
0002c0 94 32 17 3e 71 e5 be bd 6f 63 a5 3d 03 e8 c7 3d
       0.14765388 -0.09321106 0.08075606 0.097610496
0002d0 1c 42 63 3d ef c3 3c bd 58 cb a6 3d 2e bd 0d 3d
       0.05548297 -0.046085294 0.081442535 0.034604244
0002e0 85 fd 18 3e 0f 4c 48 3d b4 79 58 be be 9d 04 3e
       0.1494046 0.04890066 -0.21140176 0.12950799
0002f0 5c 06 07 3e 3d b9 24 bd a8 d5 2b ba 6b 7c 86 bd
       0.1318602 -0.04021572 -0.00065549696 -0.065666996
000300 ba 0c 19 bc 58 1e 20 3d 73 26 fb 3d 17 10 44 bc
       -0.009341413 0.039091438 0.12263193 -0.011966727
000310 07 ce 39 bd 41 6f 01 bd 9f 6c 85 3e 8d 2b c2 ba
       -0.0453625 -0.03160024 0.26059434 -0.0014814005
000320 50 e8 47 3d 8f c6 73 3d 3c 7e 56 bd 7c 75 13 3d
       0.048805535 0.059515532 -0.05236648 0.036000714
000330 cd 6f e8 bd 25 d8 81 3d 4d 51 ae bd d7 42 b6 3e
       -0.11349449 0.063400544 -0.08511601 0.3559787
000340 19 06 22 3e f5 29 8b 3d 60 89 26 3d 1d f5 5a 3d
       0.15822639 0.06795112 0.040658355 0.053456414
000350 3d 06 2e 3e 9e 9a 8d be 2e 39 de bd 68 5d 21 3e
       0.16994567 -0.27657026 -0.1085075 0.15758288
000360 4f cc 19 be fe b7 22 3e 59 1a 15 3d 7e 95 89 bd
       -0.15019344 0.158905 0.03640208 -0.067179665
000370 ad d2 4b 3e d4 b4 9a bd 19 ec 8c 3e 89 a6 b5 3c
       0.19904585 -0.075540215 0.27523878 0.022174137
000380 c9 6a 00 3e 14 83 c7 3d 8d ff 81 3c 7d 60 69 bc
       0.12540735 0.09741798 0.015868926 -0.014244196
000390 8f c4 68 bc 01 c8 4f bd 21 bc d4 3d 17 87 17 3e
       -0.0142070195 -0.050727848 0.10387445 0.14797626
0003a0 28 43 8e 3e 4d 78 be 3d 76 96 a0 3d 62 5a 1e 3c
       0.2778561 0.09300289 0.07841198 0.009665104
0003b0 98 98 50 3c c9 5e 2c bd c7 09 97 3d 2a bf 0d bd
       0.012731694 -0.04208258 0.07374912 -0.034606136
0003c0 0a 4f 3c 3e 89 62 26 bd 22 3f 97 bd 2c 15 c2 3d
       0.18389526 -0.040621314 -0.073850885 0.094766945
0003d0 55 d1 80 bd 3c c7 99 3d 9f 24 8b bd 14 ab d7 3d
       -0.06289927 0.07508704 -0.06794094 0.105306774
0003e0 08 bd 10 3e e4 c6 2b be ae 5d 93 3b 57 fd 1c be
       0.1413461 -0.1677509 0.0044972515 -0.15331016
0003f0 e4 77 f7 bd 7a bd 09 3e e2 be 0d 3e cf ea d4 bc
       -0.12083414 0.13451186 0.13842347 -0.025990872

bias f4 [64]
000000 d7 b5 b6 3d c2 85 9c b9 0d aa 10 3d c1 70 8c bd
       0.08921402 -0.00029854296 0.035318423 -0.068574436
000010 1f fc 27 bd b9 5e 05 3e a7 08 cb 3d 22 47 6d 3c
       -0.041011926 0.13024415 0.0991376 0.014482291
000020 aa b4 ac bd 18 c5 3d 3d 63 74 9d 3d 58 cf 4e bb
       -0.084328964 0.04633054 0.07688215 -0.0031556692
000030 36 f1 b3 3d 70 7d a2 bc 50 05 98 bd ab 07 b7 bc
       0.08786242 -0.019835204 -0.07422888 -0.022342524
000040 33 a4 06 3e c1 ca 31 3b 64 f2 97 bd 1a 36 81 3d
       0.13148575 0.0027128907 -0.07419279 0.06309147
000050 0d 49 1c bd 5d 8e b6 3c 85 7e 0a 3e ab 86 58 3d
       -0.038155604 0.022284681 0.13524826 0.052862804
000060 ca b2 54 bd f4 48 3c bc 94 b9 9f 3d 26 39 ca 3c
       -0.05192832 -0.011492003 0.07799068 0.024685454
000070 6a 55 83 3d 03 db a0 bd 4d 57 0f bd 60 bb 9a 3d
       0.06412776 -0.07854273 -0.034995366 0.0755527
000080 40 0b ba bc 87 f8 e8 bc 5b 53 9b 3d 87 9a 04 3e
       -0.022710443 -0.02843882 0.07584258 0.12949573
000090 64 e9 a5 3c cc 8c f7 3c e7 60 22 3d be 66 9f bb
       0.02025289 0.030218504 0.039643195 -0.0048645427
0000a0 64 d5 97 bc b5 de dc 3d 4c 2c 4d bd 0c 43 5d bd
       -0.01853437 0.107846655 -0.050091073 -0.05401902
0000b0 ac 85 93 3d bb 31 a3 bc f3 80 9b bd 21 fe 72 bd
       0.0720323 -0.019921174 -0.075929545 -0.059324387
0000c0 81 1c db 3d b4 c7 ab 3a bb 53 55 3d fe 5a e4 3c
       0.10698796 0.0013105781 0.052081805 0.02787542
0000d0 f8 6f 5d 3d ab e9 0a 3e be f8 bf 3d 78 b5 c7 3d
       0.05406186 0.135657 0.09373616 0.09751409
0000e0 a7 cf 1b 3d 42 5d 94 3c bc 54 38 3d 3b 44 7c 3d
       0.03803983 0.018110875 0.045002684 0.061588507
0000f0 07 02 9a bc 49 83 8a 3b 41 bb 5e bd 15 be 32 bd
       -0.018799795 0.004227076 -0.054377798 -0.043638308

weight f4 [6, 64]
000000 ea 06 47 3e fe 08 32 3e b1 59 ef bd 83 80 93 3d
       0.19436231 0.17386243 -0.11687029 0.07202246
000010 68 bc e3 bd cf a5 f8 bd 90 a9 7d bd ce 86 35 3e
       -0.1111992 -0.121410005 -0.061929286 0.17727205
000020 b1 ef 9d bc 6b 59 0d be cf 4f 0c 3e f3 d4 8e 3d
       -0.019279333 -0.13803641 0.1370232 0.069742106
000030 45 1c de bd cd 2f 50 3e a8 d9 96 3d 01 7b 5b be
       -0.10845236 0.20330735 0.073657334 -0.21433641
000040 b2 69 05 3e eb 98 27 bd c9 57 ad bd 64 c7 78 3d
       0.13028601 -0.04091732 -0.08464009 0.06073703
000050 d4 5a 5b be 05 ac 51 3e 65 58 cb bb ca ed 8b be
       -0.21421367 0.20475776 -0.006205606 -0.27329856
000060 7c e1 42 3e b2 a5 fd bb 14 7b bf 3c c6 f6 7f be
       0.19031328 -0.0077406997 0.023374118 -0.2499648
000070 0c a0 81 bd 87 07 b8 3c 51 06 a8 be 31 af 1d be
       -0.06329355 0.022464527 -0.3281732 -0.15398861
000080 f5 d9 12 3b f1 66 82 be 73 63 bb be 1b 87 bc be
       0.0022407745 -0.25469163 -0.3659931 -0.36821827
000090 04 79 70 3e 9b f4 ba 3d ae d2 be be 55 3c 3a 3b
       0.23483664 0.09128686 -0.3727011 0.0028417308
0000a0 d5 3b 03 3d 5e 9b d5 3d 64 b3 51 bd 07 af d4 3d
       0.032039482 0.104300246 -0.05119647 0.10384946
0000b0 21 ae b0 bd fd 85 20 be c6 33 e3 bd ed f1 6a be
       -0.086269625 -0.15676112 -0.110938594 -0.2294385
0000c0 81 2f 88 bc 22 cd 89 bd 7e fd af be a3 de 7f 3d
       -0.016624214 -0.06728579 -0.34373087 0.062468182
0000d0 08 ae 70 3e 21 4f 19 3c 56 33 10 3e d2 da 60 bd
       0.23503888 0.009357245 0.14082083 -0.054896183
0000e0 34 3e 0f 3d 12 07 0a bc ba c0 98 be a4 ba 4a be
       0.03497143 -0.008424537 -0.2983454 -0.1979776
0000f0 b5 02 22 3e 17 9b 20 3b 01 b2 e6 3d b6 0f 00 3e
       0.15821345 0.0024506503 0.1126442 0.12505993
000100 93 ae 04 3e a7 23 10 be c6 64 28 be f6 54 05 3e
       0.1295722 -0.140761 -0.16444692 0.13020691
000110 a7 aa 49 3e bd 01 4c 3e f8 5d 02 3e 0d 8a df bd
       0.19694005 0.19922538 0.12731159 -0.10915003
000120 90 72 a8 bd 82 5b b7 be 9c 0c a2 be c4 cf 8d be
       -0.08224976 -0.35812002 -0.31650245 -0.27697575
000130 2b eb ad 3d 24 7c 29 bd 66 8f a2 bb 71 89 20 be
       0.0849212 -0.041378155 -0.004960942 -0.1567743
000140 4c d4 80 be 44 3e a3 3a 61 5e c5 3d e9 85 0a 3e
       -0.2516197 0.001245447 0.09637142 0.13527645
000150 02 e0 d3 3d 16 29 0c bd f3 7b 30 be a8 25 5c 3e
       0.103454605 -0.03421887 -0.17234783 0.2149874
000160 8b ba 81 be 0c da 16 bc c2 ea 40 bd cd 49 96 3d
       -0.25337633 -0.00920726 -0.047098882 0.07338295
000170 cc 9f 62 bd f9 f8 c9 3d ff a8 c4 3d 7a 50 0f 3d
       -0.055328175 0.09861941 0.09602546 0.034988858
000180 6d 63 73 bd eb 89 82 be ff 17 72 be 45 1e 20 bd
       -0.05942099 -0.25495848 -0.23641966 -0.039091367
000190 81 8d 57 bd b7 10 47 be d4 da db bc 8d 3f 8c be
       -0.052625183 -0.1943997 -0.026837744 -0.27392235
0001a0 20 03 81 bd 0c cd b8 bb 8d d7 91 bc ff 42 5a be
       -0.06299424 -0.005639678 -0.017802978 -0.2131462
0001b0 d7 80 85 be 43 27 2a 3d 86 57 a9 bd aa 6c 60 3e
       -0.2607486 0.04154135 -0.08268647 0.21916452
0001c0 fc 82 ba be d1 6f 7f be 33 c4 22 be 5f 89 57 3e
       -0.36428058 -0.24944998 -0.15895157 0.21048497
0001d0 68 63 00 be 89 0b d3 3d 12 f8 35 3d e6 a9 74 3e
       -0.1253792 0.103049345 0.04442603 0.23892936
0001e0 a0 97 b9 3c 55 f5 10 be ab 86 ba bd f0 a2 52 3e
       0.022655308 -0.14156087 -0.09107717 0.20569968
0001f0 15 41 56 3e ba 4f 29 3e 4c d1 b6 3d 82 43 09 be
       0.20923264 0.1653432 0.08926639 -0.13404658
000200 0f ec cd bd 97 87 4c 3e 7d c5 4a be e9 91 62 bc
       -0.1005479 0.19973598 -0.19801898 -0.013828733
000210 4b 7d ce bb ef 9b 92 be 67 c4 72 be 95 27 1a be
       -0.006301557 -0.28634593 -0.23707734 -0.15054162
000220 54 51 88 bd 64 66 29 3e bf 89 88 bd 01 d5 a3 3e
       -0.06656137 0.16542965 -0.06666898 0.31998447
000230 25 24 68 be 09 2d 9f 3d 5c 9b e2 3d 8e d2 f1 bc
       -0.22670038 0.07772262 0.11064789 -0.029519346
000240 1a b7 12 be 92 97 2f 3e da 06 d5 bb a1 21 34 bd
       -0.1432766 0.17147663 -0.006501061 -0.043977384
000250 ac 7a 43 3e 61 4d 1d be 11 7a c3 bd af d6 c6 bc
       0.19089764 -0.15361549 -0.09544767 -0.024272291
000260 db 1b 55 bd d9 f5 1d bc 49 ea b8 3d 96 0f 5d be
       -0.05202852 -0.009641134 0.09029061 -0.21587977
000270 51 e0 3a be e8 d9 e0 bd c2 5c 10 3e dc 55 0c 3e
       -0.18249632 -0.10979062 0.14097884 0.13704628
000280 90 39 92 3e b3 0a 43 3d c5 b0 19 3d 5c c0 47 3e
       0.28559542 0.047617625 0.037522096 0.19506973
000290 06 d5 9b 3d 61 a7 39 3d 1c e1 06 3d 1a 58 36 bd
       0.0760899 0.04532564 0.032929525 -0.044517614
0002a0 9c 44 6f 3e 4b b9 15 be 81 d6 9c bd 93 a0 90 3d
       0.23366016 -0.14621465 -0.07658101 0.07061877
0002b0 03 fa 66 3e 40 79 5e 3e b7 71 32 3d 4a 13 96 3e
       0.2255631 0.2172594 0.04356548 0.2931159
0002c0 02 bb 06 3e 1c 9a ed bd e7 3c 36 3e 49 9c 98 3d
       0.13157275 -0.1160166 0.1779667 0.07451684
0002d0 d1 a5 2a 3e e2 78 2f be 41 cc f1 bd d1 f0 c8 bd
       0.16664816 -0.17135957 -0.118065365 -0.09811557
0002e0 bf ad 92 3d 07 d7 96 bd 02 84 4e be 28 a3 59 3d
       0.07162046 -0.07365232 -0.20167544 0.053134114
0002f0 35 51 b5 bd ed a1 71 3d 5c 24 b1 bd 02 11 99 bc
       -0.0885338 0.058992315 -0.08649513 -0.018684868
000300 30 e9 2d be 34 a5 bb bd ab ba 6a 3e f9 eb 99 3d
       -0.16983485 -0.09162369 0.2292277 0.07515711
000310 3f 25 eb 3c a0 a9 29 be e5 5a 96 be 05 4f 7f be
       0.028704284 -0.16568613 -0.29366222 -0.24932487
000320 81 05 62 3d fc 9a 2d 3e e3 07 73 bd 9a 2f b9 be
       0.05518103 0.16953653 -0.059333693 -0.3616913
000330 17 46 f7 3b 00 9c 34 3e 6d 22 d4 3d 91 e4 14 be
       0.007546197 0.17637634 0.10358129 -0.14540316
000340 6f 10 ba bd 37 03 36 3e 55 65 65 bc 09 ea 57 be
       -0.09085166 0.17774664 -0.01400121 -0.21085371
000350 13 81 87 be 52 54 46 be 07 b2 0a 3d b3 bf 8d bc
       -0.26465663 -0.19368103 0.033861186 -0.017303323
000360 24 8e c7 3d 8c 6c 37 3d b8 0a 9a 3d 1a b4 ba bd
       0.09743908 0.044781253 0.07521576 -0.09116383
000370 8b 1d 00 3e 27 6b dd bb f8 56 09 3e 25 6f c7 be
       0.1251127 -0.0067571583 0.13412082 -0.38951984
000380 24 5e 10 3e bd ed 0b 3e 6a ab ec 3d 53 0d f9 3d
       0.14098412 0.13664909 0.11556132 0.121607445
000390 0c a5 04 bd ac 8f bc bd 1d bf 1b bd c3 f5 8e be
       -0.032383963 -0.09207091 -0.038024057 -0.27921876
0003a0 36 9c dc bd bf 60 1d 3e 39 7b 68 3e 56 07 b9 be
       -0.10771982 0.15368937 0.22703256 -0.3613841
0003b0 5c 98 30 3e 42 f8 9b be 9f 6b c1 bd 74 cf 98 be
       0.1724562 -0.30462843 -0.09444355 -0.29845774
0003c0 80 53 89 3c 11 6b 87 3e f7 b5 8f be a4 c8 ce bd
       0.016763449 0.26448873 -0.28068516 -0.10096863
0003d0 4d 93 ac be 28 82 07 3e 17 28 43 3e 67 5f 8b be
       -0.33706132 0.13233244 0.19058262 -0.27221224
0003e0 ee 99 99 bd e0 a8 10 be 64 4d 79 3e 91 5d 42 be
       -0.07500063 -0.1412692 0.24345928 -0.18981005
0003f0 34 3b fc 3d 12 19 77 be a3 a8 56 be f8 c2 99 be
       0.123159796 -0.24130657 -0.20962767 -0.30031562

bias f4 [6]
000000 ea 4a fb bc 0d db 5a 3d 5a 4d c0 bd 1e ae 45 bd
       -0.03067537 0.05343156 -0.09389754 -0.048261754
000010 8d 76 19 3e 07 9d 19 3d
       0.1498663 0.03750327
