MLP/MLP_network_bs_32_epoch_1000_lr_small.pkl (torch_old, 211408 bytes, 8 tensors)

weight f4 [256, 38]
00000000: c81d 503e de1d 1a3e c641 75be 8b6b 0a3e
00000010: ae38 c3bc 09a7 38be 2a6d d63e 597b 323e
00000020: be2a 0dbe 7ab6 b73d 1244 e43e 548e b8bd
00000030: cf60 503e 72c0 fe3c 594b 3bbc f559 ac3d
00000040: 99db 1dbf 30d8 123e 57e7 a03e 3d69 03be
00000050: 67d0 81bd 4367 d6bd e320 4dba 8895 97be
00000060: d322 d43e eb4c eb3d 8fa3 0f3c e4d9 90be
00000070: 08bd c6bd 06cc 45bc 352f 24be 2b6a 8f3d
00000080: 57e7 993e c963 833c 9014 ac3d 4bdd 633e
00000090: 7751 9ebc c1b5 ca3d 3df2 df3d f31d bc3d
000000a0: a1f2 41bd 4060 a53d c39c b53e 4809 0dbe
000000b0: 15f9 21be 5b1f 89be 8c45 d33d 09df 3c3e
000000c0: e70a a63d 0b0e ba3d 4579 e1bd c9bb bebc
000000d0: 573c ae3d 8b93 123d 90a0 e3bc 796f e4be
000000e0: bd8f 5b3e fca7 b3be 06be bc3c 7321 5fbe
000000f0: 0fd4 1dbf b801 02bd 97e5 913e a4c0 693e
00000100: e38e a53e 4ecf a73d 7625 8c3d 71e9 77bd
00000110: 7cf1 23be b7f8 9fbe 3b5e 99be 5c3c fcbe
00000120: bc38 4e3c f41d 1f3e 4480 20be cfea 863e
00000130: f387 d3bd ac4b ee3e 6ad7 47be c979 b33d
00000140: 214c a7be b025 9dbe 5cba 8a3e f4b2 323d
00000150: df6f 633b 6636 43be 3d42 813e e175 febc
00000160: 8eb8 d73d 9463 e63d 35be 9dbe 751a 8a3e
00000170: df7a a73d d7df 1c3e 4dd4 f1bd 042a 5abe
00000180: 3e57 04bd 9925 bebe 815b 893e 5e7b acbe
00000190: 5340 853e 7bb8 2ebe 6fb9 3e3e 032c 27be
000001a0: 9a27 393d b76b 46bd c9f9 cabc 398e 2ebd
000001b0: 8da7 04be 4729 8b3d 8e6d c23c 4f65 333e
000001c0: 43b8 423d 713a ac3e 9b5f 19be 20d6 a13e
000001d0: 4fbd 72be 1935 523e 2139 fe3d a9bf a7be
000001e0: 2d9a e9bd 9d9a b63e 5b5e 113e b3e4 8a3e
000001f0: 9b8a 583e 7f14 ea3e 3955 26bd 0de4 653d
00000200: 7d25 6cbe ceab 063e df21 97be 8d4f 9ebe
00000210: fcd5 bfbc 4ec9 7f3e 9d31 093d b804 03bc
00000220: 4f19 543e 32c3 afbe d0cb 773e 7955 51be
00000230: ed46 8dbe d155 01be d869 34be 0f2f 053e
00000240: 1e13 0d3e 438f 273e 5c0f 663e 3201 87bc
00000250: 5283 953d 8be8 36be 3a41 7d3d b75c 33bc
00000260: 229d 46be b136 1b3e 1bd9 b1bd be40 163e
00000270: 307a 9bba 8caa 57be 2bb4 813d e006 973e
00000280: 75a2 5d3e a6f5 b63e 88b4 6dbe f98a 92be
00000290: ecec ed3d 0d77 e93d fe35 47be 89e0 163e
000002a0: 5fe7 bebe 2c15 ee3b abea cc3d cca3 4b3e
000002b0: 7c53 313e 029d 89bc d1d4 0b3e 02a5 8bbe
000002c0: 6ebc f23c 6724 c73b 646a 1d3e eb42 3f3e
000002d0: 812b 1fbe 53c8 8cbd 5db5 00be 9615 bdbe
000002e0: 096c 2abe 8d16 963e 5f2e 133d b2a2 113e
000002f0: 8818 9dbd a3aa 963e 0249 953e 99ca 66be
00000300: c7f7 063e b5e8 643e 1a11 4c3c 60ae 82bd
00000310: 2318 78be 5c2e 463e b8ee 27be 3662 8abe
00000320: 6910 943d d114 6a3e 3d67 fbbe 7356 ba3d
00000330: 6f91 80bb 539b 733e 9454 2cbd 7480 d63c
00000340: 8814 973c ee26 8a3d 1b80 82bd 9926 30be
00000350: 2db7 92be 445d 2fbe 8f0e 373d 255a c3bd
00000360: 041b 25be efa9 05be 39a3 01bd a15e f0bd
00000370: 7c76 73be 35f2 25bd e2f5 193e 84f6 933e
00000380: c3ca 803e 5e4e 99be ebab 9ebd 683a f33c
00000390: 07f5 c4bd fcb4 acbe 2286 b53d 9c0b acbe
000003a0: 961c c23d 312c 9ebd b842 8f3e 04b3 c7bd
000003b0: ad2f 84bd f285 57be 213e 813c 09d1 e23e
000003c0: 06fc 653e 4af8 713e d098 b83e e73c 04be
000003d0: e637 fe3c dc8b 8dbe 091c 07be 4671 8cbd
000003e0: 95a2 1ebe 8235 69be 9234 9bbe aad5 23be
000003f0: 15b9 babe 4a12 d4be 6618 b6bd 9fbc 373d
0.2032386 0.15050456 -0.23950872 0.13517587 -0.023830738 -0.18032469 0.4188016 0.17429866
-0.13785836 0.089703515 0.44583184 -0.09011522 0.2034943 0.031097624 -0.0114315385 0.084155954
-0.61663204 0.14340281 0.31426498 -0.12833114 -0.06338578 -0.10468914 -0.000782503 -0.2960627
0.4143282 0.1148928 0.008767023 -0.28291237 -0.097040236 -0.012072569 -0.16033633 0.07002672
0.3005931 0.016038792 0.084023595 0.22252385 -0.019325955 0.09897948 0.10934875 0.091854
-0.04735053 0.08074999 0.35471162 -0.13773072 -0.15817674 -0.26781735 0.103159994 0.18444456
0.08107548 0.0908471 -0.110094585 -0.023282902 0.08507603 0.03578524 -0.027786523 -0.44616297
0.2144155 -0.350891 0.023039829 -0.21790104 -0.616517 -0.03173992 0.28495476 0.22827393
0.32335576 0.08193837 0.068430826 -0.06052536 -0.16010088 -0.31244442 -0.29954705 -0.492648
0.012586769 0.1553877 -0.1567393 0.2635102 -0.10328665 0.46542108 -0.19515768 0.08763463
-0.3267527 -0.30692816 0.27095306 0.043627694 0.0034704132 -0.1906372 0.25245848 -0.031062068
0.10533248 0.11249462 -0.3080918 0.2697331 0.08177733 0.15319763 -0.11808071 -0.2130509
-0.032309763 -0.3713806 0.26827624 -0.33687872 0.26025638 -0.17062561 0.18625425 -0.16325383
0.045203783 -0.04844257 -0.02477731 -0.042616103 -0.1295454 0.067949824 0.02373388 0.17519115
0.047539007 0.33638337 -0.14977877 0.31608677 -0.23705028 0.20528068 0.1241324 -0.32763413
-0.1140636 0.35664836 0.1419615 0.2712761 0.21146624 0.45718762 -0.04060862 0.05612569
-0.23061176 0.13151476 -0.2951803 -0.30920067 -0.023417465 0.24979135 0.03349458 -0.0079967305
0.2071278 -0.3432861 0.24198842 -0.20442761 -0.27593175 -0.12630393 -0.17618501 0.13006233
0.13776824 0.16363244 0.22466797 -0.016480062 0.07300438 -0.17862146 0.061829783 -0.010947398
-0.19395879 0.15157582 -0.08683988 0.14673135 -0.0011861976 -0.21061152 0.063331924 0.29497433
0.21644004 0.3573429 -0.23213398 -0.28621653 0.11617455 0.1139966 -0.1945419 0.14734091
-0.37285897 0.0072657075 0.10005697 0.19886702 0.17317003 -0.0167985 0.13655402 -0.27274328
0.029630866 0.0060773375 0.15372616 0.18677871 -0.15543939 -0.06874146 -0.12569185 -0.3693053
-0.16642775 0.2931408 0.035932895 0.1422222 -0.076706946 0.2942706 0.29157263 -0.22538222
0.13180457 0.22354396 0.012455249 -0.06380916 -0.24227957 0.19353622 -0.16399658 -0.27028054
0.072296925 0.22859503 -0.49102202 0.0909852 -0.003923587 0.2378972 -0.042072847 0.026184298
0.018442407 0.067457065 -0.063720904 -0.17202224 -0.28655377 -0.17125422 0.04469162 -0.09538678
-0.16123587 -0.13053106 -0.031649802 -0.11736799 -0.23775667 -0.04051419 0.15035203 0.28899014
0.25154695 -0.29942602 -0.077476345 0.029690936 -0.09617048 -0.3373183 0.088634744 -0.33602607
0.094781086 -0.077232726 0.2798059 -0.097509414 -0.06454406 -0.2104719 0.015776696 0.44300106
0.2245942 0.23629871 0.36054087 -0.12913857 0.031032514 -0.27645767 -0.13194288 -0.06857543
-0.15491708 -0.22774318 -0.30313545 -0.15999475 -0.3646933 -0.41420203 -0.088913724 0.044857617

bias f4 [256]
00000000: 63ec 66be 0436 3dbe 43e5 6abe 2452 a2be
00000010: f593 d0be f04e 59be 013c b1bd 2208 4cbe
00000020: e27a 1fbe 1016 773d c50d 9abe eb7c 12be
00000030: ab60 0dbf b95c f2be 5989 99be 8c89 51be
00000040: f6c0 06bf 90ea 8bbe bc98 2bbe 0e48 2cbe
00000050: 2439 c2be 76a7 e9bd 1841 e7be 9295 d5bd
00000060: 9424 cebe 75ef 41be d1ee 26be ae86 37be
00000070: 94a5 a7be d152 b2be c1e7 1dbe 4e4e d0be
00000080: d9e2 78be 8547 73be ad62 8bbd a62a 32be
00000090: 66a3 96be 17dc b9bd 5efe 6ebd 07bd d8be
000000a0: f3a1 7fbe bce1 d3be 7bc4 e6be 8b08 02be
000000b0: 1496 92be eb2e a1be 6711 8abe 96e9 80be
000000c0: 9332 02be 7705 f0bd 9519 0abe 47a9 bfbe
000000d0: 58fb 53be 5f7e 84be 8c04 b2bd 8f91 a4be
000000e0: 0e3b cfbe 4440 15be 6c2f eabd 4ee0 8ebd
000000f0: cdd9 a1be 5d43 88be a28a adbe c336 33be
00000100: 318b 90be 5edc 28be d72b 0ebe ea69 8dbe
00000110: d14b 1dbe 06e6 16be bbd4 34be a277 b9be
00000120: e7e7 92be f449 adbd 5c07 93bd 2441 cbbe
00000130: 1d30 92be 040f d7bd 3c1c c3be ce58 c2be
00000140: 883c e8bd 977d c0be 1550 493d df3f 61bd
00000150: 8b6d 93be d76b 04be aebc b8bd c8b8 d5be
00000160: 6a94 cabe 7e61 8ebe 0a36 a5be d881 f1be
00000170: abe5 40be 6f2a babe 08c7 3bbe a3d9 2cbe
00000180: f211 a3be 0b19 05be 329a b1be 77b4 9ebe
00000190: e131 a5be 4a9f fbbd cfee bdbe a1fc c73d
000001a0: 2af8 e8be a1f6 eabd 951e 45be b52c d9be
000001b0: 853e b1be ddfb 37be 05ca 09be e87e c0be
000001c0: 43d1 c2be 0992 d9be fd87 6fbe 8485 4fbe
000001d0: 304d d8be f7e4 bebd cc48 64be a1df 8e3c
000001e0: 376d 15be 9e54 c23c 691f 98be 5f6f f0bd
000001f0: 6571 bcbe cfe4 f7be 5447 a6be 7ec3 2cbd
00000200: 9aca f4be e9f9 10be ff3d 44be 5e97 98bd
00000210: b9a2 f1be 3e69 2ebe 1384 b3be be31 e8be
00000220: 77ee 69be fb5b 203d 88b9 263d 0c7f 70be
00000230: c314 49be 118b 07bf 9ff2 abbe d644 6dbe
00000240: f7b7 87be 05df d6be 0292 c3be 62f9 0fbe
00000250: 64f3 e1be 2384 77be 554e dabd 566a 2fbe
00000260: 8f1b fdbe 1644 97be 60e2 c1bd c502 78be
00000270: 7444 9bbe 2b28 31be b792 77be a674 87be
00000280: a4b5 88be 977c 03be c7be d8be 0d86 60be
00000290: 6f0d e7bd e88d 3bbd 0671 74be 8b3f bdbd
000002a0: cfc7 85be fdb3 74be 6d92 96bd 39ff aebd
000002b0: e206 ebbe 61cc 6bbe 3e4d 92be 8916 e8be
000002c0: ad1b 6bbe 5611 b4bd 2cba cfbe ec1e 1fbe
000002d0: 9ac2 b1be 2e65 f6be 826e 68be 15f0 79be
000002e0: b173 a4be fc89 eabe 1c6d 7fbe 1b71 53be
000002f0: e366 09bf d115 86be e37b 83be 3d3f 7bbe
00000300: 6642 7ebe 9795 54be 9f5c b5be 2984 abbe
00000310: 693e 1abe 57ac cdbd b959 fcbe b7ec 1bbe
00000320: bdbf bcbe 9f23 c5be 065f 9fbe 9b78 14be
00000330: e6f8 10be 0ffd bfbe 4daa d0be e65b d7be
00000340: d207 49be c655 9fbe 8b8f 87be b453 c9bd
00000350: 60f3 7abe 01b2 18be 5210 c7be e6eb c8be
00000360: f2be bbbd 8b52 a53c cb9f afbe ea06 49be
00000370: d0d1 afbe dbac b6be 9cd5 2abe 0cf6 efbe
00000380: 4a2b 35be 0f58 07be 9793 44be a8f8 1f3c
00000390: 7eca 8fbe 4e79 cdbe a6c5 a7be 507c 02be
000003a0: 46ad ffbd 32d8 3fbe f78a 99be 3bef 40be
000003b0: e729 bf3c 17d2 86be 5015 75be 55ea 67be
000003c0: c7f8 d9be 19da 83be 4ca7 f5bd 8b05 90be
000003d0: a758 00bd c447 88be bccb cdbd 4c4e 80be
000003e0: eccf 86be 93f7 89be b875 cebe a26e ffbe
000003f0: 15ec 01bf 7547 bcbe f789 41be d85f 99be
-0.22551112 -0.18477637 -0.22939019 -0.31703293 -0.40737882 -0.21221519 -0.08654023 -0.19924977
-0.1557422 0.060323775 -0.3008863 -0.14305465 -0.5522563 -0.47336367 -0.299876 -0.20462626
-0.52638185 -0.27327394 -0.16757482 -0.16824362 -0.3793422 -0.11408894 -0.4516685 -0.10428919
-0.40262282 -0.18939002 -0.16302039 -0.1792247 -0.32743514 -0.3482881 -0.15420438 -0.40684742
-0.24305286 -0.23757751 -0.0680593 -0.17399082 -0.29421538 -0.09075182 -0.058348052 -0.42331716
-0.24964122 -0.4138316 -0.45071778 -0.12698571 -0.28630126 -0.31481108 -0.26966402 -0.25178212
-0.12714605 -0.11719792 -0.13486321 -0.37433836 -0.20701349 -0.25877663 -0.086922735 -0.32142302
-0.40474743 -0.14575297 -0.11434826 -0.069763765 -0.3161148 -0.26613894 -0.3389483 -0.17501359
-0.28231195 -0.16490313 -0.13883911 -0.2761987 -0.15360953 -0.14736184 -0.17659275 -0.36224085
-0.28692552 -0.08461371 -0.07179138 -0.39698136 -0.28552333 -0.10500911 -0.3810748 -0.37958378
-0.113396704 -0.37595817 0.049148638 -0.054992553 -0.28794512 -0.12931763 -0.09020363 -0.4174254
-0.39566356 -0.27808756 -0.3226779 -0.47169375 -0.18837611 -0.363605 -0.18337643 -0.16879897
-0.3184963 -0.12997834 -0.34687954 -0.3099706 -0.32264617 -0.12286241 -0.3709626 0.09764982
-0.45501834 -0.11472822 -0.19249947 -0.4241692 -0.3461801 -0.17967172 -0.1345597 -0.37596822
-0.3805028 -0.42494228 -0.23391719 -0.20265776 -0.4224639 -0.09321015 -0.22293395 0.017440619
-0.14592443 0.02372199 -0.29711464 -0.11739992 -0.36805263 -0.48416755 -0.32476294 -0.042178623
-0.47810823 -0.14157833 -0.19164275 -0.07450746 -0.4719446 -0.17032334 -0.35061702 -0.4535045
-0.22844873 0.03915022 0.04070428 -0.23485965 -0.19636826 -0.52946573 -0.33583543 -0.2317079
-0.26507542 -0.41967025 -0.38197333 -0.14059976 -0.44131005 -0.241715 -0.10659472 -0.17130408
-0.49435088 -0.29544133 -0.09467006 -0.24219806 -0.30325663 -0.17300479 -0.24177061 -0.26456183
-0.2670108 -0.12840496 -0.42333052 -0.21926136 -0.11281859 -0.04578963 -0.2387124 -0.092406355
-0.26129004 -0.23896785 -0.07352147 -0.085447736 -0.4590369 -0.23027183 -0.28574556 -0.45329693
-0.22959776 -0.08792369 -0.40571725 -0.1553914 -0.34718782 -0.4812407 -0.22698405 -0.2440799
-0.32119516 -0.458084 -0.24943966 -0.20648615 -0.5367262 -0.2618852 -0.25680456 -0.24535842
-0.24830016 -0.20760189 -0.35422227 -0.33499268 -0.1506287 -0.10042637 -0.49287203 -0.15227018
-0.36865035 -0.3850374 -0.31127185 -0.14499132 -0.14157447 -0.37497756 -0.4075493 -0.420623
-0.1963189 -0.31120127 -0.26476702 -0.09830418 -0.24506903 -0.14911653 -0.3887964 -0.39242476
-0.09167279 0.020180961 -0.343016 -0.19631544 -0.34339762 -0.35678753 -0.16683048 -0.46867406
-0.17692295 -0.13217185 -0.19196926 0.009763874 -0.28084177 -0.4013161 -0.3276798 -0.12742734
-0.12484221 -0.18734816 -0.29988834 -0.18841259 0.02333541 -0.2633216 -0.23933911 -0.22647984
-0.42572615 -0.25752333 -0.119948 -0.2812923 -0.031334545 -0.26617253 -0.10048625 -0.25059736
-0.26330507 -0.26946697 -0.40324187 -0.49889094 -0.5075086 -0.36773267 -0.18900286 -0.29955935

weight f4 [128, 256]
00000000: 2986 833d 804c 6fbe 0c2d e8bd 2ba9 83bd
00000010: 7568 8fbe bf99 b7bc fa5a 8dbe 157d 41be
00000020: 3338 a03e 3902 5ebd 7c96 eabe 505a 183d
00000030: be5b 5a3d 2cd4 1ebd 2dab 643e a052 783e
00000040: 0d62 713e 83a4 5a3e 65b7 1c3e 9205 39be
00000050: 9041 bcbe fe15 61be 7f36 95bc f02d ac3e
00000060: 03e3 99be 8596 4bbe 477c 8abe 1ec5 06be
00000070: 430c 8fbe cb5e 93bc 8a81 393e f820 993d
00000080: f5c9 ac3c c895 44be aef4 b8bd fbec 9bbd
00000090: f61a b4bb 08d2 8f3d 5704 0a3d 83d7 45be
000000a0: 59c0 913d e6ee d8be 3a31 19be 9245 3b3e
000000b0: c5fe 6fbd 2c5a d5bd 1527 12be 5994 e53d
000000c0: 4372 39be b81c 543d 077a 85be d95a af3d
000000d0: 0efe af3d c8dc 833d 0b3b 89bd 2d01 66bd
000000e0: 8bc9 963d 87fb 0bbe f176 8d3d 549a 1b3e
000000f0: 921c 19bf 1bcb 893e d678 07be 78b5 553d
00000100: 555d 8c3d 0efd d9bd 566b 2ebd 97ee 16bc
00000110: 1e82 0abd 9217 8c3e a89d f43d 9c54 273e
00000120: eedc 82bd 7497 cfbd a851 2c3c 3547 aabe
00000130: 67bd 86bd 6a6d 6b3c 6c1b 26bd ec1c a63e
00000140: aace f6bd 4411 23bd be96 873d ba68 88bd
00000150: 01f7 633d 444d 5c3b fa99 e33d 8251 91be
00000160: bae7 cd3d d5c5 c6bd 2f31 183e 5bea c33d
00000170: 525e c0bd c4ad 92bd 096b e43d 5442 9abe
00000180: 937a 17bd c539 26be fa20 3c3e 7212 0cbf
00000190: eb7b 64be 9a1a 0c3d a187 f43c 7ba1 753e
000001a0: 914d 1abc 68d6 0dbe fc25 ee3e d582 f9be
000001b0: ac86 713e a996 983d 67fd 40bd 5b8d 1a3d
000001c0: e51f 603e a12a 6d3c cf6d d43d 5b96 4d3e
000001d0: 0e43 303e 1b4d 45bd dd0d 40be fb0d 18bd
000001e0: b938 1a3d 261a 953d 2791 1dbe 7b67 293d
000001f0: 1b2a 0bbe bac6 253d 4e6e cabd deca 313e
00000200: d4fd 6abe b274 a93e d575 303e 190c c1be
00000210: 59ab 0b3e 961d 723e 9823 703d d3ce 1bbe
00000220: 0728 78bd e772 13be 28c1 2f3d 29cc db3d
00000230: 31eb bd3c 80a4 a83d fadb 10bd fd86 81bd
00000240: 22f6 e63c 9c14 fb3e 8de0 4f3e 5264 763e
00000250: c7f1 d9bd 4c6a 103e 7007 923d 5d81 173e
00000260: 7018 d1bd 85fb 7dbe 6eda 84bd 27a8 093e
00000270: 476e 903c 75da ba3d f61d 303c f73e a9be
00000280: 081a 8fbd 7cdd debd 8df2 a2bc e74b 433d
00000290: 40b1 fa3c e3b3 39bd faac a5be 8d67 b4be
000002a0: 12c0 a1be 04e9 f1bd 355b 273d 4e56 2e3e
000002b0: 21aa 18bd d771 823e b050 24be e7ae 25be
000002c0: d22d 2c3e 3b2e 5e3d f49d 7dbd 6723 553c
000002d0: e42a 263d 8a9d e2bd 260c 9d3c d2df 893e
000002e0: cc9e 5fbe 5b02 83be d794 9d3e c78a 21bc
000002f0: 053a 8ebe 75d5 b03e 7b87 b23d 31fb b03d
00000300: b8da 86be 441e 3cbe eff8 c2bc d7a5 d43d
00000310: c61c 9f3d b046 2bbe 925d 6bbd 3ab5 813e
00000320: 9a0d 51bc dcd4 163d b177 d1be ae2f 8a3d
00000330: 72c5 8cbe a2a6 773e d550 06be b5ac 69be
00000340: 556d 083d 3fd0 2ebe cc16 3b3d b4fa a3bc
00000350: 065b 64bd ff47 8bbe 1f42 b9be ffcf 463e
00000360: 3678 2c3d 6508 963e 0e80 82be 2ecb 783e
00000370: 6ed2 05be ce02 2e3e f3fe 1c3e 2a96 94bd
00000380: f165 3d3c 42ee 39bd 535e d7be 9834 653d
00000390: 4ee2 d23d 5e43 3c3e 205e 863d d941 d3be
000003a0: 16c4 e63d 68b3 cc3d 94f5 b0be 9025 a1bd
000003b0: c3a7 9a3e 04f6 a9be 6f37 03bd c4ac 08be
000003c0: 2fd7 c6bd 2ed5 83bd 8344 8a3d dbfd a6bc
000003d0: b5c2 a4be 9e3a 6dbe a26e 6ebe 0397 bb3d
000003e0: 378e e8bc 8879 eabe e840 40be 1b71 4e3e
000003f0: b277 cfbe 7d4e d13d 1895 38be 4a44 2a3e
0.064220734 -0.23369026 -0.11336717 -0.064287506 -0.28009382 -0.022412179 -0.27608472 -0.18895371
0.31292877 -0.05420134 -0.45817935 0.037195504 0.05331015 -0.03877656 0.22330923 0.24250269
0.2357256 0.21351819 0.15304334 -0.18068531 -0.3676877 -0.21981046 -0.018214462 0.33628798
-0.3005601 -0.19881637 -0.2704794 -0.13161132 -0.27939042 -0.017989537 0.18115821 0.074769914
0.021092394 -0.19197762 -0.09031044 -0.0761356 -0.005496378 0.07022482 0.033695545 -0.19320492
0.071167655 -0.42369765 -0.14960185 0.18288258 -0.058592577 -0.104175895 -0.14272721 0.11209936
-0.18109994 0.0517852 -0.26069662 0.0856225 0.08593379 0.06438595 -0.06700715 -0.056153465
0.0736266 -0.13670169 0.06907452 0.1519559 -0.5980922 0.2691277 -0.13229689 0.052175015
0.06853739 -0.106439695 -0.042582832 -0.009212158 -0.033815496 0.27361733 0.11944133 0.1634087
-0.06389795 -0.10136309 0.010517515 -0.33257452 -0.065790944 0.014369348 -0.040553495 0.3244394
-0.12051137 -0.039811388 0.06620549 -0.066606 0.055655483 0.003361539 0.11113353 -0.28382498
0.10053964 -0.09705702 0.14862512 0.09566184 -0.0939299 -0.071620494 0.11153228 -0.3012873
-0.03698213 -0.16232975 0.18371955 -0.54715645 -0.22312896 0.034205057 0.02984983 0.23987381
-0.009417907 -0.1385132 0.46513355 -0.4873263 0.2358653 0.07450611 -0.047116663 0.037732463
0.21887167 0.014475496 0.10372507 0.20076887 0.1721308 -0.048169237 -0.18755288 -0.037122708
0.03765175 0.07280378 -0.15387402 0.041358452 -0.1359028 0.040472724 -0.0988432 0.17362544
-0.2294839 0.33096844 0.1723245 -0.37704542 0.13639583 0.23644099 0.058627695 -0.15215616
-0.060585048 -0.143993 0.042908818 0.107323 0.023183437 0.08234501 -0.035366036 -0.06324575
0.028193537 0.4903916 0.20300503 0.24061707 -0.106418185 0.14103049 0.07130325 0.14795442
-0.10209739 -0.24802978 -0.06486975 0.13443051 0.01763071 0.091236986 0.010749331 -0.3305585
-0.06987387 -0.108820885 -0.019891048 0.047679808 0.030602098 -0.04533757 -0.32358533 -0.35235253
-0.3159185 -0.11812022 0.040858466 0.1702511 -0.037271623 0.25477478 -0.16046405 -0.16180001
0.16814354 0.054243308 -0.061918214 0.013008929 0.040568247 -0.110652044 0.019170832 0.26928574
-0.2183792 -0.25587735 0.30777618 -0.009859747 -0.2777864 0.34537855 0.08717247 0.08641661
-0.26338744 -0.1837092 -0.023800341 0.10383194 0.0776916 -0.16726184 -0.057462282 0.25333577
-0.0127595905 0.036824092 -0.4091163 0.067473754 -0.2749439 0.24184659 -0.13116772 -0.22819789
0.033307392 -0.17071627 0.045676038 -0.020017006 -0.05575087 -0.27203366 -0.3618326 0.19415282
0.04210683 0.2930328 -0.25488323 0.24296257 -0.13068554 0.16993257 0.1533163 -0.07255204
0.011559949 -0.045393236 -0.4206415 0.05595836 0.102970704 0.18385074 0.06560922 -0.41261175
0.11267869 0.099951565 -0.3456236 -0.078684926 0.30206117 -0.33195508 -0.032035287 -0.13347155
-0.09709012 -0.06437145 0.06751349 -0.02038472 -0.321798 -0.23166892 -0.2328439 0.091596626
-0.028388126 -0.45795846 -0.1877476 0.20160334 -0.40521008 0.102200486 -0.18025625 0.16627613

bias f4 [128]
00000000: 8f1c e33d 165c c83d 66d3 21bd 0e07 2e3d
00000010: 9d82 a5be be76 7cbe 53e1 d33d f579 623e
00000020: d484 9bbd f318 743d f6bb c73d d1aa d03d
00000030: d815 a5bd 51e5 8b3d 43bb 92bd d09d 5abe
00000040: a489 14bc fd35 19be 44dd 0bbe 717f 1ebe
00000050: 569d acbe 11a4 c13d d148 273d d3cd 81bd
00000060: 7e15 3cbc de90 8d3d c4fe 86bc 1370 c13d
00000070: 5234 05be 19cc 95bd 4551 fb3c 9020 04bd
00000080: e9c6 acbe 3544 d8bc 3bac c1bb 42b9 393e
00000090: b29d 943d 90cd 7dbd c373 d8bd 41ed 573d
000000a0: 1853 fdbb 4699 363d e56a 933d 6a13 42be
000000b0: b5a6 263c 930b 9a3d a7ac 48bd 14b4 30bb
000000c0: 1f00 063c e760 fabd 1793 183e daed bbbd
000000d0: 322c d6bd 6273 8bbd 2f21 593d ccab 173d
000000e0: 79de 7dbd 50b4 473d c6dd 653c 6542 d6bd
000000f0: 8a64 4b3e b565 3d3c bc3f 653e 39fa 073d
00000100: 945e 95bd 2f40 c0bd 6a74 e83c 5d5b c9bc
00000110: c340 903d e62f bb3d 78ad 523e 07cb 9dbd
00000120: c42a ee3b c0c8 403d 3547 45bd 75cc 06be
00000130: 19f5 12be f9dc 9c3d a246 bcbd c3d1 2d3e
00000140: 37c4 60bd bdff 203d 1e0e 2cbc 3b86 74bd
00000150: aeda 2f3d 716e 203e 614d 1ebe 7406 c7bc
00000160: 6223 973b 0262 bdbc cff4 a03d c7da 77bd
00000170: 64db 6a3d cfef 0bbd 5bec 4cbe c265 efbd
00000180: af2b 2bbe a6d7 fb3c e1b8 51bd acb6 3ebe
00000190: ed04 1fbe c6c2 9ebd 568d 953d d27c cabd
000001a0: 8590 ddbc 2d56 b8bd 747b 243e 7188 9a3c
000001b0: e104 193d 32ca e93d 880f 1bbe add1 f5bd
000001c0: 158b 84bc 5f29 a7bc e406 503d 816f 0fbe
000001d0: eeed d7bd c0ce cfbc b1d9 c6bd 4883 623b
000001e0: e6c3 d6bc 66e5 523e 71dc b23c 69f5 6abd
000001f0: d817 fb3d 97b9 fdbc 8261 073e e850 7a3d
0.110894315 0.09783189 -0.039508246 0.042487197 -0.32326213 -0.24654672 0.103457116 0.22116835
-0.07593694 0.059594106 0.097526476 0.10188831 -0.08060807 0.06830848 -0.071646236 -0.21349263
-0.009066019 -0.14962001 -0.13658625 -0.15478303 -0.33713788 0.09455121 0.040840928 -0.06338086
-0.0114797335 0.06912397 -0.016478904 0.094452046 -0.1300824 -0.07314319 0.0306784 -0.032257617
-0.33745506 -0.026399711 -0.005910424 0.18137076 0.072566405 -0.061963618 -0.10568955 0.052716497
-0.007730853 0.044579767 0.07198123 -0.18952718 0.010171582 0.07521739 -0.04899278 -0.0026962804
0.00817874 -0.12225514 0.1489986 -0.09176226 -0.10457648 -0.06809117 0.053010162 0.037029073
-0.061979745 0.048755944 0.014029926 -0.104618825 0.19862571 0.011559893 0.22387594 0.033197615
-0.0729343 -0.09387242 0.028375823 -0.024579698 0.07043602 0.09139995 0.20573986 -0.0770474
0.0072682817 0.04706645 -0.04816361 -0.13163932 -0.1435131 0.07659335 -0.0919316 0.16974549
-0.054874625 0.03930639 -0.010501413 -0.059698325 0.04293316 0.1566713 -0.15459205 -0.02429507
0.0046123723 -0.023118023 0.078591935 -0.060511377 0.057338133 -0.034164246 -0.20012037 -0.11689331
-0.16715883 0.030742478 -0.051201705 -0.18624371 -0.15529223 -0.07751994 0.07302348 -0.09887089
-0.027046451 -0.09000812 0.16062719 0.018863888 0.03735817 0.11415519 -0.15142643 -0.12002883
-0.0161796 -0.02040547 0.05078782 -0.14007379 -0.10543428 -0.02536714 -0.0970949 0.0034563113
-0.026216459 0.20595321 0.02183363 -0.057362948 0.12260407 -0.030972285 0.1322079 0.061112314

weight f4 [64, 128]
00000000: 88d1 5cbe a855 193e f8dd a93a 3892 98bc
00000010: 8285 3f3e e4b7 013e a1cf c43d 8536 ebbd
00000020: 06e3 aabe 6aa5 183e 7c5c 44be 4c33 ee3d
00000030: a8d8 fc3d 90fd ecbd d93e a5be 7d9c 7c3e
00000040: c061 d13e 8e8a f03d f58c a1bc 3e03 d23e
00000050: 147f 5e3e 4976 b73d d19b e9be 9b9b 63bd
00000060: 7cfb 9e3d 2040 7b3e bf65 ea3e 1550 e43d
00000070: 3492 093d 138c af3d 7aab 4fbe 1976 1d3e
00000080: 2582 c83e ba83 c83d 1ddc a03d c9f9 923e
00000090: 4608 48be 5c36 963d f98b 413e 2f4d 033c
000000a0: 2749 863e e17a 47be 2b4f 82be c93e 9fbc
000000b0: c3ff fcbd 8fb4 d23e b34d e93e bb59 03bf
000000c0: 84b5 2e3e 2c25 23bd 7131 a03d 2564 c63e
000000d0: 81e9 3fbe 1c11 ea3e c962 fabd 25da a2be
000000e0: 74c0 833e f046 f93d acd2 423e 98ec 623e
000000f0: a41d 85bd 4239 c13d d35b 2e3e 632b ac3e
00000100: 31c0 1f3e ad9a 36bc 1d2c d0bd fd30 1b3e
00000110: 5b4d 0b3e 2a3c 64be 8f74 3e3c 7fd7 c83d
00000120: e71f 223e 21a4 0cbe c8eb 50bd 6690 8a3c
00000130: d24e 1c3f 2cac 343e 1462 90bd 94d9 45bd
00000140: df21 153f ee9e 8dbe 8dc1 a03d b0a2 9bbe
00000150: 2794 49be 8979 fcba 459f 97be 4db6 323e
00000160: 185b 3bbe 5297 89be bc4a 45be afdc 513e
00000170: e8c9 043e 51d8 bc3e c444 ea3d 1026 833e
00000180: 69c4 443e 6071 a13e e658 68bd d495 8c3d
00000190: 5485 c8bd 6293 203e f719 573d 129b 3c3e
000001a0: 16bf 96be 187f c03d 9563 8f3d d166 633d
000001b0: 6079 e93b 2e44 1a3d cb17 cabd e36f 153e
000001c0: 22fc fa3d fca0 2b3d 57a4 0e3f ae6c 533e
000001d0: 37d5 4f3e 54e8 94bd c3fe d0be 86ba 8f3d
000001e0: 041a 9fbd f898 eabd 4815 373e 79d5 003f
000001f0: 5354 2a3f dc9e 053e 3724 9b3e 8fbb 10be
00000200: 7595 63bd 7997 c43d 97bb 883e 5700 c13d
00000210: adb6 11bd d067 0e3e 21bc 80be 98c9 6b3c
00000220: 2201 95be b09f 323e 2321 a33e e3d6 263f
00000230: cd40 aa3d 4764 ea3d 0231 9b3e 1843 c43d
00000240: 8b1c 813e 4bce 263e dd37 c33b 1556 bb3e
00000250: f8a4 573e bd5e 9d3e 7037 25bf a3ed ca3d
00000260: 8948 833e 1ef8 a5bd a3af 403c 49bc b53d
00000270: 2068 4cbd 657e d5b9 fc5d 873d adc9 cebd
00000280: d272 9c3d 6f09 00bd 0d85 97bd be05 833e
00000290: 15e9 ab3e bd3b 043e f61a 713e b0c6 ae3e
000002a0: edbb 6a3e 7b23 acbe 0c0c acbe bb87 483e
000002b0: 0fde 9e3c 4e37 b53e 39f8 913d 4239 64be
000002c0: f8a8 693e e1c3 b9be be8c 843d d2da a13e
000002d0: 5b0c b4bc 90dc a33e 3e3d f13d 9702 9c3d
000002e0: 3fa7 a13e 7eed 84bd f0d4 b13d 65f3 6b3e
000002f0: dc22 31bf ec11 393d 033d 73bc ae35 f3ba
00000300: 2115 12bd fd25 033e bf3a c33e 9af4 913e
00000310: 5432 c63c 8933 09be 3a24 03bd 6785 13be
00000320: 3273 ec3e f3e3 23be 23b2 553e 5660 3c3e
00000330: afa3 383d 8f4f e93e 8c06 a9bd 32fb f43d
00000340: 8054 db3d a7eb adbd d947 243e 201a 6e3e
00000350: aeaf fe3d 3662 55bd 41a1 9abe 9151 0ebd
00000360: 9c36 5b3d 559f 133e 75c1 05be 80bc d23c
00000370: b7dd 183e b6e4 873e e2d4 003e 550a 48bc
00000380: 15ab 313e 103e 8bbe 3147 06bf 63cd 1c3e
00000390: 6e69 403e e73f 2cbd 6715 4e3d 009c 3b3d
000003a0: 47fb fd3d d43d 27be 5252 713d 3abf 96bd
000003b0: d175 81bd ab86 f6bb b6b3 8a3e 291f f4bb
000003c0: 5ba3 003e c40e b03d b461 ffbd 8d5d 35bd
000003d0: 4b68 e13d 4af0 743e de25 893d 7299 c33e
000003e0: aa07 50bc a32b fc3e 34b4 653e d055 173e
000003f0: d112 d63e a880 513e 715f 8f3d f7b9 a03e
-0.21564305 0.14974082 0.0012959829 -0.01862441 0.18703273 0.12667805 0.096099146 -0.11485008
-0.3337633 0.1490685 -0.19175905 0.11630878 0.123460114 -0.11571801 -0.3227451 0.2466907
0.4089489 0.11745177 -0.019720534 0.410181 0.21728164 0.08958108 -0.4562669 -0.05556832
0.077628106 0.2453618 0.4578075 0.11148087 0.033586696 0.08571639 -0.20280257 0.15377082
0.39161792 0.0979075 0.07854483 0.28706196 -0.19534406 0.07334587 0.18901052 0.0080140075
0.26227686 -0.19480468 -0.25451025 -0.019439118 -0.1235347 0.4115338 0.45567092 -0.5130879
0.1706143 -0.03983037 0.0782193 0.3874828 -0.18741418 0.45716178 -0.12225873 -0.31807056
0.25732768 0.121717334 0.19025677 0.22160566 -0.06499794 0.09434749 0.17027216 0.3362685
0.15600659 -0.011145276 -0.10164664 0.15155406 0.13603728 -0.22288576 0.011624469 0.098067276
0.15832482 -0.13734485 -0.05100611 0.016914558 0.6105777 0.17643803 -0.07049957 -0.0483032
0.5825481 -0.27660316 0.07849417 -0.30397558 -0.19685422 -0.0019262295 -0.296137 0.17452355
-0.18296468 -0.2687326 -0.1926679 0.2049434 0.12967646 0.36883786 0.11438897 0.25614977
0.1921555 0.3153181 -0.056725405 0.06864515 -0.09791055 0.15681222 0.052514996 0.1841853
-0.29442662 0.09399241 0.07001416 0.055517975 0.0071250647 0.037662677 -0.098678194 0.14593463
0.12255122 0.041901574 0.5571951 0.20646927 0.20296179 -0.072708756 -0.40819368 0.070179984
-0.07768634 -0.11454958 0.17879212 0.50325733 0.6653492 0.13048881 0.30301067 -0.14134048
-0.055562455 0.095992036 0.2670562 0.09423893 -0.035574604 0.13906789 -0.2514353 0.014391325
-0.29102427 0.17443728 0.3186122 0.6517164 0.08313141 0.11444908 0.30310827 0.095831096
0.2521709 0.16289632 0.005957587 0.36589113 0.21059024 0.30736342 -0.64537716 0.09908607
0.25641277 -0.08103965 0.011760625 0.08873803 -0.04990399 -0.00040720697 0.06609723 -0.1009706
0.07639088 -0.031258997 -0.07398424 0.25590318 0.33576265 0.12913413 0.23545441 0.34135962
0.2292325 -0.3362082 -0.3360294 0.19583027 0.019392995 0.35393757 0.07127423 -0.22287467
0.22818363 -0.36282256 0.06472157 0.3161226 -0.021978548 0.32004213 0.11779259 0.076176815
0.3157291 -0.064906105 0.08683193 0.23042066 -0.69193816 0.045183107 -0.014846089 -0.0018555427
-0.03566468 0.1280746 0.38130757 0.2850693 0.02419392 -0.13398565 -0.03201697 -0.14406358
0.46181637 -0.16004924 0.20868735 0.18396124 0.045077976 0.4556851 -0.08253202 0.11961974
0.107094765 -0.08492213 0.16043033 0.23252153 0.12435852 -0.052095614 -0.30201152 -0.034745757
0.053518876 0.14416249 -0.13062079 0.02572465 0.14928328 0.2654168 0.12581208 -0.012209495
0.17350419 -0.27195787 -0.5245238 0.15312724 0.18790218 -0.04205313 0.05031338 0.04580307
0.12401443 -0.1633218 0.058916397 -0.07360692 -0.063213 -0.007523378 0.27090234 -0.0074500036
0.12562315 0.08596566 -0.12469807 -0.04427867 0.110062204 0.23919788 0.06696676 0.38203007
-0.01269714 0.49252042 0.22432023 0.14778829 0.4181123 0.20459235 0.07000626 0.3139188

bias f4 [64]
00000000: 7eeb e0bd b187 b5bd 17c0 d1bd a5cc 593e
00000010: fd11 b6bd 698e 8bbd cb24 483e 4a1a 18be
00000020: cb3f b43d 1819 813e 7726 123e 7850 8cbd
00000030: f767 01be 364d 2dbe f482 023e 2a31 c23c
00000040: a316 7fbc e85a 853e 87de 73bd e60a 3e3e
00000050: 0850 dc3d b8cf 72bd ff1d 373e a9e0 9a3d
00000060: 3cee acbd 371e 2ebc 8f62 eebd 980a b23e
00000070: a11e 513c a771 7b3e e326 3ebe 5b9a 6e3e
00000080: 4f0a c73d f090 aebd 946b 0cbe 6189 11be
00000090: 685b acbd e3db f23c 1f23 8abc a022 4d3e
000000a0: 8ded d33b 3015 8cbd ed6f 7cbc 590e aa3d
000000b0: ca6c 8eba 9345 10be 9395 00be 1eac 23be
000000c0: b698 cc3d c2f9 e93c b9b1 9f3a 3fdd cdbc
000000d0: e37c 4b3e 4f78 a73d 374e bcbd 565a 793e
000000e0: 1de3 313e c912 84bd f04f 223e ea91 e8bd
000000f0: 194c 8a3e ab40 52bd b664 a9bc ed28 efbb
-0.109824166 -0.08863772 -0.10241716 0.21269472 -0.0889015 -0.06814272 0.19545285 -0.14853778
0.0880123 0.25214458 0.14272486 -0.06851286 -0.12637316 -0.16923985 0.12745267 0.023705084
-0.015569362 0.26045918 -0.05953839 0.18558845 0.10757452 -0.059280127 0.17882536 0.07562382
-0.08443877 -0.010627321 -0.11639892 0.34773707 0.01276365 0.24555074 -0.18569522 0.2330107
0.09718763 -0.085237384 -0.13712913 -0.14212562 -0.08415872 0.029645866 -0.01686245 0.2003274
0.0064675272 -0.06839979 -0.015407545 0.08303518 -0.0010866162 -0.1408904 -0.12557058 -0.15983626
0.09990065 0.028561477 0.0012183703 -0.025129912 0.19871859 0.08177244 -0.09194606 0.24350867
0.17371793 -0.064488955 0.15850806 -0.11355956 0.27011183 -0.051331203 -0.020677906 -0.00729858

weight f4 [6, 64]
00000000: c3db c7be f1cd f4be bcbc e8bc 9f18 27be
00000010: a178 71be 2158 483e 283b 943d 439a edbe
00000020: 1b88 0d3e 55b2 e13d a2a5 6d3e a205 f33d
00000030: 3d21 e53c 9fe4 0c3e d7a8 19bf 3040 99be
00000040: 20de 763d c012 e53d 77e2 5e3e 9004 ab3e
00000050: bbec 0bbf 7854 063e 55fb 7ebe 2165 9cbe
00000060: 500a c3b8 b91f bdbd 326d 623e 997a 0a3e
00000070: be08 c23e a961 b0be b1f9 8dbe 77e7 b53e
00000080: 745b d13d 6de1 f0be 0fa5 47be a0d8 64bd
00000090: 3df0 dbbc 88c3 58be 6388 10bf bb2f b13e
000000a0: 9a98 b7bd 3240 2dbf 3cb6 1a3e b181 9b3e
000000b0: a048 a63e ca33 2a3e 2a53 07bd 5ae0 e13d
000000c0: 0de1 503e 048c 3c3e 86b6 aebe 0cc2 30bf
000000d0: b471 123e 5b9e 553e f637 873e c218 03be
000000e0: 88dd 0dbe ccaf b1be 294b 313e 9375 21bf
000000f0: 769b 873e 9412 ce3d 432c 0cbf 6c67 4f3e
00000100: bf81 af3e eead 403e 8db5 acbd c30c d1be
00000110: 5d00 813e 160a 643d ead9 d8be 08a6 983e
00000120: 4070 7a3c 96d0 893c 5da1 eebd 8e87 033e
00000130: 243c 7d3d 1c23 923d fe0c 96be e21a 593e
00000140: f76f 283f 1768 5dbf 25a3 21be 44c4 20be
00000150: b5e5 933d d6ca 49bd 9d45 05bf 8843 183e
00000160: c5d4 583e 4460 9f3e 0a73 513e 9a85 2cbf
00000170: 1f69 273c bbe6 04be 3fe9 2f3e 9106 08bf
00000180: cd74 13be 0413 6d3d 277e 8c3d 78dc babd
00000190: 7a46 083e e4d9 0a3e 296d 163e 5018 adbd
000001a0: 342c 3b3e 0e03 733e 8477 083e 6380 5dbe
000001b0: 6f2d 253e 27c7 513e c258 833e 0e95 793e
000001c0: 7400 e73d 1c3f cebd e99f 3abe 0748 7e3e
000001d0: 62cd 4abe 423b 79be 2f3c 8e3e e0c1 b1be
000001e0: 095b 0bbf 2da1 3abe bf5e 7abe de12 253e
000001f0: 37e4 10bf 03f1 843e c161 653d f022 553e
00000200: ae6f 153d d601 873e 1208 ffbc b683 b93e
00000210: 465f a2be 6814 b5bd 7957 133e aa7b 88be
00000220: b5a0 543e d11e 96be d82b 4a3e f8ce d73d
00000230: eb6b b13d 713c b43d 2c63 523e 8a44 b1bc
00000240: 8753 80be 86ba d53d fde0 483d 8ed4 1dbf
00000250: 1759 d73d 8fa9 84be 01ad b6be 4587 86be
00000260: 10ac d73d 94cb afbe 0b07 16bf 716d fc3d
00000270: 40c4 cdbe 8fa6 2c3e 880b e3bd 0b31 a03e
00000280: 589f bd3e d103 a0be b354 6e3e e929 c0bd
00000290: abe2 afbd 0137 9dbe 1a7c 3fbe 1c37 54be
000002a0: 0540 56be b644 45be 8bd2 303e 8726 d3be
000002b0: 52be f6bd db20 eebe 1e1a 993e 88cb 81bd
000002c0: a312 993d 415e d4be 7273 a8be 2e76 8e3e
000002d0: 4ff0 ba3d 328f 943e f4dd d7be fae9 63be
000002e0: 1c04 893e 005b cabd d4f6 acbe 2cd8 b83e
000002f0: bb22 a43d 06fc abbe ad66 4b3e a1ac e7be
00000300: 6d1c cbbe 1bc5 7e3e 5f08 00bd 0466 33be
00000310: bcc5 0ebf 8644 dc3c 24a4 833e e354 813d
00000320: 8cb3 283e b115 1abf 9d78 0ebe d5a1 19bf
00000330: 2a03 493c d382 873d a944 113e cef1 a63d
00000340: 9a96 16bf bd2d b23e 0a6b a13e 533f 15be
00000350: 20a2 cd3d a8e5 5d3e e343 113d d1ef 6ebe
00000360: 9bcb 0dbd f16c 213e 19bb 693e de8c a13d
00000370: a36c 2dbe 653c 893e ac1a 603e 2b28 89be
00000380: cb1f edbe 1a7a a23d d4fc e33d 915b 283d
00000390: 086f 16bd 09f3 1a3d 44df a13e c6a2 adbe
000003a0: 2f61 efbe 735b 203e 8440 37be 6b14 983e
000003b0: fe5a 05bf 1e64 a93e 82da 7c3c 97be 26bf
000003c0: 773c 2ebf eab2 d23e e626 c03e 9983 9ebe
000003d0: f6d0 14bf 4cf4 843d 9b35 a4bd 17ae 91be
000003e0: 7517 25be 1090 5abe 95a4 92bd 2da4 a3be
000003f0: 66dc 8e3e 57cd 5e3d 48c2 66be 1079 783d
-0.39034852 -0.4781337 -0.028410308 -0.16317986 -0.23581173 0.19564869 0.07237846 -0.46406755
0.13821451 0.11020342 0.23207715 0.11866309 0.02796995 0.13759087 -0.60023254 -0.29931784
0.06027043 0.11185217 0.21766077 0.33401918 -0.546581 0.1311816 -0.24900563 -0.30545905
-9.3002454e-05 -0.09234566 0.22111967 0.1352333 0.37897295 -0.3444951 -0.27729562 0.35528156
0.102225214 -0.47046986 -0.19496559 -0.055870652 -0.026847953 -0.21168339 -0.5645811 0.34606728
-0.08964653 -0.6767608 0.1510858 0.30372384 0.32477283 0.16621318 -0.033038296 0.1102912
0.2039835 0.18412787 -0.3412363 -0.6904609 0.14301187 0.20861189 0.26409882 -0.12802413
-0.13854039 -0.34704435 0.17313828 -0.6307003 0.26485795 0.10062137 -0.5475504 0.20254296
0.34278676 0.18816349 -0.084330656 -0.4083005 0.2519559 0.05567368 -0.42353755 0.29814172
0.015285552 0.016823094 -0.11651871 0.12844679 0.061824933 0.07135603 -0.29306787 0.21201661
0.65795845 -0.86486953 -0.15784891 -0.1569987 0.072215475 -0.049265705 -0.52059346 0.14869511
0.21174915 0.31128132 0.2045404 -0.6739136 0.010217934 -0.12978642 0.1717882 -0.5313502
-0.14400025 0.057879463 0.06859999 -0.09124082 0.13308135 0.13559681 0.14690079 -0.08451903
0.18278581 0.23731634 0.13326842 -0.21631007 0.16130613 0.20486127 0.25653654 0.24373266
0.11279383 -0.10070631 -0.18225063 0.24832164 -0.1980491 -0.24339011 0.2778029 -0.34718227
-0.54435784 -0.18225546 -0.24450205 0.16120479 -0.5659823 0.25965127 0.05600143 0.20814109
0.03648346 0.26368588 -0.031131778 0.362333 -0.31713313 -0.08841783 0.14388837 -0.26656848
0.2076443 -0.29320386 0.19743288 0.10537523 0.08663162 0.08800591 0.20545644 -0.021639127
-0.25063726 0.10435967 0.04904269 -0.6165246 0.105150394 -0.25910613 -0.35678867 -0.26275077
0.10530865 -0.34335005 -0.58604497 0.12325562 -0.4018879 0.16860412 -0.11086184 0.31287417
0.37035632 -0.31252912 0.23274498 -0.09382994 -0.08588155 -0.30706027 -0.18699685 -0.20724148
-0.20922859 -0.19264492 0.17267816 -0.41240332 -0.120480195 -0.46509442 0.29902738 -0.06337649
0.07474258 -0.4147816 -0.32900578 0.2782454 0.091278665 0.290155 -0.42161524 -0.22257224
0.26760948 -0.09880638 -0.33782065 0.36102426 0.08014437 -0.33590716 0.19863386 -0.45248893
-0.39670125 0.24879877 -0.031257983 -0.17519385 -0.5577047 0.026888143 0.25711167 0.06315019
0.16474742 -0.6018935 -0.13913198 -0.6001256 0.012268821 0.066167496 0.14186348 0.08151589
-0.5882355 0.3480052 0.31526977 -0.14574938 0.100406885 0.21669638 0.035465132 -0.2333367
-0.034618 0.15764214 0.22825278 0.078881964 -0.16935973 0.2680389 0.21885175 -0.26788458
-0.4631332 0.07933445 0.111322075 0.04110295 -0.03672698 0.037829433 0.3161565 -0.3391325
-0.46753833 0.15659885 -0.17895705 0.29703078 -0.5209197 0.33084196 0.015432956 -0.6513457
-0.6806101 0.41152126 0.37529677 -0.30959776 -0.5813135 0.064919084 -0.08018037 -0.28453133
-0.1612223 -0.21344018 -0.07160298 -0.31961194 0.27902526 0.054395046 -0.2253505 0.06066233

bias f4 [6]
00000000: 0275 e63c 6ae1 c6be 6fd2 5f3d 3603 c23d
00000010: f384 813d e860 3b3e
0.028131966 -0.38843852 0.054644044 0.09473269 0.06324186 0.18298686
