MLP/MLP_network_bs_16_epoch_1000_lr_small.pkl (torch_old, 211408 bytes, 8 tensors)

weight f4 [256, 38]
0.14727421 0.16280323 0.013381094 -0.1022168 -0.09877558 0.1372962 -0.11972362 -0.09199738
0.0070160404 0.065136336 -0.078672655 0.07779014 0.1093265 0.14992768 -0.16483077 0.014451085
-0.025714135 -0.107315645 0.05331298 -0.09419418 -0.13837427 -0.030137016 0.04916976 -0.13650702
-0.0065044397 -0.13414587 -0.12611645 0.019795796 -0.08961541 0.16372259 0.050412614 -0.11882003
0.11001398 0.044901643 -0.16803989 -0.12646037 0.02647764 0.05732033 0.07589108 0.020697745
-0.041993666 -0.15000439 -0.031219896 0.099686995 -0.096558124 -0.047745712 -0.16261417 0.08096536
-0.07615045 0.10938187 0.10473704 -0.12894118 -0.17436163 0.0043752627 0.11001134 -0.13629805
0.048815817 -0.11279454 -0.09277735 -0.11904449 -0.08046815 -0.16136353 -0.030136239 -0.057460595
0.11748159 -0.13730335 -0.040971402 0.008588398 -0.076517306 0.048256636 -0.022584163 -0.06417827
-0.024353927 0.04470502 0.10168814 -0.13036713 0.068629496 -0.15958264 0.046456076 0.12645061
-0.17299347 0.059312016 0.06720799 -0.09775091 -0.16230762 0.08355587 0.1137251 0.13850592
-0.044093486 -0.074953556 0.03465206 0.082588986 -0.12885755 0.0712387 0.03038756 0.07026069
0.009977708 -0.07510184 0.16791347 -0.13165161 0.040611874 0.10523532 0.068629764 0.005319515
0.14489427 -0.13952552 0.080216564 -0.16374317 -0.08612544 0.10775275 0.045028184 -0.15983768
0.11526327 -0.017257754 -0.0828719 0.12842564 0.11837696 0.07527476 0.14235868 -0.057616927
0.12948032 0.15969989 0.15482777 -0.047491774 0.058360476 -0.09302468 -0.03623771 -0.1162061
0.11660267 0.06392978 -0.11639592 8.406937e-05 0.024718076 -0.13511172 0.053500175 0.070078075
0.0808559 -0.08475811 -0.110773034 -0.041819524 -0.13246323 -0.10112066 0.025288347 -0.12401117
-0.13405466 0.08100713 -0.16042612 0.024616482 -0.00010333557 0.038569346 0.011733968 -0.100841366
0.057088707 -0.056118615 0.07792226 -0.09254375 0.059775937 0.15629815 0.045132104 -0.032928407
0.002808481 -0.005842145 0.058822412 -0.099358134 0.056951594 -0.090956785 0.09548339 0.1386979
0.101610124 0.10586125 -0.038731925 0.11609757 -0.06829638 0.047580767 -0.16193949 0.0076116854
0.071398295 0.16866109 -0.057854943 -0.16461422 -0.17710066 -0.15883248 -0.17176777 -0.020184767
0.08155706 0.03686491 -0.004100062 0.11790073 0.031211527 -0.14037213 0.09229377 -0.06780785
0.0726515 0.16761029 0.017013026 0.059187774 -0.087822616 0.028668743 -0.024734106 -0.0014989949
-0.08903473 -0.028966045 -0.04160302 0.1230963 0.124377884 -0.058429908 0.13388963 -0.063182004
0.03782438 0.043302923 0.06118187 0.08637121 -0.025844593 -0.13739964 0.017552242 -0.058994353
-0.13022491 -0.059820343 -0.14144225 -0.07147034 0.15501297 0.025629928 0.15470439 -0.113538094
0.10699523 -0.07431131 0.15605143 -0.053087052 0.05153565 -0.0025425197 -0.08383532 0.13791505
-0.04883836 -0.041560456 0.09209875 -0.030589623 0.17122872 0.12665533 0.12573567 -0.026242934
-0.06403016 -0.13788472 -0.027204376 -0.11143538 -0.17038333 0.0073986226 -0.035131726 -0.043929815
-0.104996786 0.10294253 0.014038207 0.03822548 0.13178456 0.10732096 0.08191354 -0.114981614
00000000: 0dcf 163e e4b5 263e 603c 5b3c 0b57 d1bd
00000010: da4a cabd 6097 0c3e a831 f5bd 1f69 bcbd
00000020: d0e6 e53b 3366 853d 211f a1bd 7050 9f3d
00000030: 92e6 df3d a486 193e 66c9 28be 3ec4 6c3c
00000040: 73a6 d2bc 4ec8 dbbd b65e 5a3d e1e8 c0bd
00000050: fcb1 0dbe e7e1 f6bc 3b66 493d 7fc8 0bbe
00000060: 3223 d5bb 895d 09be ac24 01be cb2a a23c
00000070: 4988 b7bd e5a6 273e 757d 4e3d ea57 f3bd
00000080: 024f e13d c9ea 373d a612 2cbe d47e 01be
00000090: a3e7 d83c b9c8 6a3d c86c 9b3d 518e a93c
000000a0: 8d01 2cbd c09a 19be dec0 ffbc b228 cc3d
000000b0: 44c0 c5bd 0291 43bd 5484 26be 2bd1 a53d
000000c0: c4f4 9bbd 9a03 e03d 6080 d63d 2809 04be
000000d0: db8b 32be 5d5e 8f3b a04d e13d b791 0bbe
000000e0: 18f3 473d d300 e7bd 0d02 bebd 99cd f3bd
000000f0: 7ccc a4bd 7b3c 25be 46e0 f6bc cd5b 6bbd
00000100: 309a f03d 4099 0cbe a1d1 27bd 5ab6 0c3c
00000110: 1bb5 9cbd c0a8 453d 6c02 b9bc e66f 83bd
00000120: e381 c7bc 9c1c 373d df41 d03d f67e 05be
00000130: 9f8d 8c3d a269 23be ba48 3e3d 457c 013e
00000140: 3325 31be 28f1 723d 58a4 893d a131 c8bd
00000150: f833 26be 571f ab3d b5e8 e83d 7fd4 0d3e
00000160: 5f9b 34bd 4081 99bd 52ef 0d3d 6a24 a93d
00000170: 3cf3 03be 98e5 913d 55ef f83c d6e4 8f3d
00000180: 8a79 233c fece 99bd 82f1 2b3e aecf 06be
00000190: a358 263d 9e85 d73d c38d 8c3d 534f ae3b
000001a0: 2a5f 143e c7df 0ebe 9548 a43d 4aac 27be
000001b0: 8962 b0bd 79ad dc3d 796f 383d 7dac 23be
000001c0: 260f ec3d 2260 8dbc beb8 a9bd 0382 033e
000001d0: 9f6f f23d a729 9a3d 79c6 113e baff 6bbd
000001e0: 7d96 043e 5e88 233e 2c8b 1e3e bc86 42bd
000001f0: 650b 6f3d b983 bebd fe6d 14bd 77fd edbd
00000200: 61cd ee3d 9eed 823d fc60 eebd 664e b038
00000210: 907d ca3c ba5a 0abe 0023 5b3d 1885 8f3d
00000220: c797 a53d a995 adbd f9dc e2bd f34a 2bbd
00000230: 71a4 07be 5918 cfbd 8229 cf3c 91f9 fdbd
00000240: a045 09be 11e7 a53d bf46 24be 81a8 c93c
00000250: ddb5 d8b8 e4fa 1d3d d43f 403c eb85 cebd
00000260: d9d5 693d a2dc 65bd b595 9f3d 9487 bdbd
00000270: 9dd7 743d 9f0c 203e 71dc 383d f0df 06bd
00000280: 7e0e 383b 776f bfbb c5ef 703d 477c cbbd
00000290: 1346 693d 8d47 babd cc8c c33d d306 0e3e
000002a0: f818 d03d c8cd d83d 5ea5 1ebd 90c4 ed3d
000002b0: f9de 8bbd 0de4 423d 77d3 25be 726b f93b
000002c0: 4539 923d 7eb5 2c3e 4ef9 6cbd a190 28be
000002d0: e059 35be fba4 22be e4e3 2fbe 865a a5bc
000002e0: 6307 a73d a9ff 163d d059 86bb f075 f13d
000002f0: 51af ff3c b6bd 0fbe 8404 bd3d d8de 8abd
00000300: 4fca 943d 08a2 2b3e e75e 8b3c e16e 723d
00000310: 58dc b3bd b6da ea3c 2e9f cabc ec79 c4ba
00000320: d757 b6bd 334a edbc ee67 2abd ea19 fc3d
00000330: d5b9 fe3d 3354 6fbd 5d1a 093e 9165 81bd
00000340: bded 1a3d 685e 313d d799 7a3d 64e3 b03d
00000350: 0ab8 d3bc 7eb2 0cbe b8c9 8f3c 10a4 71bd
00000360: ae59 05be 2d06 75bd 3dd6 10be 0b5f 92bd
00000370: b8bb 1e3e dbf5 d13c d46a 1e3e a986 e8bd
00000380: 5120 db3d 8730 98bd f2cb 1f3e cf71 59bd
00000390: 0c17 533d 67a0 26bb dab1 abbd 9a39 0d3e
000003a0: bb0a 48bd 4c3b 2abd 459e bc3d 1797 fabc
000003b0: 9556 2f3e efb1 013e dac0 003e 6cfb d6bc
000003c0: 3f22 83bd a731 0dbe b6db debc 3c38 e4bd
000003d0: f878 2ebe 2570 f23b 49e6 0fbd c0ef 33bd
000003e0: 8e08 d7bd 88d3 d23d 8200 663c 5292 1c3d
000003f0: 88f2 063e 17cb db3d 49c2 a73d 7b7b ebbd

bias f4 [256]
0.016353503 -0.06660071 -0.0155703155 -0.05286077 -0.035602584 -0.15435313 0.013077865 -0.019170992
0.14972438 0.09245574 0.047659233 0.044282455 0.04958073 0.07719801 -0.012576418 0.16948552
0.054214872 0.042451043 -0.023995927 0.13104574 0.06764126 0.15420169 -0.11548759 -0.013112229
-0.09889666 0.15515086 0.021724585 0.0900332 0.024559343 -0.047808565 -0.024225606 -0.047171693
0.13080508 -0.03973788 0.08231152 -0.12434479 0.08134526 0.13824563 -0.03289588 -0.0845866
0.11780351 0.16536616 0.12845577 -0.13784327 -0.03441166 0.15397172 -0.1367205 0.1474436
-0.11796319 -0.055008482 0.120354556 -0.019830126 0.02380449 0.13511531 -0.093115 -0.07504385
-0.006889373 0.056947954 0.09639103 -0.06526808 0.08565858 -0.011808195 0.07955029 0.11272453
0.12033292 0.06431549 -0.03714452 0.087010376 0.1665298 -0.10788408 0.17026007 0.06332789
-0.057103068 -0.059269875 0.1362234 0.05528847 0.12582159 0.029609494 -0.027471881 0.15836886
0.021713953 -0.113802284 -0.10244116 -0.08588497 -0.009186059 -0.08500793 -0.034791715 -0.068249576
-0.04801229 0.14637746 0.14155279 -0.07317806 0.08571813 -0.09842463 0.10915545 -0.023537435
-0.14384261 0.15462068 -0.12762322 -0.11059547 -0.020381471 -0.09054888 0.00798896 0.103264645
0.02302288 -0.10010537 0.14011271 -0.03165952 -0.13181098 -0.13053116 0.076137334 0.085772015
0.14969288 0.0243343 0.15705842 0.084477685 -0.14747609 0.11863535 0.14082868 -0.12080395
-0.035067443 -0.07222984 0.071924575 0.11382964 0.1788997 -0.13593628 0.11556501 0.15419203
0.07248865 -0.13167648 -0.029463045 -0.018048702 -0.11576696 0.03165697 -0.03398782 -0.11332122
-0.04615559 0.023728136 -0.10962558 -0.03409506 -0.110269964 0.032926388 -0.13038856 0.14674337
0.16029719 0.024643159 -0.14708081 -0.0066480907 -0.03361434 0.05729263 -0.121392876 -0.11403666
0.120296285 0.16509806 0.16247417 0.04312141 -0.12370498 -0.031640172 -0.07936582 0.1209295
-0.00068371376 -0.13739927 -0.16365135 0.015215241 -0.05892375 0.083104946 -0.09511257 -0.04634824
-0.10240197 0.109491296 -0.05104499 0.086338975 -0.122564696 0.002561528 0.008412435 0.16282368
-0.047422152 0.07459662 -0.10234229 -0.016059594 0.082060374 0.11829425 0.13792476 -0.01600528
0.14207298 0.036798794 -0.09033183 0.06501976 -0.0050028428 0.07130424 -0.14312306 -0.027067391
-0.1165968 -0.03646341 0.10955223 0.07913748 0.09966869 -0.050734866 0.16771804 -0.0973708
-0.029467722 -0.08273996 0.10696632 0.11190528 -0.031744514 0.13367338 0.071326524 -0.039460406
-0.031728793 -0.09159964 -0.12729664 0.0051547135 0.13641393 0.13859257 0.04219095 0.0050838985
0.17932887 -0.06896427 0.07433125 0.043974124 -0.14367071 0.09994657 -0.11209551 0.01836063
-0.013716309 0.037504587 -0.019910587 0.15821005 0.096401595 -0.02034691 0.15637606 0.12891924
-0.02775098 -0.041083 0.062133003 0.18283981 -0.10999051 0.042120807 0.06663232 0.04715027
-0.062361106 -0.1446393 -0.0013005143 0.052916154 -0.013756175 0.10949911 -0.046644125 0.14314237
-0.04175385 -0.038425405 0.17879182 -0.0050767194 0.057262875 -0.03816158 0.05437127 -0.014413711
00000000: c8f7 853c f465 88bd a31a 7fbc 8984 58bd
00000010: 04d4 11bd bf0e 1ebe 8b44 563c 7c0c 9dbc
00000020: 5951 193e 6f59 bd3d 5436 433d 8561 353d
00000030: 2a15 4b3d fe19 9e3d 520d 4ebc 9d8d 2d3e
00000040: 6a10 5e3d 25e1 2d3d 1b93 c4bc db30 063e
00000050: 8087 8a3d 0ce7 1d3e c284 ecbd add4 56bc
00000060: 558a cabd dedf 1e3e c2f7 b13c 5463 b83d
00000070: ad30 c93c ead2 43bd c774 c6bc 1b37 41bd
00000080: c4f1 053e 30c4 22bd f192 a83d 7ba8 febd
00000090: 5898 a63d 4390 0d3e d5bd 06bd bd3b adbd
000000a0: f742 f13d bf55 293e e989 033e c926 0dbe
000000b0: 3ef3 0cbd c3aa 1d3e 7500 0cbe 75fb 163e
000000c0: af96 f1bd 9350 61bd 737c f63d ca72 a2bc
000000d0: a201 c33c ab5b 0a3e 14b3 bebd 97b0 99bd
000000e0: 40c0 e1bb 4242 693d a968 c53d 45ab 85bd
000000f0: c46d af3d 2977 41bc 43eb a23d 1edc e63d
00000100: 1b71 f63d d7b7 833d da24 18bd 7f32 b23d
00000110: ca86 2a3e 54f2 dcbd a858 2e3e 0eb2 813d
00000120: e8e4 69bd f8c4 72bd 267e 0b3e 2a76 623d
00000130: 60d7 003e 9c8f f23c b60c e1bc 722b 223e
00000140: 76e1 b13c 2c11 e9bd accc d1bd 76e4 afbd
00000150: 2081 16bc a318 aebd c281 0ebd 6fc6 8bbd
00000160: 89a8 44bd f9e3 153e 37f3 103e 61de 95bd
00000170: fd8c af3d da92 c9bd e48c df3d 94d1 c0bc
00000180: 7a4b 13be e254 1e3e a9af 02be e17f e2bd
00000190: 0bf7 a6bc b171 b9bd 20e4 023c 6a7c d33d
000001a0: 7b9a bc3c 0b04 cdbd b579 0f3e 6aad 01bd
000001b0: 75f9 06be f6a9 05be e4ed 9b3d 3da9 af3d
000001c0: 1749 193e ba58 c73c ecd3 203e a302 ad3d
000001d0: f903 17be 17f7 f23d 6535 103e 1068 f7bd
000001e0: e1a2 0fbd 3ded 93bd 314d 933d 841f e93d
000001f0: 7c31 373e e132 0bbe 59ad ec3d 84e4 1d3e
00000200: ee74 943d 33d6 06be 7c5c f1bc dfda 93bc
00000210: 3a17 edbd bdaa 013d d036 0bbd f514 e8bd
00000220: a50d 3dbd 8261 c23c 6083 e0bd 43a7 0bbd
00000230: 38d5 e1bd d2dd 063d 9484 05be e543 163e
00000240: f224 243e 73e0 c93c 5a9c 16be 3ad8 d9bb
00000250: 31af 09bd adab 6a3d d49c f8bd 0d8c e9bd
00000260: e65d f63d 770f 293e a15f 263e 13a0 303d
00000270: 0959 fdbd 2099 01bd 8c8a a2bd e3a9 f73d
00000280: 413b 33ba 65b2 0cbe 3894 27be 5949 793c
00000290: 085a 71bd ed32 aa3d 61ca c2bd a7d7 3dbd
000002a0: 20b8 d1bd f93c e03d 8d14 51bd 7dd2 b03d
000002b0: 3303 fbbd 4fdf 273b 4fd4 093c 40bb 263e
000002c0: bb3d 42bd 1dc6 983d d698 d1bd 698f 83bc
000002d0: 450f a83d 4144 f23d 263c 0d3e 811d 83bc
000002e0: 947b 113e 55ba 163d e5ff b8bd 1429 853d
000002f0: e3ee a3bb f507 923d da8e 12be 6fbc ddbc
00000300: 4eca eebd a85a 15bd eb5c e03d d512 a23d
00000310: 191f cc3d 5dcf 4fbd 47be 2b3e 586a c7bd
00000320: 4b66 f1bc 9173 a9bd 2811 db3d 982e e53d
00000330: 8906 02bd ade1 083e a413 923d 3ca1 21bd
00000340: 0df6 01bd 9898 bbbd 0d5a 02be dfe8 a83b
00000350: 18b0 0b3e 36eb 0d3e 6bd0 2c3d d596 a63b
00000360: fda1 373e 243d 8dbd fb3a 983d 361e 343d
00000370: 6a1e 13be cab0 cc3d 5592 e5bd 0869 963c
00000380: 5fba 60bc 699e 193d 871b a3bc d101 223e
00000390: 336e c53d 90ae a6bc 0c21 203e 6803 043e
000003a0: 0656 e3bc a646 28bd 2d7f 7e3d 5c3a 3b3e
000003b0: b442 e1bd de86 2c3d 8776 883d a420 413d
000003c0: 5c6e 7fbd 531c 14be 0576 aaba 9cbe 583d
000003d0: 9461 61bc 1241 e03d e90d 3fbd ea93 123e
000003e0: 1606 2bbd f563 1dbd 3415 373e 9c5a a6bb
000003f0: 7a8c 6a3d 514f 1cbd 69b4 5e3d 7c27 6cbc

weight f4 [128, 256]
-0.047564574 -0.00012036845 -0.046778914 0.068581335 -0.03245117 -0.042324707 0.052197143 -0.04950781
0.056006093 0.030256225 0.05141024 -0.049200572 0.05464658 0.052435044 -0.043469425 0.017302798
0.023512194 0.07848928 -0.022092022 -0.045591827 -0.030887755 0.027426973 0.015525299 0.016171696
-0.05222922 -0.025554663 0.033271816 -0.011808132 -0.03348243 -0.05984449 -0.044322338 0.030186784
0.014906967 0.07557141 -0.0005902078 0.044147275 0.035136577 -0.0034041079 -0.018539324 0.006965879
-0.0071474323 0.026641166 -0.0070866994 0.000118238386 -0.0003202297 0.04389932 0.023676567 -0.018804552
0.018641787 0.02405772 -0.051414534 0.004620548 0.054088607 -0.05753663 0.012017679 -0.06237356
-0.003986905 -0.04483105 0.047700964 -0.036770467 0.047212083 -0.027856903 -0.05382131 -0.019283835
0.03237888 0.03848033 0.016526343 -0.056521643 -0.04757938 -0.039874766 0.00501457 0.06398236
0.0029276188 0.06129906 -0.040268067 0.05743755 -0.004698627 -0.01716547 0.013742961 0.008363077
-0.05054576 0.064762846 0.021014323 0.029092982 0.02274955 -0.054788467 -0.03245105 -0.01981673
-0.043593757 0.039447352 0.08012523 0.056607097 -0.04608083 0.019158412 -0.023487775 -0.030081749
0.03991934 -0.0038256114 0.052068766 0.011126993 -0.06726717 0.044232942 0.06382988 -0.014632341
0.00063502684 -0.008300048 0.01947887 0.026310083 0.024327226 0.0370903 0.053680554 0.0750994
-0.0350084 0.010589427 -0.0649504 0.050297417 0.0028015836 -0.0068673193 -0.021479212 -0.057713076
-0.015167835 0.0070755533 -0.04240846 0.053268492 -0.027663706 0.03787777 0.032424934 0.03398757
-0.007377384 -0.009236243 -0.029835586 0.01899635 0.03766034 -0.0041550365 -0.022591807 -0.019116107
-0.0114015825 -0.044788595 -0.011624737 0.056015305 0.0502708 0.008969466 -0.025271146 0.05442435
0.060612645 0.042037353 0.014623644 -0.030161275 0.052182548 -0.0018611882 0.01271032 0.057154626
0.058419935 0.06495208 -0.01214205 0.0055694464 0.032491043 0.038226187 0.0016320581 -0.0076531013
0.06305802 0.046558946 0.0036212152 -0.039802797 0.03489371 -0.005371814 0.054881427 0.012360615
0.058171764 -0.03438576 0.020106845 -0.01475837 -0.029881814 -0.0032300001 0.031859 -0.01968103
0.0005557715 -0.046701923 -0.012734937 -0.02169454 -0.053148717 -0.02455098 0.028404664 -0.04491423
0.034275036 -0.0050605233 0.0038071885 0.011517863 -0.060968906 -0.025541382 0.04944991 -0.028970186
-0.040154994 0.023479568 -0.008392122 0.053192228 0.049955722 -0.0034158295 -0.02514214 -0.027606087
0.03964739 0.0120786 -0.015929684 0.052714773 0.0020188622 0.007375247 0.052786373 -0.023840426
0.044989586 -0.051424596 0.020403948 0.058686517 0.022247465 0.037210084 0.029599657 -0.04509364
-0.034560077 -0.013326827 -0.04529198 -0.032683518 -0.027105134 0.041991096 0.055129983 0.043063056
0.017124614 0.049482636 -0.015169725 0.02052577 -0.023356946 0.036592655 0.043865062 0.049642235
0.022932691 0.017513294 0.02857592 0.00096177484 0.0108993305 0.051160242 0.016392983 -0.043646436
-0.04979667 -0.056061134 0.0063290102 -0.054013856 -0.042478655 0.07635028 0.03377109 0.022102052
0.04259124 0.011924727 0.023001533 0.027867433 -0.012755349 -0.04053375 -0.034706105 -0.00770805
00000000: 12d3 42bd 526e fcb8 3f9b 3fbd 5f74 8c3d
00000010: 85eb 04bd ac5c 2dbd accc 553d b4c8 4abd
00000020: a566 653d e7db f73c 8b93 523d 8a86 49bd
00000030: 18d5 5f3d 21c6 563d ff0c 32bd 99be 8d3c
00000040: a59c c03c fdbe a03d 54fa b4bc 7fbe 3abd
00000050: 5108 fdbc 88ae e03c d35d 7e3c 817a 843c
00000060: 4eee 55bd 0358 d1bc 0748 083d e576 41bc
00000070: df24 09bd 7f1f 75bd 578b 35bd 464a f73c
00000080: 5a3c 743c 2fc5 9a3d 2db8 1aba c6d3 343d
00000090: 5feb 0f3d 7417 5fbb c8df 97bc 0742 e43b
000000a0: 0235 eabb 933e da3c 8b37 e8bb c0f6 f738
000000b0: 81e4 a7b9 c6cf 333d 5cf5 c13c 010c 9abc
000000c0: a9b6 983c b214 c53c 0c98 52bd f767 973b
000000d0: 048c 5d3d 88ab 6bbd cde5 443c 6b7b 7fbd
000000e0: 95a4 82bb c3a0 37bd 1662 433d a19c 16bd
000000f0: 7561 413d 2934 e4bc bc73 5cbd 22f9 9dbc
00000100: b79f 043d 8d9d 1d3d 4162 873c 3d83 67bd
00000110: 99e2 42bd b953 23bd 4351 a43b 2f09 833d
00000120: 4bdd 3f3b b914 7b3d 21f0 24bd a343 6b3d
00000130: f1f6 99bb 9a9e 8cbc 282a 613c 4a05 093c
00000140: 1209 4fbd 62a2 843d 3b26 ac3c 6854 ee3c
00000150: 445d ba3c df69 60bd 64eb 04bd b256 a2bc
00000160: 5e8f 32bd 8c93 213d b218 a43d d8dc 673d
00000170: 41bf 3cbd 1af2 9c3c 6f69 c0bc 006e f6bc
00000180: 7682 233d 1cb7 7abb 0f46 553d fe4d 363c
00000190: 5fc3 89bd 9a2d 353d 3db9 823d 7dbc 6fbc
000001a0: ee77 263a edfc 07bc 2792 9f3c 3e88 d73c
000001b0: e449 c73c 00ec 173d 24e0 5b3d b7cd 993d
000001c0: f864 0fbd 477f 2d3c b704 85bd aa04 4e3d
000001d0: c69a 373b 4007 e1bb 2cf5 afbc 8c64 6cbd
000001e0: 8382 78bc 0bda e73b 7eb4 2dbd 1030 5a3d
000001f0: ff9e e2bc b825 1b3d 02d0 043d 8d36 0b3d
00000200: fcbd f1bb 9c53 17bc c269 f4bc 3c9e 9b3c
00000210: bb41 1a3d f926 88bb 7412 b9bc 6299 9cbc
00000220: b4cd 3abc 3f74 37bd ae75 3ebc 4e70 653d
00000230: c1e8 4d3d abf4 123c 6f05 cfbc 11ec 5e3d
00000240: f744 783d 5c2f 2c3d 0298 6f3c c714 f7bc
00000250: 5ebd 553d 1df3 f3ba f23e 503c f81a 6a3d
00000260: be49 6f3d 9905 853d 73ef 46bc e77f b63b
00000270: 5415 053d 1093 1c3d c8ea d53a dec6 fabb
00000280: 9024 813d 98b4 3e3d e951 6d3b 4208 23bd
00000290: b5ec 0e3d 0b06 b0bb 59cb 603d 2d84 4a3c
000002a0: 8445 6e3d 15d8 0cbd 1cb7 a43c 17cd 71bc
000002b0: b5ca f4bc 69ae 53bb 957e 023d 1d3a a1bc
000002c0: 32b1 113a 844a 3fbd 32a6 50bc bfb8 b1bc
000002d0: 78b2 59bd 231f c9bc e6b0 e83c fcf7 37bd
000002e0: fb63 0c3d bfd2 a5bb 0682 793b 6bb5 3c3c
000002f0: 88ba 79bd 293c d1bc fd8b 4a3d e252 edbc
00000300: 9079 24bd 3958 c03c 1c7f 09bc 18e0 593d
00000310: 5f9e 4c3d 1cdc 5fbb e4f6 cdbc 2926 e2bc
00000320: 4d65 223d 52e5 453c f87e 82bc 72eb 573d
00000330: e34e 043b 0eac f13b 8636 583d ff4c c3bc
00000340: 0047 383d 99a2 52bd 2e26 a73c 4661 703d
00000350: 5140 b63c 9a69 183d fb7a f23c 1cb4 38bd
00000360: de8e 0dbd c458 5abc 1584 39bd 27df 05bd
00000370: 960b debc dbfe 2b3d facf 613d e362 303d
00000380: eb48 8c3c 4eae 4a3d 708a 78bc a925 a83c
00000390: 1157 bfbc 2ee2 153d daab 333d a855 4b3d
000003a0: 57dd bb3c 0a78 8f3c 0c18 ea3c 9e1f 7c3a
000003b0: 1b93 323c 678d 513d 944a 863c 9bc6 32bd
000003c0: 98f7 4bbd 5ca0 65bd 9663 cf3b a23d 5dbd
000003d0: 19fe 2dbd 895d 9c3d 8e53 0a3d 5d0f b53c
000003e0: 2774 2e3d ee5f 433c b66d bc3c 3e4a e43c
000003f0: d0fb 50bc b806 26bd fd27 0ebd cf93 fcbb

bias f4 [128]
0.020345718 -0.040078916 -0.0125747165 0.04642065 0.039129596 -0.001245729 0.0032217728 0.011463267
-0.015804956 0.05234038 -0.015850948 -0.007929675 0.05208195 -0.030376215 -0.007854859 -0.019616116
0.0658475 -0.044225935 -0.0028412703 -0.026403537 0.042952064 0.0028002402 0.013680288 0.055216152
0.019220535 -0.033845644 0.063583665 0.017670663 -0.031237777 0.05124591 0.029953795 0.051352326
0.018680971 0.05029566 0.015780965 0.071726166 0.021807432 -0.019440189 -0.025948435 -0.007477183
-0.04406972 -0.039012644 0.008144946 0.008194124 0.0052438793 -0.022651307 0.005977903 -0.020850152
-0.028464707 0.016656496 0.01057271 -0.026690083 0.036118746 0.039999332 -0.04140205 0.065954
0.06272365 -0.020805905 -0.055964038 0.06271054 0.0634104 0.012900623 -0.04247484 0.020908473
-0.005593758 0.039143886 0.054187097 0.054574087 0.061750963 -0.026447698 -0.011241825 0.030906947
-0.03379406 -0.010236055 0.057128906 -0.032548405 -0.03343461 0.04958958 0.00715991 -0.018401518
0.06906282 0.023010805 -0.033638448 -0.0090966 -0.03824667 0.042918496 0.028048081 0.004893554
-0.009971883 -0.0013348913 0.055237923 -0.012962708 0.010093163 0.06640229 0.0054706084 -0.01786204
0.006413885 -0.036606777 0.011473614 0.008519048 0.026658762 0.0072060362 0.03887984 0.030393723
0.004684259 0.022852592 0.047013827 0.05610196 0.059734743 0.009377625 -0.020104961 0.070659526
-0.007152302 0.020064984 0.029894209 0.026495278 0.00031197205 0.0011163645 0.038185064 -0.053818725
-0.025780514 0.020012405 0.013483 -0.012628705 0.07300705 -0.041663878 -0.0077265934 0.0857643
00000000: 10ac a63c ca29 24bd 2f06 4ebc 9423 3e3d
00000010: 5b46 203d bb47 a3ba 6124 533b 6dd0 3b3c
00000020: 6579 81bc de62 563d d9d9 81bc 78eb 01bc
00000030: e253 553d 8ad7 f8bc abb1 00bc fab1 a0bc
00000040: 0edb 863d 4126 35bd 9b34 3abb 3b4c d8bc
00000050: 81ee 2f3d 3c84 373b 4923 603c 552a 623d
00000060: 6274 9d3c bba1 0abd 2738 823d 11c2 903c
00000070: 5ee6 ffbc 3be7 513d a961 f53c d156 523d
00000080: d608 993c d202 4e3d 1547 813c 2be5 923d
00000090: 80a5 b23c 0841 9fbc d091 d4bc 2803 f5bb
000000a0: 7382 34bd b9cb 1fbd 6172 053c a640 063c
000000b0: d9d4 ab3b 3c8f b9bc 49e2 c33b f0cd aabc
000000c0: d12e e9bc 3473 883c 2939 2d3c 29a5 dabc
000000d0: 40f1 133d 57d6 233d 3295 29bd e412 873d
000000e0: 4275 803d 2571 aabc 8c3a 65bd 626e 803d
000000f0: 50dd 813d 225d 533c 19fa 2dbd 3f48 ab3c
00000100: d84b b7bb 5755 203d 4af3 5d3d 1489 5f3d
00000110: 94ee 7c3d d8a8 d8bc a22f 38bc 9130 fd3c
00000120: a46b 0abd 20b5 27bc 0000 6a3d 7a51 05bd
00000130: bbf2 08bd 721e 4b3d ae9d ea3b c8be 96bc
00000140: cf70 8d3d 2881 bc3c 78c8 09bd e809 15bc
00000150: 8aa8 1cbd 4ecb 2f3d 17c5 e53c 1b5a a03b
00000160: 1c61 23bc 85f7 aeba 2941 623d 8a61 54bc
00000170: cb5d 253c ecfd 873d ca42 b33b 6a53 92bc
00000180: 912b d23b fdf0 15bd d3fb 3b3c 7a93 0b3c
00000190: 7a63 da3c 9d20 ec3b 7840 1f3d 42fc f83c
000001a0: 6a7e 993b 5c35 bb3c 9291 403d 2bcb 653d
000001b0: 6bac 743d 9ca4 193c 29b3 a4bc f1b5 903d
000001c0: dc5d eabb 525f a43c b3e4 f43c a00c d93c
000001d0: 2e90 a339 fa52 923a f167 1c3d 0671 5cbd
000001e0: a831 d3bc 0ef1 a33c cde7 5c3c a1e8 4ebc
000001f0: b884 953d bea7 2abd 5d2f fdbb 31a5 af3d

weight f4 [64, 128]
0.08061022 0.026408665 0.062469393 0.007530347 0.032878928 -0.029950652 0.0009175676 -0.034441646
-0.046721935 -0.0680803 -0.05547621 -0.07502589 -0.06193694 -0.063514635 0.07140776 0.10226904
0.030419756 -0.0125296535 -0.006609117 0.0002258363 -0.011163006 0.014672591 0.031227158 -0.0061225947
0.11411327 0.056789413 -0.0417161 0.078707404 -0.024767874 0.054052904 0.0044956943 0.09705268
0.02545559 -0.051139645 0.10150193 -0.02420738 -0.058613785 0.07867916 -0.056791775 0.01137543
0.018560065 0.061527066 0.032968704 0.012153694 0.07764094 0.022989398 0.0053758896 -0.052452903
-0.033734933 0.07247554 -0.055471174 -0.052698605 0.039133813 -0.08542482 0.063076355 0.0438243
0.040235657 -0.035287466 0.025517354 0.000513841 0.0014791015 0.095757015 0.012788342 -0.034868278
-0.07463589 -0.0040001874 0.068327814 0.060702913 0.022396225 -0.08420561 -0.013326224 0.045749266
0.07014544 -5.0426064e-05 -0.011783022 0.011656731 -0.038403008 0.077746086 0.087935805 0.0593505
0.045417007 0.09763163 0.015336591 0.030002058 0.003271905 -0.07908201 0.045251627 0.024549343
0.055662565 0.03306454 -0.0022402008 0.060065 -0.013565987 0.07591978 -0.06588704 -0.00806421
0.049824223 0.025034351 -0.06109162 -0.031960968 0.050150648 0.037309494 -0.0261593 0.004512297
0.08812859 -0.0123369405 -0.05389375 -0.04102863 0.07283103 0.07668526 -0.05776231 -0.066816546
0.07047675 0.10151423 -0.012627305 0.10408426 -0.028231626 0.0007354346 0.05985362 0.0071933004
-0.0053374297 -0.04998602 -0.00836384 -0.0023795965 -0.082296595 0.0044943183 0.09603741 0.027379513
-0.0419993 0.08674115 -0.073589265 -0.044277515 0.054929648 0.013043753 0.043408547 0.046809845
0.088502206 0.068190806 -0.00032963345 0.068260826 0.04420044 -0.023838269 -0.04059079 -0.08784228
-0.040886007 -0.054450378 -0.010652716 0.107009634 0.048843853 0.082216986 0.041559983 -0.04698917
0.06788719 0.0010203529 0.035512384 -0.07932539 -0.0055181645 0.09728348 -0.06934793 -0.061508805
0.02452492 -0.050204948 -0.010798624 0.0030329947 -0.07530279 -0.041261535 0.030849561 0.01871983
-0.047928497 -0.029709319 -0.016389275 -0.07341657 0.013011756 -0.09452456 0.027277963 0.03452928
0.008912203 -0.08656048 0.054048292 0.020178536 0.04426688 0.047022674 0.08905226 -0.08977662
-0.0024915705 -0.017620698 0.09023444 0.08526098 -0.016297067 -0.046170097 0.058391947 0.02521945
0.02454064 0.052750707 -0.03705486 0.052724965 -0.07399356 -0.10148615 0.07985272 -0.012975586
-0.06799679 -0.08767014 -0.097464114 0.1001992 0.04303363 -0.07425956 0.033895094 -0.033197865
0.089178674 0.08329587 -0.09401194 -0.0609364 0.019286955 0.09325231 -0.07576228 0.062187772
0.029822443 0.032229505 0.09429644 0.050195213 0.07661646 0.04717291 0.019354405 0.04236263
0.06845163 0.0124629 0.10178844 -0.0745174 -0.03996931 -0.038195144 0.0028331669 0.070468724
0.0054161428 0.062716246 -0.055817675 -0.094511025 0.0148196425 -0.025109362 0.010061228 -0.06763837
0.07614339 0.046864428 0.037486017 -0.009398175 -0.023276147 0.064853296 0.036290202 -0.06974765
0.068845585 0.06664325 0.045155223 0.030605659 -0.093226604 -0.013472859 0.06565108 -0.04466987
00000000: f916 a53d fc56 d83c e8df 7f3d 21c1 f63b
00000010: 0eac 063d 125b f5bc eb88 703a af12 0dbd
00000020: 805f 3fbd af6d 8bbd 063b 63bd 2ca7 99bd
00000030: 97b1 7dbd f613 82bd 3b3e 923d 6e72 d13d
00000040: da32 f93c 2d49 4dbc 4b91 d8bb 78ce 6c39
00000050: 0ae5 36bc 4f65 703c 19d0 ff3c 0ca0 c8bb
00000060: 38b4 e93d 049c 683d 80de 2abd 5931 a13d
00000070: ffe5 cabc 9466 5d3d 9e50 933b 8ec3 c63d
00000080: 3e88 d03c ce77 51bd 3ee0 cf3d 8e4e c6bc
00000090: 0215 70bd 8a22 a13d 7e9e 68bd 0360 3a3c
000000a0: 470b 983c ce03 7c3d 310a 073d 4a20 473c
000000b0: 3702 9f3d 4354 bc3c 3b28 b03b dbd8 56bd
000000c0: a42d 0abd 0e6e 943d be35 63bd 7eda 57bd
000000d0: c74a 203d 35f3 aebd 2d2e 813d 1c81 333d
000000e0: 25ce 243d 9789 10bd c509 d13c 49b3 063a
000000f0: 69de c13a 411c c43d 3286 513c 0ad2 0ebd
00000100: b4da 98bd 0114 83bb 74ef 8b3d 9ea3 783d
00000110: 4a78 b73c fe73 acbd 3c56 5abc 9563 3b3d
00000120: 6aa8 8f3d 9380 53b8 940d 41bc e0fb 3e3c
00000130: 794c 1dbd 5739 9f3d b017 b43d 8319 733d
00000140: 2f07 3a3d 18f3 c73d 5346 7b3c e0c6 f53c
00000150: 756d 563b c0f5 a1bd c559 393d b41b c93c
00000160: 6efe 633d af6e 073d 55d0 12bb b806 763d
00000170: e043 5ebc d47b 9b3d c9ef 86bd c01f 04bc
00000180: 7c14 4c3d d714 cd3c 353b 7abd 81e9 02bd
00000190: c46a 4d3d d7d1 183d 074c d6bc e4db 933b
000001a0: c37c b43d e120 4abc b1bf 5cbd a30d 28bd
000001b0: 6f28 953d 290d 9d3d 2c98 6cbd 1dd7 88bd
000001c0: 1d56 903d b1e6 cf3d c2e2 4ebc 212a d53d
000001d0: 0346 e7bc 2eca 403a 1229 753d c7b5 eb3b
000001e0: 9be5 aebb 24be 4cbd 7d08 09bc 01f3 1bbb
000001f0: 1e8b a8bd 1345 933b 43af c43d 004b e03c
00000200: 7507 2cbd 58a5 b13d f8b5 96bd 575c 35bd
00000210: e9fd 603d 77b5 553c 29cd 313d aebb 3f3d
00000220: a540 b53d 9fa7 8b3d a7d2 acb9 55cc 8b3d
00000230: 850b 353d 7948 c3bc 8742 26bd a7e6 b3bd
00000240: 1678 27bd 5c07 5fbd bb88 2ebc de27 db3d
00000250: 7e10 483d 6161 a83d cd3a 2a3d b777 40bd
00000260: 7008 8b3d 5dbd 853a 6f75 113d 5a75 a2bd
00000270: b8d1 b4bb 903c c73d 4a06 8ebd a8f0 7bbd
00000280: 7ce8 c83c b4a3 4dbd b6ec 30bc 35c5 463b
00000290: 5938 9abd db01 29bd 38b8 fc3c 545a 993c
000002a0: ac50 44bd f560 f3bc cd42 86bc 6d5b 96bd
000002b0: 432f 553c 1896 c1bd 0976 df3c 936e 0d3d
000002c0: 7d04 123c 9f46 b1bd be61 5d3d 754d a53c
000002d0: 3051 353d d99a 403d 0861 b63d cedc b7bd
000002e0: 9e49 23bb 4859 90bc d6cc b83d 4f9d ae3d
000002f0: 6d81 85bc db1c 3dbd 652c 6f3d 0599 ce3c
00000300: 7409 c93c 2011 583d d6c6 17bd 22f6 573d
00000310: f089 97bd f8d7 cfbd d389 a33d 8d97 54bc
00000320: e741 8bbd 678c b3bd 449b c7bd 3d35 cd3d
00000330: 0844 303d 6515 98bd 95d5 0a3d 7cfa 07bd
00000340: 4fa3 b63d 0697 aa3d 5589 c0bd 7298 79bd
00000350: adff 9d3c 11fb be3d 4129 9bbd 9bb8 7e3d
00000360: 324e f43c 1603 043d 7e1e c13d 7f99 4d3d
00000370: 17e9 9c3d 6238 413d 218d 9e3c 7084 2d3d
00000380: 5e30 8c3d 3131 4c3c 7576 d03d 949c 98bd
00000390: dcb6 23bd 8372 1cbd a7ac 393b e851 903d
000003a0: e679 b13b 6071 803d 13a1 64bd ff8e c1bd
000003b0: 16ce 723c 26b2 cdbc d9d7 243c fc85 8abd
000003c0: 11f1 9b3d eaf4 3f3d f08a 193d cefa 19bc
000003d0: 9ead bebc ced1 843d 09a5 143d dbd7 8ebd
000003e0: eafe 8c3d 427c 883d aff4 383d b8b8 fa3c
000003f0: 97ed bebd 44bd 5cbc 1374 863d c1f7 36bd

bias f4 [64]
0.08197912 0.0609871 0.0038956609 0.07362439 -0.053146034 -0.069411 -0.010048905 -0.041646913
0.026536085 0.061889976 0.04097488 0.066859156 -0.0019492718 0.061121304 0.04958935 0.02064841
0.04833469 -0.0751082 -0.009532789 -0.02409387 -0.06492122 -0.028119173 -0.032946665 0.015287923
0.048569772 -0.014051478 0.047290556 0.03859486 0.050153963 0.060895782 0.033495802 -0.019828603
0.02481523 -0.0073350337 -0.0738673 0.049000707 0.045819696 0.05882044 0.02373876 0.028335955
-0.08238198 -0.006828645 0.018598692 0.06020108 0.015054124 0.019838978 -0.013971298 0.046857186
-0.06470502 -0.06850218 -0.061947636 0.02966753 -0.039425135 -0.06885829 -0.030068295 -0.038868483
-0.045388136 0.068262056 -0.009533465 -0.02888234 0.07704644 0.03222492 -0.05330665 0.032907404
00000000: abe4 a73d 9ccd 793d 584e 7f3b 62c8 963d
00000010: a8af 59bd 5b27 8ebd 2aa4 24bc f495 2abd
00000020: 3462 d93c 5880 7d3d 47d5 273d 74ed 883d
00000030: b57e ffba 555a 7a3d 341e 4b3d db26 a93c
00000040: 99fa 453d 54d2 99bd 6a2f 1cbc 8260 c5bc
00000050: 6bf5 84bd 2e5a e6bc 15f3 06bd 327a 7a3c
00000060: 19f1 463d 2c38 66bc beb3 413d a515 1e3d
00000070: 3e6e 4d3d db6d 793d e532 093d 986f a2bc
00000080: 4f49 cb3c b95a f0bb bd47 97bd f7b4 483d
00000090: 6fad 3b3d b4ed 703d ca77 c23c ce20 e83c
000000a0: e2b7 a8bd d3c2 dfbb 495c 983c 6895 763d
000000b0: 93a5 763c 5a85 a23c dfe7 64bc 52ed 3f3d
000000c0: 1184 84bd df4a 8cbd cebc 7dbd 5209 f33c
000000d0: 407c 21bd 9305 8dbd c951 f6bc 8f34 1fbd
000000e0: e9e8 39bd facc 8b3d 4032 1cbc a89a ecbc
000000f0: 86ca 9d3d 47fe 033d 1358 5abd eac9 063d

weight f4 [6, 64]
0.11024421 0.023828529 0.030718282 -0.040579427 -0.08150706 -0.13139296 -0.013933079 0.10189909
-0.063688874 0.043550394 0.063207366 0.04843311 -0.01201746 0.13501446 -0.036785148 -0.027864927
0.112466924 -0.09102317 0.08458428 -0.028740479 -0.04146377 0.04510843 0.13027284 0.010304404
-0.08978223 -0.12705225 -0.104645364 -0.021918917 -0.07930586 0.056975115 -0.07371485 0.05472915
0.0071220505 0.025104115 0.04370246 -0.09561981 0.07982777 -0.13087243 -0.0155595075 -0.02921789
0.11259527 0.022613885 -0.019858096 -0.15620223 -0.087748654 -0.10141963 0.1144308 0.059346754
0.0023858885 0.114330634 0.11218622 0.08543295 -0.10603833 -0.07779366 -0.1340236 -0.073483616
0.08280237 0.060676675 -0.039448533 -0.15558581 -0.08797551 0.09013417 -0.062033314 0.027872883
-0.04954988 0.048202354 0.055060074 -0.055820137 -0.029007385 -0.10059286 -0.11250239 0.120241545
-0.040588416 -0.12859881 0.10460582 0.10986807 0.10667631 -0.08575892 0.0015134374 -0.08789054
0.074444935 0.022164552 0.009252506 0.09230787 0.010029467 -0.07589048 -0.12006335 -0.055690262
0.05499716 0.040086728 -0.05967143 0.007904805 0.05393871 -0.016190836 0.027941499 0.066633575
0.026820866 -0.0488569 -0.09542909 -0.01757441 -0.110042885 0.09816067 0.0597986 -0.14493541
0.08017653 -0.06818929 0.055019677 -0.017746817 0.010216532 0.13168868 0.029956907 -0.13936049
0.107744746 0.022480832 -0.071993455 -0.13811089 -0.0926206 0.01258297 -0.0018884188 -0.114616126
0.09828242 -0.103788435 0.020293964 0.11157948 -0.058807164 0.020649957 -0.12047438 -0.04945984
-0.04023577 -0.07227947 0.1069528 0.043129385 -0.0156142805 -0.006009289 -0.037614852 0.0327559
0.08452208 0.01636015 -0.0052980008 -0.031108893 0.10312827 0.041561708 -0.044635065 0.06571344
0.062108587 0.08258708 -0.11583155 0.10303952 -0.06774357 -0.03737923 0.09310895 -0.076082066
-0.13007103 0.08045281 -0.07925487 0.1239053 -0.07349294 0.011025164 -0.11502117 -0.08070128
0.107058294 -0.041936837 0.067393005 0.1050261 -0.11941381 -0.052935228 -0.0011852661 0.081999965
0.008182321 -0.048206836 -0.1315697 -0.112398595 0.07586895 -0.08212585 0.054057166 0.12928408
0.050319236 0.06377294 -0.10323235 0.011929963 -0.084537365 0.07179553 0.12048466 0.09220736
-0.08281683 0.12332145 -0.009939134 -0.04552142 -0.108753026 -0.09322781 0.04698539 0.071070574
-0.028827854 -0.10934263 -0.1206678 -0.10804142 0.0634635 -0.13387127 0.04620052 -0.06204156
0.030360015 -0.018864647 -0.1264294 0.075636 -0.009648288 0.14628635 -0.09260213 0.1100165
0.062057532 0.104529776 0.02049244 0.071466476 0.06454824 0.039529838 0.023835644 -0.13095617
-0.06976633 0.060303506 0.12782039 0.003794728 0.050375354 -0.07322571 0.100053124 0.09853955
0.10589407 0.05525778 0.027006753 0.13294767 -0.109402545 0.047583804 -0.07654911 0.02944537
-0.11319684 -0.11098042 0.0036999297 -0.04388693 0.052910484 -0.10658971 -0.13642901 -0.07944514
0.0067289704 -0.07856884 -0.10527605 0.008108239 -0.10235359 0.10541617 -0.020908987 -0.15385231
0.08743888 0.10429221 0.13880512 -0.121255524 0.029958276 -0.007585503 0.03442559 0.04968563
00000000: b7c7 e13d 0c34 c33c e8a4 fb3c 9d36 26bd
00000010: 2ced a6bd e08b 06be 9247 64bc 78b0 d03d
00000020: 506f 82bd e661 323d dd72 813d cc61 463d
00000030: e1e4 44bc 3b41 0a3e 06ac 16bd fd44 e4bc
00000040: 0f55 e63d 5b6a babd 863a ad3d 2771 ebbc
00000050: ead5 29bd 9ec3 383d 3e66 053e ced3 283c
00000060: bfdf b7bd fc19 02be 4f50 d6bd 4d8f b3bc
00000070: 1c6b a2bd bd5e 693d d0f7 96bd ac2b 603d
00000080: 1760 e93b 25a7 cd3c 5a01 333d 52d4 c3bd
00000090: be7c a33d 6c03 06be 4eed 7ebc 5b5a efbc
000000a0: 5998 e63d c140 b93c 72ad a2bc 7af3 1fbe
000000b0: 91b5 b3bd 18b5 cfbd b25a ea3d 9515 733d
000000c0: 915c 1c3b 2e26 ea3d e4c1 e53d 78f7 ae3d
000000d0: a02a d9bd 4852 9fbd 7c3d 09be 947e 96bd
000000e0: 4a94 a93d 1b88 783d c994 21bd e351 1fbe
000000f0: 812c b4bd 4498 b83d a516 7ebd ac55 e43c
00000100: d1f4 4abd d56f 453d ac86 613d a8a3 64bd
00000110: e5a0 edbc a103 cebd a767 e6bd 3341 f63d
00000120: 0a40 26bd 68af 03be 933b d63d 8302 e13d
00000130: 1c79 da3d 5fa2 afbd 885e c63a f5ff b3bd
00000140: 9676 983d 6f92 b53c d397 173c e90b bd3d
00000150: a252 243c 786c 9bbd c6e3 f5bd 791b 64bd
00000160: b444 613d fb31 243d 086a 74bd 2883 013c
00000170: d6ee 5c3d a5a2 84bc 92e5 e43c 2f77 883d
00000180: 6fb7 db3c 2c1e 48bd 5470 c3bd 36f8 8fbc
00000190: 2a5e e1bd 7608 c93d 60ef 743d f369 14be
000001a0: 9833 a43d d4a6 8bbd 505c 613d c661 91bc
000001b0: 3e63 273c 66d9 063e 3068 f53c 84b4 0ebe
000001c0: 47a9 dc3d b929 b83c 4e71 93bd f16c 0dbe
000001d0: deaf bdbd cd28 4e3c d284 f7ba dcbb eabd
000001e0: 4b48 c93d 088f d4bd 873f a63c c883 e43d
000001f0: c8df 70bd 192a a93c 46bb f6bd 6796 4abd
00000200: 43ce 24bd 4207 94bd 120a db3d 70a8 303d
00000210: 0ad3 7fbc 92e9 c4bb 0812 1abd 0d2b 063d
00000220: ea19 ad3d b905 863c da9a adbb 14d8 febc
00000230: ea34 d33d 9c3c 2a3d 42d3 36bd c594 863d
00000240: 9365 7e3d 6a23 a93d 1739 edbd 6206 d33d
00000250: 24bd 8abd f71a 19bd e8af be3d ead0 9bbd
00000260: 5731 05be 71c4 a43d 6150 a2bd 10c2 fd3d
00000270: 7783 96bd e4a2 343c 3890 ebbd b646 a5bd
00000280: 6141 db3d f6c5 2bbd 5805 8a3d ed17 d73d
00000290: 3a8f f4bd 9cd2 58bd ee5a 9bba 99ef a73d
000002a0: 240f 063c 8874 45bd 35ba 06be 3c31 e6bd
000002b0: 2e61 9b3d 9931 a8bd 0c6b 5d3d 0c63 043e
000002c0: 8b1b 4e3d 639b 823d 7b6b d3bd e475 433c
000002d0: ed21 adbd 8909 933d a9c0 f63d 36d7 bc3d
000002e0: df9b a9bd f58f fc3d c0d7 22bc ab74 3abd
000002f0: e8b9 debd 39ee bebd c173 403d 738d 913d
00000300: 6428 ecbc 07ef dfbd ae20 f7bd d244 ddbd
00000310: 27f9 813d 8d15 09be c23c 3d3d 4a1f 7ebd
00000320: 91b5 f83c 088a 9abc b576 01be 0ce7 9a3d
00000330: da13 1ebc 17cc 153e 2fa6 bdbd 5550 e13d
00000340: 0a30 7e3d b513 d63d c3df a73c 045d 923d
00000350: de31 843d 0aea 213d f842 c33c 6019 06be
00000360: a6e1 8ebd cf00 773d 59e3 023e f9b0 783b
00000370: 6356 4e3d 5cf7 95bd a7e8 cc3d 1bcf c93d
00000380: fdde d83d fb55 623d 443d dd3c 6f23 083e
00000390: 710e e0bd 3ce7 423d c8c5 9cbd 6b37 f13c
000003a0: bfd3 e7bd b449 e3bd 857a 723b c8c2 33bd
000003b0: aab8 583d b54b dabd 0cb4 0bbe 22b4 a2bd
000003c0: b27e dc3b b3e8 a0bd f89a d7bd 6bd8 043c
000003d0: c29e d1bd 6fe4 d73d 5349 abbc 768b 1dbe
000003e0: 2813 b33d 2797 d53d ee22 0e3e d154 f8bd
000003f0: 0f6b f53c d08f f8bb d901 0d3d 2983 4b3d

bias f4 [6]
-0.110986695 -0.07498468 0.05764498 0.1258399 -0.017291654 -0.07704728
00000000: fe4c e3bd 9191 99bd 241d 6c3d 2ddc 003e
00000010: 3aa7 8dbc f7ca 9dbd
