LSTM/LSTM_network_02.pkl (torch_old, 107335 bytes, 6 tensors)

weight_ih_l0 f4 [256, 26]
-0.5263006 0.40992773 -0.65056723 -0.19915283 -0.40000796 0.17582512 0.04176698 0.7865186
0.1581921 -0.7929494 0.44534045 -0.5032057 0.39961866 -0.38821766 0.11294713 0.021874156
-0.1967283 -0.77420557 -0.63207257 0.8641616 -0.057249546 -0.09842141 0.060524702 0.27925718
-0.31355783 0.22320247 -0.3213758 0.17464593 -0.03418882 -0.14097178 -0.09400105 0.0552566
0.2067526 0.20950544 -0.45631272 -0.47549397 0.32454777 -0.4449585 -0.39396256 -0.18640666
-0.41595548 -0.6363065 0.33754116 -0.06958821 -0.51204896 0.09612136 -0.31280544 -0.29215547
0.674032 0.9177735 0.6139482 -0.3312244 -0.106546104 -0.04343883 -0.31957516 -0.09041044
-0.4071348 -0.4690581 -0.31581593 0.026511053 0.3906568 -0.5600548 -0.65787554 -0.019584015
1.1268466 -0.09356113 0.5181272 -0.21174616 0.024454603 0.37553656 0.77253366 0.8057241
0.25366703 0.15945116 0.28968748 0.34869194 -0.027760433 -0.189317 -0.4122513 0.6503416
0.027797358 -0.24239066 0.002375207 0.12554896 0.1701159 -0.09877246 -0.06340138 0.032355826
-0.31658873 0.03526247 -0.9458751 -0.46582898 -0.11531911 -0.08781185 0.4160818 -0.136425
0.6779147 0.33936942 0.074358724 -0.20962009 0.3633967 -0.43468037 -0.25903407 -0.16195533
0.13265836 0.48695856 0.0049598683 -0.03962553 -0.022867236 -0.51649076 0.12637794 -0.5819576
-0.16829047 -0.056386724 0.86498713 -0.3199952 0.7359853 0.1324423 0.26434612 -0.3114336
0.27391535 -0.1282113 -0.4250595 1.0575761 -0.3781083 0.11021492 -0.4675791 -0.18000782
-0.37644476 0.18615907 -0.1574337 0.32117724 0.46893203 -0.34112298 0.120231055 0.51901495
0.5449041 -0.036366504 -1.0621414 0.012169317 -0.202172 0.14412236 -0.3679021 -0.28111783
-0.6602278 -0.20273344 -0.06136424 -0.28990045 0.5012426 -0.07377501 0.14148153 0.043739013
-0.3713705 -0.40507522 -0.057903733 0.3589169 -0.07110544 0.0853607 0.01585604 -0.24806266
0.08440219 -0.123882 0.19159305 0.024376784 -0.7005447 -0.75936604 -0.07525437 0.64617103
-0.1594019 -0.03295249 -0.9078367 -0.112435766 -0.1516683 0.30581826 -0.51225674 0.3464846
0.09280386 -0.052462384 0.26718274 -1.2346364 -0.17484581 -0.351359 -0.5391831 -0.4069161
-0.115261704 -0.18435712 -0.23392253 -0.23996945 0.23439845 0.6328854 -0.33191088 -0.4891833
-0.8664143 0.20626901 0.0060711987 0.3232807 0.0033586791 -0.00094355637 0.29213068 -0.3045132
-1.0388929 -1.1784549 -0.73910767 -0.49495763 0.14615823 0.11543984 0.24038202 0.29350117
0.27005944 0.06261172 -0.11903705 -0.110427395 0.07890519 0.1883178 -0.5229281 0.072694294
0.3555424 0.103114374 0.5650397 0.4929565 0.6174453 -0.60711586 -0.38214576 0.474238
0.6841924 0.6111664 -0.29638505 0.019644106 -0.1352474 -0.5166301 0.11989814 -0.174426
0.6721473 0.08886438 0.6321239 -0.6627765 -0.06664558 0.22226219 0.038162343 0.113166295
-0.34705523 0.28171495 0.46889144 0.21798721 0.004328231 -0.27223298 0.45798463 -0.111132786
0.22998865 -0.20622888 0.21830055 0.29829252 0.39242506 0.031561155 -0.5717225 -0.1505378
00000000: a3bb 06bf 0ce2 d13e 938b 26bf b8ee 4bbe
00000010: d8cd ccbe 800b 343e da13 2b3d 4859 493f
00000020: 1cfd 213e bbfe 4abf aa03 e43e 17d2 00bf
00000030: d19a cc3e 77c4 c6be d350 e73d 6e31 b33c
00000040: 2573 49be 5632 46bf 82cf 21bf b239 5d3f
00000050: 807e 6abd 2a91 c9bd c0e8 773d ccfa 8e3e
00000060: a78a a0be 308f 643e 5e8b a4be 62d6 323e
00000070: 9309 0cbd e85a 10be 9f83 c0bd bf54 623d
00000080: f4b6 533e 9888 563e d2a1 e9be f273 f3be
00000090: 202b a63e 9ad1 e3be 76b5 c9be 63e1 3ebe
000000a0: 1ef8 d4be fce4 22bf 32d2 ac3e 4384 8ebd
000000b0: a415 03bf 47db c43d 0928 a0be 6795 95be
000000c0: 5c8d 2c3f 34f3 6a3f b62b 1d3f 3f96 a9be
000000d0: d834 dabd eaec 31bd 5b9f a3be 1c29 b9bd
000000e0: f973 d0be 6228 f0be a0b2 a1be b52d d93c
000000f0: 2b04 c83e c05f 0fbf 886a 28bf a86e a0bc
00000100: 823c 903f fa9c bfbd fca3 043f fcd3 58be
00000110: 0555 c83c 5446 c03e c4c4 453f ef43 4e3f
00000120: a5e0 813e 2a47 233e eb51 943e c087 b23e
00000130: d969 e3bc 51dc 41be 9a12 d3be c97c 263f
00000140: 49b7 e33c 4235 78be 5ca9 1b3b e88f 003e
00000150: dd32 2e3e 3749 cabd 95d8 81bd 8b87 043d
00000160: eb17 a2be 616f 103d df24 72bf 2381 eebe
00000170: 6d2c ecbd b3d6 b3bd ac08 d53e ffb2 0bbe
00000180: d18b 2d3f d4c1 ad3e 6349 983d a6a6 56be
00000190: 220f ba3e 6d8e debe 1da0 84be 9ed7 25be
000001a0: 98d7 073e a252 f93e 6486 a23b 614e 22bd
000001b0: 1254 bbbc bd38 04bf 3869 013e 2cfb 14bf
000001c0: 5654 2cbe c4f5 66bd cc6f 5d3f 69d6 a3be
000001d0: 8869 3c3f f49e 073e 6058 873e 3a74 9fbe
000001e0: a23e 8c3e d349 03be 66a1 d9be a75e 873f
000001f0: 6997 c1be 5cb8 e13d 8766 efbe f853 38be
00000200: 5ebd c0be 7ca0 3e3e 4d36 21be 5871 a43e
00000210: dc17 f03e aca7 aebe b33b f63d 2ade 043f
00000220: d67e 0b3f 0bf5 14bd 40f4 87bf d161 473c
00000230: 2d06 4fbe d094 133e aa5d bcbe adee 8fbe
00000240: b004 29bf 5b99 4fbe 1259 7bbd d56d 94be
00000250: 6f51 003f 5a17 97bd 89e0 103e ae27 333d
00000260: 4624 bebe 0566 cfbe 772c 6dbd f5c3 b73e
00000270: bb9f 91bd 97d1 ae3d 87e4 813c 2304 7ebe
00000280: 0edb ac3d d9b5 fdbd f830 443e d2b1 c73c
00000290: e656 33bf d065 42bf f71e 9abd 776b 253f
000002a0: 403a 23be 31f9 06bd fc67 68bf b944 e6bd
000002b0: ef4e 1bbe 3694 9c3e 4223 03bf 6e66 b13e
000002c0: f30f be3d cce2 56bd 2dcc 883e 9108 9ebf
000002d0: c80a 33be 54e5 b3be e707 0abf 4f57 d0be
000002e0: 540e ecbd 1dc8 3cbe 6389 6fbe 8dba 75be
000002f0: 2606 703e c704 223f 39f0 a9be 3c76 fabe
00000300: 54cd 5dbf 2f38 533e e8f0 c63b 0c85 a53e
00000310: 491d 5c3b ff58 77ba 2792 953e 27e9 9bbe
00000320: 71fa 84bf 9cd7 96bf 2936 3dbf 166b fdbe
00000330: 81aa 153e b96b ec3d b426 763e c945 963e
00000340: 3b45 8a3e 933a 803d b2c9 f3bd c227 e2bd
00000350: 0b99 a13d 62d6 403e 9ede 05bf bfe0 943d
00000360: a709 b63e a12d d33d 71a6 103f cb64 fc3e
00000370: e510 1e3f f26b 1bbf 9ca8 c3be 53cf f23e
00000380: 3c27 2f3f 6775 1c3f c8bf 97be adec a03c
00000390: 4b7e 0abe df41 04bf 288d f53d bb9c 32be
000003a0: d811 2c3f 87fe b53d dfd2 213f b9ab 29bf
000003b0: 7a7d 88bd b398 633e 1e50 1c3d bbc3 e73d
000003c0: 39b1 b1be f13c 903e 8a12 f03e 0a38 5f3e
000003d0: d5d3 8d3b 1f62 8bbe f67c ea3e 9699 e3bd
000003e0: 2582 6b3e aa2d 53be 2e8a 5f3e ccb9 983e
000003f0: f0eb c83e 4546 013d 685c 12bf 9526 1abe

weight_hh_l0 f4 [256, 64]
0.28753808 0.39701113 -0.25209233 -0.18536021 0.30614346 0.52911663 0.1415524 -0.057542775
0.17152376 0.56609386 -0.48329854 -0.37045383 -0.18282017 -0.31247163 0.58123213 -0.22915062
-0.48212665 -0.042779613 -0.35185882 0.22772224 0.10123728 0.2629134 -0.12559246 0.19752768
-0.06832709 -0.32880634 0.1326498 0.3518171 0.42957556 -0.25091738 0.5794881 0.04857552
-1.1097478 0.06313458 0.49626997 -0.17004314 0.058004938 0.35914993 0.2155416 0.67020726
0.67715526 0.21876222 0.19723266 -0.40452278 -0.23476665 0.16850975 0.33408058 -0.2751835
-0.4242123 0.32805327 0.7071995 0.3858179 -0.35311982 -0.46917033 -0.13151878 0.054295342
0.22919938 0.11146131 -0.13659205 -0.084363446 -0.3748956 0.13235518 -0.3471506 -0.16742694
-0.23306218 0.05183005 0.07574243 -0.052749824 -0.23233499 -0.02971423 -0.17841938 0.25187084
0.31752226 0.05228978 0.5449343 0.31896722 -0.24196437 0.23941335 -0.5960208 -0.3955073
-0.31125695 0.32173914 -0.046137713 -0.07773232 -0.05833594 -0.18387827 0.010567235 0.15918314
0.026321108 0.018600108 -0.38890412 -0.26234892 -0.26465353 0.20789728 -0.2280741 -0.0028932635
0.34716526 0.31021243 0.03835108 0.030386861 -0.10317685 0.047279973 -0.0404353 -0.4144119
-0.17435353 -0.0916993 0.16252393 -0.35343456 0.015759984 0.43962532 0.2726914 -0.06116379
-0.393633 -0.009221829 0.12582211 -0.14992623 -0.68067 -0.06243972 0.22362989 -0.722208
0.050203152 0.15333958 -0.07932291 0.1993514 -0.076100454 0.32333708 0.054821845 -0.5456186
0.53458923 -0.20824105 0.0056555104 -0.23102751 0.038708366 0.14404652 -0.04824614 -0.42373672
-0.6393646 0.9838064 -0.03517983 -0.46212605 -0.25074008 0.26715586 -0.62794614 0.38387892
0.24547131 -0.26770166 0.021575136 0.44265294 0.39310384 -0.591552 0.07685965 -0.80808556
-0.52922815 -0.061175592 -0.28988224 0.34218785 0.05745779 0.010953728 0.82829756 0.1360127
0.02520073 -0.041275643 0.35065013 -0.27422303 -0.24138376 0.14568163 -0.062347807 0.2981808
-0.06271889 -0.4397642 0.098834105 0.10718251 0.2074503 -0.48090154 -0.067651905 -0.4659495
-0.103003964 -0.45828608 0.4911099 0.12752743 0.43325764 0.21001698 -0.07940843 0.039059773
-0.60697144 0.30457354 -0.009084169 -0.23258789 -0.0033393332 -0.061908275 -0.77317166 0.42363384
0.5207192 -0.61947805 -0.04394013 0.2909798 -0.18426098 0.09368496 0.060722146 0.51713204
-0.14187783 -0.2751333 0.35049424 -0.096110955 0.55442166 0.8107926 0.14811505 -0.08128615
0.27518278 -0.3862404 0.17427488 -0.34274185 -0.269769 -0.11552635 -0.03405055 -0.25768465
-0.027292421 0.08208271 -0.28768346 -0.50471103 -0.40640345 -0.014681927 -0.3346271 -0.17487478
0.32893085 0.6175859 0.11976104 0.41086158 0.03804921 0.58118665 -0.23790526 -0.2557055
-0.28450122 -0.05439591 -0.6555944 -0.30378786 -0.017916074 0.34123456 0.4059878 0.08214657
0.29463348 -0.069763504 0.124391265 0.11888036 -0.109521024 0.378127 -0.2175146 0.27165386
0.491822 -0.028793722 0.40104648 0.2902893 0.97838014 0.21227323 -0.663521 -0.25053492
00000000: 3138 933e 0b45 cb3e 3f12 81be 11cf 3dbe
00000010: d6be 9c3e 3074 073f 1df3 103e f9b1 6bbd
00000020: eda3 2f3e 87eb 103f e872 f7be 20ac bdbe
00000030: 3635 3bbe 48fc 9fbe a1cb 143f 76a6 6abe
00000040: 4ed9 f6be ad39 2fbd d726 b4be 0530 693e
00000050: 7e55 cf3d 969c 863e 4f9b 00be b244 4a3e
00000060: 13ef 8bbd 4e59 a8be 59d5 073e 5f21 b43e
00000070: 54f1 db3e 3e78 80be 5559 143f 20f7 463d
00000080: 370c 8ebf b44c 813d 1917 fe3e ca1f 2ebe
00000090: 9696 6d3d 80e2 b73e f0b6 5c3e b492 2b3f
000000a0: 0c5a 2d3f 3403 603e 5cf7 493e 9c1d cfbe
000000b0: ab66 70be d28d 2c3e 9c0c ab3e dae4 8cbe
000000c0: 5b32 d9be 99f6 a73e 070b 353f ec89 c53e
000000d0: 1fcc b4be 1837 f0be dcac 06be cb64 5e3d
000000e0: 3eb3 6a3e d445 e43d c9de 0bbe bec6 acbd
000000f0: 51f2 bfbe 1e88 073e b9bd b1be f871 2bbe
00000100: daa7 6ebe bf4b 543d d91e 9b3d 3310 58bd
00000110: 39e9 6dbe 426b f3bc 92b3 36be 37f5 803e
00000120: 4792 a23e cf2d 563d d080 0b3f ac4f a33e
00000130: 82c5 77be c628 753e d294 18bf ef7f cabe
00000140: 125d 9fbe feba a43e e6fa 3cbd 1f32 9fbd
00000150: abf1 6ebd 964a 3cbe 3222 2d3c e800 233e
00000160: 5d9f d73c 415f 983c 711e c7be 9952 86be
00000170: ab80 87be 06e3 543e 428c 69be e89c 3dbb
00000180: a5bf b13e 2ad4 9e3e 0616 1d3d deed f83c
00000190: 624e d3bd a5a8 413d 7c9f 25bd cc2d d4be
000001a0: bb89 32be d8cc bbbd ac6c 263e 60f5 b4be
000001b0: 151b 813c 9216 e13e 359e 8b3e e286 7abd
000001c0: 448a c9be 2717 17bc 83d7 003e 4386 19be
000001d0: 6440 2ebf cbc0 7fbd 3cff 643e a0e2 38bf
000001e0: d2a1 4d3d 0d05 1d3e 0d74 a2bd c622 4c3e
000001f0: 8eda 9bbd 708c a53e df8c 603d a9ad 0bbf
00000200: d7da 083f 243d 55be dc51 b93b 7a92 6cbe
00000210: aa8c 1e3d ee80 133e bf9d 45bd 05f4 d8be
00000220: 66ad 23bf bcda 7b3f ba18 10bd c99b ecbe
00000230: 0161 80be a7c8 883e 14c1 20bf c78b c43e
00000240: d55c 7b3e 3110 89be 57be b03c 68a3 e23e
00000250: e844 c93e f46f 17bf 9868 9d3d b2de 4ebf
00000260: 7f7b 07bf 4293 7abd 726b 94be 3f33 af3e
00000270: dc58 6b3d 4477 333c 4f0b 543f ea46 0b3e
00000280: c371 ce3c a610 29bd 6a88 b33e f666 8cbe
00000290: 4e2d 77be 912d 153e 6a60 7fbd 27ab 983e
000002a0: c372 80bd c628 e1be 8969 ca3d 8182 db3d
000002b0: da6d 543e ba38 f6be 158d 8abd ef90 eebe
000002c0: bef3 d2bd 79a4 eabe c272 fb3e 8d96 023e
000002d0: f2d3 dd3e b10e 573e e3a0 a2bd 24fd 1f3d
000002e0: 7b62 1bbf 10f1 9b3e c4d5 14bc 852b 6ebe
000002f0: b7d8 5abb 8893 7dbd 94ee 45bf 89e6 d83e
00000300: da4d 053f 1d96 1ebf 91fa 33bd 4efb 943e
00000310: e9ae 3cbe e6dd bf3d c9b7 783d c462 043f
00000320: 6c48 11be 46de 8cbe fb73 b33e d2d5 c4bd
00000330: 94ee 0d3f 1b90 4f3f 79ab 173e 5a79 a6bd
00000340: c2e4 8c3e 4dc1 c5be 1d75 323e dc7b afbe
00000350: 2a1f 8abe 1499 ecbd 9778 0bbd 3eef 83be
00000360: 5b94 dfbc fb1a a83d 3f4b 93be be34 01bf
00000370: 1d14 d0be 778c 70bc 3e54 abbe 6012 33be
00000380: a069 a83e 1c1a 1e3f 4745 f53d 735c d23e
00000390: 7dd9 1b3d a6c8 143f 709d 73be d5eb 82be
000003a0: 25aa 91be 3fce 5ebd 09d5 27bf 158a 9bbe
000003b0: bbc4 92bc 4cb6 ae3e a2dd cf3e 763c a83d
000003c0: 33da 963e 2be0 8ebd d9c0 fe3d 8c77 f33d
000003d0: 8f4c e0bd dd99 c13e 26bc 5ebe 3716 8b3e
000003e0: 18d0 fb3e d0e0 ebbc f755 cd3e cda0 943e
000003f0: 1f77 7a3f 275e 593e 83dc 29bf 1d46 80be

bias_ih_l0 f4 [256]
-0.30478743 -0.08219627 0.10395421 0.27839702 0.3962835 -0.21186282 -0.031966265 -0.13577339
0.038969528 0.404428 -0.02393791 0.09835495 -0.08291932 -0.070772424 0.13436377 -0.060312875
0.041516818 0.42430732 -0.060142808 -0.18090536 0.20256811 0.12947804 0.20247257 -0.22588626
0.49641404 0.34307337 0.03726407 -0.036572244 0.27118117 -0.008911934 -0.011015685 0.2728593
0.19625886 -0.01801599 -0.046550035 0.38808018 0.06238065 0.17484574 0.60872793 0.2524936
-0.06761757 0.021743307 -0.32971582 -0.13302428 0.032496195 -0.038373463 0.13374884 0.5989493
0.0692285 0.19562195 -0.26406786 0.12613261 -0.23568137 0.49272403 0.103793904 -0.16387789
0.21013708 -0.10618332 -0.023463653 0.06245364 0.0736781 -0.32255074 0.104124375 -0.33943382
0.22046107 0.012635095 0.3082818 0.45722374 0.10850834 0.53305894 0.062557094 0.251038
0.024643146 0.13998605 -0.0918126 -0.06934087 0.44956964 0.33639142 0.6931416 0.13566418
0.25961146 0.0794369 -0.11326552 -0.09256954 0.32208857 0.40050858 0.0138535695 0.4046447
0.16170534 0.2685391 0.23511577 0.071257465 0.032392874 0.25307858 0.02000834 0.2014533
-0.063689746 0.044362474 -0.30160806 0.63810563 0.5624966 -0.15956236 0.15509833 0.18023193
0.10691829 0.43570748 -0.0047554905 0.08035641 0.1713159 0.23943815 0.071552 -0.014687043
-0.11523888 0.27997544 0.20514902 0.31488147 0.4655941 0.25788113 -0.1783085 -0.09447445
0.38424677 -0.3475443 0.2916294 -0.12478521 0.17732693 -0.09566208 -0.13888037 -0.056558616
-0.14786029 -0.227505 -0.304907 -4.0264244e-05 -0.37421373 0.18945272 0.03707047 0.39936703
0.08294386 0.085755944 -0.27621275 0.002436824 0.11688843 -0.11420104 0.041729968 -0.16435131
-0.016094904 0.21510561 -0.1747055 -0.29425493 -0.15848592 0.357304 0.36971325 -0.19989412
0.24302478 -0.17219329 -0.28298154 -0.16137686 -0.00066787825 -0.21660568 0.28155434 -0.20288293
-0.04549618 0.182831 0.105337776 0.3712064 0.015799547 -0.15301771 0.13575432 0.051659323
0.2934595 -0.19303851 -0.07442431 -0.18178865 -0.23252515 0.005387665 0.15221496 0.033172753
-0.16773003 -0.17336994 -0.08664716 -0.27097437 -0.20279944 -0.13738747 -0.23023479 0.09586286
0.1926866 0.008374146 0.096162386 0.05525415 -0.2123215 -0.22262986 0.14988726 0.074364305
0.026640337 -0.18372203 0.26300567 0.26284084 0.3272197 0.019919781 0.37124318 -0.38867
0.255885 0.2287842 -0.21010299 0.3563904 0.12858662 0.5028391 0.2716595 0.4313796
0.029430553 -0.04978005 0.32041997 0.15264992 0.11583027 0.100182466 0.39082795 0.1907394
0.4167271 -0.009993363 -0.08100593 0.21973322 0.006675932 -0.040598523 0.12691225 0.39160934
0.17366931 0.345709 0.20405997 0.08680211 0.25033036 0.11643607 0.22294658 0.20666063
0.009474789 0.055476908 0.11315861 -0.16535206 0.1904083 0.03175937 0.06832207 0.29741928
0.18023835 0.34721047 0.010669317 0.38260496 0.33726007 0.27440968 0.24169877 0.032378566
0.11056842 0.021370173 0.02950732 0.2171417 0.50378716 -0.10803908 0.20448932 0.0029674424
00000000: 190d 9cbe 8556 a8bd f2e5 d43d 0e8a 8e3e
00000010: ace5 ca3e 91f2 58be 0fef 02bd 2e08 0bbe
00000020: 839e 1f3d 3011 cf3e 7019 c4bc 526e c93d
00000030: 9bd1 a9bd 22f1 90bd a896 093e a20a 77bd
00000040: 8a0d 2a3d cf3e d93e 4e58 76bd 413f 39be
00000050: 046e 4f3e e495 043e f854 4f3e ba4e 67be
00000060: fb29 fe3e 50a7 af3e 36a2 183d c7cc 15bd
00000070: 42d8 8a3e 5c03 12bc 227b 34bc 37b4 8b3e
00000080: 15f8 483e 4596 93bc 40ab 3ebd 72b2 c63e
00000090: da82 7f3d c30a 333e 98d5 1b3f d746 813e
000000a0: 157b 8abd 051f b23c 83d0 a8be 8437 08be
000000b0: bb1a 053d 7e2d 1dbd 75f5 083e be54 193f
000000c0: acc7 8d3d 1f51 483e e733 87be e828 013e
000000d0: 7556 71be 5346 fc3e e691 d43d 9bcf 27be
000000e0: 2d2e 573e a476 d9bd d936 c0bc 63cf 7f3d
000000f0: 8be4 963d 5f25 a5be 293f d53d 45ca adbe
00000100: 8cc0 613e 6e03 4f3c 1dd7 9d3e 3b19 ea3e
00000110: 9f39 de3d 8d76 083f ef1d 803d 0e88 803e
00000120: 6ce0 c93c 8158 0f3e 3f08 bcbd 9602 8ebd
00000130: fe2d e63e 7f3b ac3e ba71 313f 8deb 0a3e
00000140: cbeb 843e d0af a23d c1f7 e7bd 1995 bdbd
00000150: cbe8 a43e 760f cd3e 15fa 623c 972d cf3e
00000160: 1696 253e f57d 893e 30c2 703e 6fef 913d
00000170: 64ae 043d 8493 813e 88e8 a33c c649 4e3e
00000180: c56f 82bd 6db5 353d 5f6c 9abe e45a 233f
00000190: c7ff 0f3f 5164 23be 19d2 1e3e b88e 383e
000001a0: faf7 da3d 0d15 df3e f2d3 9bbb e791 a43d
000001b0: 6f6d 2f3e 462f 753e db89 923d eca1 70bc
000001c0: 5d02 ecbd f158 8f3e 9612 523e 2538 a13e
000001d0: 5a62 ee3e ff08 843e 8196 36be d27b c1bd
000001e0: febb c43e 54f1 b1be 7350 953e 638f ffbd
000001f0: 3195 353e 7bea c3bd a836 0ebe 02aa 67bd
00000200: b068 17be 12f7 68be c51c 9cbe 67e1 28b8
00000210: f198 bfbe e5ff 413e 35d7 173d d679 cc3e
00000220: 78de a93d d0a0 af3d c26b 8dbe 1fb3 1f3b
00000230: 3463 ef3d 3ce2 e9bd 0bed 2a3d b64b 28be
00000240: 76d9 83bc a544 5c3e 00e6 32be 95a8 96be
00000250: 224a 22be 8df0 b63e 0e4b bd3e 0bb1 4cbe
00000260: 7ddb 783e 7053 30be f5e2 90be fa3f 25be
00000270: 8d14 2fba e1cd 5dbe e427 903e 8bc0 4fbe
00000280: 345a 3abd 0d38 3b3e 55bb d73d c40e be3e
00000290: 0d6e 813c adb0 1cbe 2e03 0b3e ba98 533d
000002a0: 5340 963e e3ab 45be c66b 98bd ce26 3abe
000002b0: 131b 6ebe 028b b03b 3dde 1b3e 27e0 073d
000002c0: 6cc1 2bbe e487 31be 1174 b1bd 27bd 8abe
000002d0: a8aa 4fbe 4daf 0cbe abc2 6bbe bf53 c43d
000002e0: a34f 453e b733 093c c9f0 c43d 2d52 623d
000002f0: cf6a 59be 15f9 63be 0c7c 193e 504c 983d
00000300: d63c da3c a121 3cbe aea8 863e 1393 863e
00000310: 5789 a73e cf2e a33c 9613 be3e c1ff c6be
00000320: 5c03 833e 6846 6a3e 3d25 57be cd78 b63e
00000330: 36ac 033e 10ba 003f f416 8b3e c9dd dc3e
00000340: 5818 f13c 2ae6 4bbd 160e a43e 4350 1c3e
00000350: 6c38 ed3d 772c cd3d 9a1a c83e 3051 433e
00000360: 415d d53e 34bb 23bc 70e6 a5bd bf01 613e
00000370: c7c1 da3b a34a 26bd 49f5 013e 0581 c83e
00000380: 5ed6 313e c500 b13e 19f5 503e 4ec5 b13d
00000390: 4d2b 803e 0976 ee3d 1c4c 643e d89e 533e
000003a0: 253c 1b3c c13b 633d b4bf e73d 0d52 29be
000003b0: 65fa 423e 1d16 023d 71ec 8b3d 5747 983e
000003c0: 6790 383e 92c5 b13e 5cce 2e3c cce4 c33e
000003d0: 5aad ac3e 6d7f 8c3e e27f 773e 639f 043d
000003e0: b271 e23d 8010 af3c 56b9 f13c 655a 5e3e
000003f0: 32f8 003f 9843 ddbd a665 513e 6c79 423b

bias_hh_l0 f4 [256]
-0.31887555 0.02475176 0.107736096 0.32114878 0.33969605 -0.111834645 -0.096202865 -0.26247382
-0.054147433 0.3140717 -0.11478863 0.07984323 -0.18830106 0.0029955423 0.20174098 -0.091333225
0.081727006 0.2925083 -0.09653165 -0.15330689 0.1943235 0.098598056 -0.0043296427 -0.33510414
0.49850157 0.2819325 0.04782027 -0.074979626 0.37279618 0.15585174 0.030925412 0.36185235
0.09660969 0.07630808 0.004695099 0.33048844 0.13720262 0.13875125 0.42540762 0.1253986
-0.26313895 0.010430765 -0.29633528 -0.13640031 0.16604081 -0.14504212 0.070462175 0.53279966
-0.070442535 0.22771883 -0.2673064 0.20906724 -0.200473 0.4305703 0.012928956 0.04735084
0.20517693 -0.19474773 0.02862079 0.0125222 0.039846167 -0.49948913 0.07822473 -0.3808039
0.0308282 -0.008521745 0.25913316 0.62913316 0.06025216 0.39127022 0.1362917 0.03111638
0.10263345 0.042660534 -0.076524146 -0.036846373 0.46164432 0.33803648 0.5373811 0.17662142
0.082748346 -0.090352856 -0.08565774 -0.15153648 0.18887888 0.46776038 0.14473847 0.39830527
0.15679641 0.270933 0.14386523 -0.08211491 0.093666434 0.10767537 -0.015627207 0.11216596
-0.04431261 0.22978488 -0.13651615 0.5404214 0.5894881 -0.11234041 0.15035744 0.14072424
0.08066914 0.45549905 -0.09082365 0.097293414 0.25625062 0.034394916 0.07570188 -0.026694903
-0.05714285 0.42152232 0.13964088 0.20161845 0.4659867 0.121520355 -0.03885076 0.076986365
0.20925651 -0.44610524 0.28874022 0.03194024 0.06517921 -0.20000613 -0.089725345 0.11808956
-0.33637652 -0.22933088 -0.3495929 -0.04814227 -0.3500484 0.14396858 -0.006584905 0.38329625
0.032273833 -0.04409898 -0.33731142 0.1220441 0.21258785 -0.23435228 -0.10541625 -0.14412984
0.13397726 0.21457843 -0.15979533 -0.28434074 -0.03250581 0.32427797 0.33556503 -0.18503295
0.22451532 -0.3508347 -0.49605688 -0.0717749 0.11158314 -0.14554569 0.2957752 -0.1896338
-0.0346912 0.2701283 0.20802957 0.5149773 -0.008821037 -0.1532767 -0.04049471 -0.059972025
0.35243294 -0.15309714 -0.16551338 -0.1969917 -0.19446434 -0.032507945 0.18983515 -0.045115743
0.011900997 -0.07349302 -0.17848487 -0.38262862 -0.09894416 -0.113109216 -0.17006208 0.14763363
0.25007877 0.0030741666 0.034047604 0.17864786 -0.289118 -0.065684296 0.30315575 -0.093046665
-0.00059888815 -0.09264708 0.39630526 0.18457238 0.37541845 -0.0581342 0.32079494 -0.27855575
0.32379904 0.1662898 -0.1395859 0.30455917 0.04383161 0.34623736 0.28163666 0.2347499
0.01827014 0.018102149 0.23517324 0.20024852 0.14834577 0.017444676 0.2703281 0.29864895
0.5420278 -0.059530452 -0.10692341 0.41265756 0.11493779 -0.054617535 0.02324987 0.35866272
0.23925105 0.22996022 0.38996312 0.18830699 0.05316491 0.12066322 0.14619574 0.1691702
-0.019099383 -0.09242202 0.120564416 -0.24999428 0.120635286 -0.02454594 0.071926124 0.5006971
0.24190018 0.3988551 -0.036216896 0.20303771 0.12222648 0.22757442 0.23657216 0.0133879725
-0.017752582 0.06512851 0.15180883 0.0188931 0.5188876 -0.29273066 0.20673914 0.064661026
00000000: a843 a3be 34c4 ca3c bea4 dc3d 9d6d a43e
00000010: a4ec ad3e 9009 e5bd 0206 c5bd f862 86be
00000020: b3c9 5dbd 02ce a03e 4d16 ebbd d984 a33d
00000030: fed1 40be dc50 443b 3095 4e3e ea0c bbbd
00000040: 7d60 a73d a6c3 953e 63b2 c5bd 7bfc 1cbe
00000050: bdfc 463e c7ed c93d addf 8dbb c592 abbe
00000060: 993b ff3e 7559 903e 30df 433d eb8e 99bd
00000070: 24df be3e 9997 1f3e 4a57 fd3c b644 b93e
00000080: 4ddb c53d 6947 9c3d 58d9 993b c835 a93e
00000090: d87e 0c3e cf14 0e3e 07cf d93e 7e68 003e
000000a0: 26ba 86be cde5 2a3c 42b9 97be 86ac 0bbe
000000b0: 9a06 2a3e ec85 14be 794e 903d 8f65 083f
000000c0: 2d44 90bd 202f 693e 62dc 88be b915 563e
000000d0: cb48 4dbe b673 dc3e f9d3 533c f4f2 413d
000000e0: e719 523e f36b 47be 2676 ea3c ea29 4d3c
000000f0: bc35 233d 0abd ffbe 4a34 a03d bbf8 c2be
00000100: 6c8b fc3c ca9e 0bbc 1aad 843e df0e 213f
00000110: f8ca 763d 9254 c83e 0d90 0b3e c7e7 fe3c
00000120: 7c31 d23d d0bc 2e3d b1b8 9cbd 39ec 16bd
00000130: a55c ec3e 1e13 ad3e cf91 093f 3fdc 343e
00000140: f777 a93d eb0a b9bd 536d afbd 612c 1bbe
00000150: 7769 413e 4a7e ef3e 5236 143e abee cb3e
00000160: 3d8f 203e bbb7 8a3e 6851 133e dd2b a8bd
00000170: 30d4 bf3d e884 dc3d a104 80bc 44b7 e53d
00000180: 2481 35bd ba4c 6b3e e4ca 0bbe 0f59 0a3f
00000190: b1e8 163f bb12 e6bd 4df7 193e 041a 103e
000001a0: dd35 a53d 2c37 e93e c001 babd c541 c73d
000001b0: 4833 833e afe1 0c3d 9609 9b3d 45af dabc
000001c0: 9f0e 6abd c6d1 d73e 05fe 0e3e 1175 4e3e
000001d0: cf95 ee3e aadf f83d f921 1fbd 07ab 9d3d
000001e0: 5747 563e e867 e4be c2d5 933e c5d3 023d
000001f0: ad7c 853d 68ce 4cbe ecc1 b7bd f0d8 f13d
00000200: 8b39 acbe b7d5 6abe d7fd b2be d430 45bd
00000210: 8b39 b3be 806c 133e 30c6 d7bb 683f c43e
00000220: 9131 043d 22a1 34bd 15b4 acbe 42f2 f93d
00000230: a1b0 593e 0bfa 6fbe 7ae4 d7bd c696 13be
00000240: 5631 093e 73ba 5b3e 63a1 23be 1c95 91be
00000250: d024 05bd c307 a63e 2ecf ab3e 4779 3dbe
00000260: 58e7 653e 9ba0 b3be 2bfb fdbe b8fe 92bd
00000270: b485 e43d ee09 15be d96f 973e 5d2f 42be
00000280: 5c18 0ebd 424e 8a3e b405 553e 8dd5 033f
00000290: 1c86 10bc 91f4 1cbe c8dd 25bd 3aa5 75bd
000002a0: 1772 b43e 7fc5 1cbe 577c 29be 31b8 49be
000002b0: a921 47be 0d27 05bd 2564 423e 49cb 38bd
000002c0: 66fc 423c 8283 96bd bdc4 36be e6e7 c3be
000002d0: 3ca3 cabd cea5 e7bd c124 2ebe 452d 173e
000002e0: 530a 803e f577 493b 8075 0b3d 77ef 363e
000002f0: 4607 94be 7d85 86bd 3b37 9b3e 408f bebd
00000300: b4fe 1cba c1bd bdbd 86e8 ca3e 8b00 3d3e
00000310: d936 c03e 201e 6ebd 3c3f a43e dc9e 8ebe
00000320: fdc8 a53e e047 2a3e 9bef 0ebe 2eef 9b3e
00000330: c688 333d 0646 b13e ae32 903e 4762 703e
00000340: 43ab 953c f54a 943c 41d1 703e f30d 4d3e
00000350: f4e7 173e 23e8 8e3c 7268 8a3e 84e8 983e
00000360: 55c2 0a3f 34d6 73bd a9fa dabd da47 d33e
00000370: 8164 eb3d a3b6 5fbd 8376 be3c a4a2 b73e
00000380: 3afe 743e b17a 6b3e 3fa9 c73e 8cd3 403e
00000390: 73c3 593d 471e f73d 56b4 153e f43a 2d3e
000003a0: 4f76 9cbc c247 bdbd 7aea f63d 80fe 7fbe
000003b0: a20f f73d 9114 c9bc 014e 933d af2d 003f
000003c0: aeb4 773e bc36 cc3e 2b58 14bd 1ee9 4f3e
000003d0: e051 fa3d 4509 693e f93f 723e 3a59 5b3c
000003e0: dd6d 91bc 1962 853d c673 1b3e b4c5 9a3c
000003f0: d1d5 043f cbe0 95be 6db3 533e 006d 843d

weight f4 [6, 64]
0.8387801 2.2746663 -0.42494982 -0.6532606 3.6623158 1.6565306 4.389455 0.3749765
-2.6031518 -3.6351788 -5.2255645 -0.15628041 -1.9700372 2.479919 -5.006112 6.0231094
2.053838 -5.7069287 5.879455 -1.2509803 1.3918434 0.5076363 3.5887535 1.4491576
2.746819 4.6749067 2.1716118 -2.2811768 -1.2141565 3.0358312 -0.7015602 0.76018447
-3.7549324 3.3504975 -1.6694329 -1.1900798 1.9585534 -2.6545424 -1.0463148 0.5154941
2.0928628 -0.64684045 -8.624459 4.630454 -6.593869 1.6219323 -4.304802 -3.339665
-2.4246395 -3.0742822 -6.710504 -2.074699 -1.004954 0.57036823 -1.9794708 3.8743901
-6.216434 -0.49399272 -1.6642059 -6.9375653 -3.8126986 2.8701522 1.0826066 -1.493185
3.633761 1.8439593 -1.1987029 5.1684513 -4.0615826 -0.6629233 -4.260343 3.1824322
7.0248404 4.7527456 0.667346 -4.3520713 -1.1599567 2.588009 -1.4640588 2.4233093
3.967975 1.8854696 -1.9034219 5.3915215 2.968068 0.98514545 0.36506692 1.3647372
4.213112 -1.6483392 1.0300626 -1.3507255 -1.735445 -2.3303874 -6.1754217 1.8709708
6.4430923 2.700732 0.79352427 0.5892478 2.5047345 1.283274 1.4124113 -0.6629277
0.89153403 -2.7210298 7.138091 0.4924486 2.0397234 -0.6580337 2.2595723 0.53620327
0.8224071 0.12606469 1.5380032 -0.60592705 -4.20896 -4.8591576 7.283745 -2.6055024
1.8427476 -6.9404 -0.23480888 -2.3951185 -3.064335 -2.5067565 1.163991 0.19071807
-4.52065 0.4916036 4.338428 0.7062392 -4.974465 1.5139843 -3.2217565 -1.3217582
2.1598742 -4.70994 4.048209 -1.9195949 0.8706408 -1.3856183 2.5286543 5.788192
0.010082915 3.483965 -6.619584 0.8843573 1.4439449 4.7431707 -2.476201 1.4490216
-3.602758 -0.33287197 -1.8153228 2.2935758 -1.6389788 1.5412164 1.1410981 -2.6243207
-1.9219762 -0.9859254 -1.5027008 -1.3574946 4.319265 -1.5944529 -0.052255537 3.8378005
3.100452 4.1671195 -3.1573496 -2.019693 0.555145 5.258065 2.021759 2.5180247
0.6709899 5.356687 5.24447 3.2504497 1.854851 5.9652767 2.4819577 1.8660502
1.3730136 2.0623538 0.009299279 5.6301994 -3.7008865 1.5487274 3.3694727 -1.6014633
2.9523156 -2.9561265 0.2686022 3.0540154 6.2735434 0.6191882 2.4047227 -2.7936766
1.3414519 0.43261686 1.7930627 4.473285 0.52895224 0.72821337 -0.6209481 -4.517263
-1.887799 4.7741895 -5.6934385 -2.2480168 0.66900164 -0.9470437 0.88157094 0.933167
-4.315537 -2.6717691 -4.539408 -3.5613596 -2.114202 2.2729537 -4.3420496 3.4023876
-0.70161504 -8.721733 6.517584 2.7896936 -4.956592 0.8134516 -0.42114267 -2.4965022
-5.0422583 -2.9093866 -0.22425374 0.34699827 5.4036593 -8.7147665 -1.6588467 3.2814436
0.7871442 -0.5794195 -0.8334637 -1.2300675 4.004709 -2.4424863 -6.59173 -3.6973197
4.644557 -0.9511293 3.170535 0.8656383 3.1826313 0.56917727 -3.4356768 -2.8324533
00000000: 4bba 563f 2294 1140 0693 d9be 163c 27bf
00000010: 6263 6a40 3209 d43f 6a76 8c40 ebfc bf3e
00000020: 0a9a 26c0 c5a6 68c0 d337 a7c0 f907 20be
00000030: 2e2a fcbf feb6 1e40 1232 a0c0 50bd c040
00000040: 1572 0340 299f b6c0 7f24 bc40 1f20 a0bf
00000050: ed27 b23f 74f4 013f 23ae 6540 ff7d b93f
00000060: e2cb 2f40 d698 9540 b0fb 0a40 cdfe 11c0
00000070: 7b69 9bbf 0f4b 4240 7399 33bf 739b 423f
00000080: d050 70c0 8d6e 5640 faaf d5bf 8954 98bf
00000090: e1b1 fa3f 06e4 29c0 a5ed 85bf 6cf7 033f
000000a0: 77f1 0540 5697 25bf c9fd 09c1 ae2c 9440
000000b0: fa00 d3c0 7a9b cf3f f0c0 89c0 12bd 55c0
000000c0: 4b2d 1bc0 0ac1 44c0 73bc d6c0 dec7 04c0
000000d0: 55a2 80bf a703 123f 4d5f fdbf 02f6 7740
000000e0: 07ed c6c0 9dec fcbe b304 d5bf 8900 dec0
000000f0: 4103 74c0 93b0 3740 da92 8a3f b020 bfbf
00000100: 8a8f 6840 dc06 ec3f 196f 99bf f463 a540
00000110: 7cf8 81c0 57b5 29bf bb54 88c0 f8ac 4b40
00000120: 7ecb e040 7e16 9840 30d7 2a3f 2b44 8bc0
00000130: 7679 94bf f1a1 2540 4766 bbbf 8017 1b40
00000140: 4df3 7d40 1157 f13f 54a3 f3bf 5887 ac40
00000150: d3f4 3d40 7e32 7c3f 0dea ba3e b5af ae3f
00000160: d0d1 8640 c7fc d2bf 17d9 833f 93e4 acbf
00000170: 1023 debf 1125 15c0 0e9d c5c0 f97b ef3f
00000180: d02d ce40 cbd8 2c40 6824 4b3f f2d8 163f
00000190: 924d 2040 5342 a43f e5c9 b43f a1b5 29bf
000001a0: 933b 643f 5a25 2ec0 3e6b e440 3922 fc3e
000001b0: d48a 0240 e674 28bf d59c 1040 9e44 093f
000001c0: 4689 523f 1a17 013e 4add c43f 091e 1bbf
000001d0: cdaf 86c0 387e 9bc0 7014 e940 8dc0 26c0
000001e0: 27df eb3f c217 dec0 bd71 70be 9f49 19c0
000001f0: 111e 44c0 b36e 20c0 a8fd 943f 994b 433e
00000200: 2aa9 90c0 78b3 fb3e 67d4 8a40 18cc 343f
00000210: d12e 9fc0 3dca c13f 4231 4ec0 5f2f a9bf
00000220: 613b 0a40 d4b7 96c0 ee8a 8140 49b5 f5bf
00000230: 51e2 5e3f f15b b1bf 79d5 2140 de38 b940
00000240: d032 253c 48f9 5e40 a2d3 d3c0 3d65 623f
00000250: 30d3 b83f 0ec8 9740 147a 1ec0 8a79 b93f
00000260: 9693 66c0 326e aabe 7f5c e8bf f2c9 1240
00000270: 0fca d1bf 9446 c53f 810f 923f dff4 27c0
00000280: 5103 f6bf 9b65 7cbf 8058 c0bf 62c2 adbf
00000290: 6b37 8a40 0817 ccbf e709 56bd 869e 7540
000002a0: ce6d 4640 0b59 8540 0412 4ac0 a642 01c0
000002b0: fc1d 0e3f 1242 a840 8064 0140 5127 2140
000002c0: fec5 2b3f fb69 ab40 b3d2 a740 5e07 5040
000002d0: c26b ed3f 8ce3 be40 65d8 1e40 bcda ee3f
000002e0: e9be af3f 9bfd 0340 015c 183c 982a b440
000002f0: 53db 6cc0 b33c c63f 71a5 5740 c0fc ccbf
00000300: bdf2 3c40 2d31 3dc0 3a86 893e fd74 4340
00000310: dec0 c840 1e83 1e3f fae6 1940 99cb 32c0
00000320: b2b4 ab3f f57f dd3e 1483 e53f 2725 8f40
00000330: 6a69 073f 316c 3a3f 74f6 1ebf 6b8d 90c0
00000340: 66a3 f1bf 29c6 9840 a630 b6c0 82df 0fc0
00000350: b143 2b3f 7571 72bf a2ae 613f 08e4 6e3f
00000360: e118 8ac0 44fe 2ac0 d542 91c0 51ed 63c0
00000370: 164f 07c0 1378 1140 12f2 8ac0 b8c0 5940
00000380: 0b9d 33bf 388c 0bc1 0c90 d040 578a 3240
00000390: 679c 9ec0 5d3e 503f 03a0 d7be b1c6 1fc0
000003a0: 2e5a a1c0 6433 3ac0 c6a2 65be c2a9 b13e
000003b0: c7ea ac40 af6f 0bc1 1755 d4bf 2c03 5240
000003c0: 4882 493f d654 14bf e15d 55bf da72 9dbf
000003d0: 9326 8040 b251 1cc0 74ef d2c0 e3a0 6cc0
000003e0: 36a0 9440 367d 73bf 0cea 4a40 799a 5d3f
000003f0: 3bb0 4b40 9ab5 113f 21e2 5bc0 ea46 35c0

bias f4 [6]
0.29469022 -0.7144411 0.14884657 1.2626057 0.015382019 0.7477121
00000000: a3e1 963e 9de5 36bf 3c6b 183e 109d a13f
00000010: dd04 7c3c 0f6a 3f3f
